RL_algorithms/Torch/PPO/Continious/PPO_Two_heads/models/space_robot_actor.pt (torch, 299991 bytes, 6 tensors)

base_model.0.weight f4 [256, 21]
-0.12454989 0.14396136 0.13228227 0.06699643 -0.14325553 -0.08013091 -0.050905034 0.027836995
-0.19490115 -0.14190081 -0.09416446 0.08159693 0.16773203 0.09641375 -0.1633875 -0.06729248
0.081724964 0.052950975 0.039004613 0.00062436407 -0.18834238 0.15315965 0.11548335 0.12419485
-0.17517665 0.18158658 0.025286967 -0.19247206 0.18167198 -0.20206958 -0.124207675 -0.089083344
0.19323544 -0.014556324 0.13567993 0.043902967 0.14997086 0.21162406 -0.21848133 0.18555954
0.05995052 0.12810919 -0.03551035 0.19227348 -0.033083595 0.13768198 -0.10809909 0.0020300304
0.05020437 0.18530147 -0.06150539 -0.02451072 0.0059714797 0.1325732 0.08023626 -0.17983025
-0.13741511 -0.0312263 0.1561969 0.065003216 0.17913382 0.12234451 0.11787411 -0.059255924
0.18062514 0.059735343 0.100251734 0.1968948 0.07972999 0.15619203 -0.13153677 0.18400697
0.027500676 -0.07683721 0.18723735 -0.09774585 0.04228693 0.060959414 0.07166075 -0.027171457
0.104034334 0.16822211 -0.21374844 -0.062146604 0.12180233 0.08206958 -0.037779473 -0.013360654
-0.068605244 0.19689803 -0.18583797 0.20641871 -0.025930157 0.15333335 -0.05375978 -0.08685106
0.10883078 -0.11115114 0.069901235 -0.13259307 -0.19336036 -0.045786668 0.073817104 0.11164895
-0.1506053 -0.017318828 -0.20983265 -0.18043293 0.1545479 -0.004165366 0.0873045 -0.07123661
-0.0749708 0.18533678 -0.0018353204 -0.15943912 -0.075409 0.17712054 -0.024431234 0.11491197
-0.037809536 -0.15351863 -0.08052036 0.05447912 -0.1740966 -0.1972549 -0.16833343 -0.22091402
0.04077595 -0.0848809 0.15384504 0.10260961 -0.022070132 0.041058846 -0.14256763 0.028969284
-0.0050820457 -0.051884092 0.17860027 0.13059433 0.08641642 -0.14879028 0.012587314 -0.1474469
0.1690031 -0.06666605 -0.06050119 0.04911132 0.047871873 -0.028000385 0.08181451 -0.21633416
-0.194962 0.10129781 0.07334466 0.19223808 -0.12133297 -0.20568576 -0.005774215 -0.07497358
-0.093123466 -0.2123145 -0.17055976 -0.026715085 -0.019511133 -0.13433486 0.004076481 -0.09310192
0.14344467 -0.0783968 -0.12948255 -0.007780008 -0.023338903 -0.18846524 -0.15850809 0.20982604
0.122578 0.07405491 -0.1380003 -0.01467745 0.12162149 0.07022662 0.028110303 0.19850267
0.19759549 -0.09634368 0.07565405 0.06634968 0.0566551 0.1408989 0.008858921 0.11940116
-0.17887823 0.14287199 -0.167708 -0.15715204 -0.017395256 0.14355433 -0.05495997 -0.054738447
0.122399315 0.07661496 -0.16362076 0.13359384 -0.11565856 -0.05637571 0.06704847 0.05042356
-0.09881979 0.1592422 0.19162714 0.1461821 -0.20990355 -0.10216277 0.115048036 -0.063129924
-0.08397328 -0.15159418 0.00868802 0.06429232 -0.1005581 0.21118595 0.012485024 -0.029107856
0.1298444 -0.13719386 0.1618447 -0.11426133 -0.048728265 -0.09337842 0.028945161 0.14602835
0.20860419 0.123919584 0.005838866 -0.10815709 -0.011899384 0.119974114 -0.1520106 -0.06981561
0.21677727 0.19774166 0.04677464 0.023866815 -0.17816103 0.08547678 -0.16514115 -0.04123774
-0.07555101 -0.13677329 -0.057430442 0.20595126 -0.057159793 0.1349404 -0.17655054 -0.21083374
00000000: 0314 ffbd 9b6a 133e 0175 073e 6d35 893d
00000010: 94b1 12be ad1b a4bd cc81 50bd 690a e43c
00000020: 2b94 47be 724e 11be 4cd9 c0bd 4b1c a73d
00000030: f2c1 2b3e 9274 c53d 0e4f 27be a4d0 89bd
00000040: 6b5f a73d 1fe3 583d 4dc3 1f3d 5dac 233a
00000050: d3dc 40be e2d5 1c3e 8982 ec3d df59 fe3d
00000060: 8261 33be d5f1 393e 9d26 cf3c 6517 45be
00000070: 3808 3a3e 54eb 4ebe 9860 febd 5471 b6bd
00000080: 83df 453e a67d 6ebc aeef 0a3e 99d3 333d
00000090: f691 193e fab3 583e 92b9 5fbe 5203 3e3e
000000a0: ad8e 753d 0e2f 033e 4d73 11bd 57e3 443e
000000b0: aa82 07bd 81fc 0c3e 0e63 ddbd 420a 053b
000000c0: 19a3 4d3d abbf 3d3e 13ed 7bbd b5ca c8bc
000000d0: 67ac c33b 45c1 073e e952 a43d 6c25 38be
000000e0: 8cb6 0cbe 4cce ffbc 15f2 1f3e 6820 853d
000000f0: db6e 373e c28f fa3d fb67 f13d 57b6 72bd
00000100: ccf5 383e 0cad 743d c850 cd3d ca9e 493e
00000110: 7a49 a33d cef0 1f3e 93b1 06be 536c 3c3e
00000120: 1949 e13c d45c 9dbd 26bb 3f3e fa2e c8bd
00000130: 0f35 2d3d 94b0 793d dfc2 923d ad96 debc
00000140: f40f d53d 6b42 2c3e dfe0 5abe 708d 7ebd
00000150: 8073 f93d 1914 a83d a6be 1abd a5e6 5abc
00000160: e880 8cbd a39f 493e 4f4c 3ebe 6d5f 533e
00000170: 7b6b d4bc 6b03 1d3e 3733 5cbd f8de b1bd
00000180: ace2 de3d 35a3 e3bd 6128 8f3d 7ac6 07be
00000190: 4200 46be cd8a 3bbd 6c2d 973d 34a8 e43d
000001a0: 4738 1abe 37e0 8dbc 5fde 56be 69c3 38be
000001b0: ce41 1e3e 9f7d 88bb b4cc b23d 80e4 91bd
000001c0: 4a8a 99bd edc8 3d3e 228f f0ba 0244 23be
000001d0: 0970 9abd 165f 353e 0324 c8bc f856 eb3d
000001e0: 2cde 1abd fd33 1dbe dce7 a4bd 7f25 5f3d
000001f0: 6146 32be 30fd 49be 995f 2cbe 4937 62be
00000200: af04 273d 0ad6 adbd 8e89 1d3e fd24 d23d
00000210: 6ccc b4bc 522d 283d 40fd 11be fe50 ed3c
00000220: 4a87 a6bb 6a84 54bd fde2 363e 85ba 053e
00000230: 18fb b03d 7b5c 18be 053b 4e3c 52fc 16be
00000240: 260f 2d3e 3688 88bd 19d0 77bd f428 493d
00000250: 4c15 443d 1061 e5bc 5e8e a73d b486 5dbe
00000260: 1ea4 47be 3a75 cf3d ba35 963d 0fda 443e
00000270: 6c7d f8bd 4a9f 52be a035 bdbb c08b 99bd
00000280: 84b7 bebd f968 59be 38a7 2ebe 98d9 dabc
00000290: d0d5 9fbc 148f 09be 0094 853b 38ac bebd
000002a0: 29e3 123e 808e a0bd 1397 04be 70ef febb
000002b0: 3a31 bfbc 08fd 40be f24f 22be a3dc 563e
000002c0: 2d0a fb3d 1aaa 973d f34f 0dbe b079 70bc
000002d0: b014 f93d f9d2 8f3d 9447 e63c 4944 4b3e
000002e0: 7956 4a3e d64f c5bd 83f0 9a3d 57e2 873d
000002f0: 2e0f 683d cd47 103e 0225 113c 9888 f43d
00000300: db2b 37be 094d 123e a5bb 2bbe 77ec 20be
00000310: 7f80 8ebc e8ff 123e b51d 61bd 6c35 60bd
00000320: 7eac fa3d 4ee8 9c3d 338c 27be d3cc 083e
00000330: 65de ecbd 37ea 66bd b550 893d ef88 4e3d
00000340: 0862 cabd 6310 233e e839 443e c3b0 153e
00000350: f5f0 56be b73a d1bd 4e9e eb3d 434a 81bd
00000360: 2ffa abbd 813b 1bbe 3258 0e3c b1ab 833d
00000370: 68f1 cdbd 2141 583e fc8d 4c3c 9973 eebc
00000380: eef5 043e 8c7c 0cbe 9eba 253e d801 eabd
00000390: 4a97 47bd 2f3d bfbd 671e ed3c 7588 153e
000003a0: 569c 553e 8dc9 fd3d f553 bf3b 7781 ddbd
000003b0: a2f5 42bc fdb4 f53d aba8 1bbe 7dfb 8ebd
000003c0: dcfa 5d3e ca7c 4a3e c496 3f3d 5784 c33c
000003d0: d86f 36be 730e af3d c31a 29be e8e8 28bd
000003e0: 7dba 9abd 4c0e 0cbe 2f3c 6bbd e3e4 523e
000003f0: 6320 6abd d12d 0a3e aac9 34be cde4 57be

base_model.0.bias f4 [256]
0.1371769 0.1852307 -0.0030378418 0.011378422 0.19188428 -0.11298156 -0.059926104 0.10542886
-0.09015512 0.024791798 0.14208205 -0.13488194 0.0688725 -0.20228699 0.2137186 -0.10781576
-0.12363983 0.10210755 -0.19016796 0.118979 0.17035432 -0.061926164 -0.06908963 -0.03469366
0.025435649 0.002257845 -0.033493068 0.2118061 -0.090930924 -0.18563826 -0.15548196 -0.085326694
0.16514586 -0.071364895 -0.06124086 -0.1155469 -0.21029319 -0.18669099 -0.044691086 0.106199585
0.2061093 -0.2062202 0.0075806123 0.046044096 -0.1999375 -0.14235587 0.06649868 0.06683362
-0.0989621 0.08638717 -0.19015242 -0.070169024 -0.088725254 0.16826692 0.03910482 -0.20377007
0.15348862 -0.1359256 -0.058961302 0.03456618 -0.01444535 -0.13453671 -0.024292009 0.15417688
-0.20368749 0.05874203 -0.097069 0.06148197 -0.13359596 0.00083558174 -0.030528797 -0.090826124
-0.15075201 -0.038947284 -0.08506883 0.20956816 0.13679051 -0.022015901 0.13812664 0.17128676
0.15055214 -0.11651375 0.21149278 0.17424597 -0.13341695 0.006077685 0.14075445 0.13716105
0.006998986 -0.09069184 -0.13728473 -0.121181235 0.12640336 0.14966737 -0.18950234 -0.07946007
-0.19076276 -0.0769993 -0.03186949 -0.017018443 0.031287134 0.14227742 -0.19028613 0.12499178
0.16161099 0.077489026 -0.043802053 -0.13934872 -0.045175057 -0.076584354 0.15380162 0.14025694
-0.060700282 -0.038319148 0.19099762 -0.19385155 -0.04180847 -0.024191633 0.12444247 0.18912494
-0.004535839 0.13426764 -0.07652332 0.19594593 -0.14840306 -0.15790053 0.16841127 0.08153808
-0.077341594 0.09509647 0.0714414 -0.14425285 0.0039079203 0.20474496 0.07447593 0.16369867
-0.18633188 0.0050995536 -0.21103346 -0.19582695 0.19695514 0.090192065 0.0381803 -0.077704936
0.003914947 -0.05797691 0.120582454 0.18970579 0.08386447 0.041414913 -0.041088235 0.12733185
-0.104505636 0.2006437 -0.17594945 -0.14155445 0.056646083 -0.21486442 -0.18349634 -0.033463795
0.031449772 0.017530829 -0.05385304 -0.07748189 0.16671158 -0.19135503 -0.16499329 -0.21096595
-0.022864737 -0.06825684 0.14006644 -0.038444385 0.06009836 -0.21321051 0.003065528 0.014621928
-0.17036368 0.032926336 0.18025823 -0.04465461 0.03876299 -0.105358094 0.010451012 -0.1642324
-0.21512157 -0.07908131 0.00652907 -0.06388894 0.04047299 0.1413811 -0.13571604 0.013706903
0.17947236 0.16354765 -0.10598873 -0.11689568 -0.16188061 0.028454095 0.0867554 0.10707067
-0.06189409 -0.16202338 0.18609692 -0.10275058 -0.21536565 -0.07326256 -0.20811084 -0.16771114
-0.16692849 0.022449216 -0.11650469 -0.035873134 0.21865508 0.037869517 -0.14299162 0.09567325
-0.13435529 0.18748434 -0.09631002 -0.21403195 0.03625159 0.005992247 0.17960432 -0.069903955
-0.1469785 -0.14802143 -0.09810983 -0.11784078 -0.15347342 0.12953381 0.08934935 -0.20066017
-0.18905893 -0.0087782275 -0.020385545 -0.009905026 0.16838637 -0.1964316 -0.00477165 0.0224116
0.038907394 -0.056915227 0.14925857 0.20533928 0.07608898 0.19161586 0.096487835 0.116507724
0.0049353787 -0.21020016 -0.13010858 -0.1928652 -0.13784029 -0.13760588 0.009467701 0.09546932
00000000: 1a78 0c3e 1ead 3d3e 8716 47bb 906c 3a3c
00000010: 507d 443e e062 e7bd 1375 75bd 16eb d73d
00000020: 3fa3 b8bd 2b18 cb3c f57d 113e 7e1e 0abe
00000030: 060d 8d3d 5224 4fbe 0cd9 5a3e 82ce dcbd
00000040: e136 fdbd c31d d13d 64bb 42be 43ab f33d
00000050: 5d71 2e3e 4aa6 7dbd dd7e 8dbd f01a 0ebd
00000060: 6c5e d03c 5af8 133b 0730 09bd b3e3 583e
00000070: fe39 babd f517 3ebe aa36 1fbe c3bf aebd
00000080: ff1b 293e c227 92bd b2d7 7abd daa3 ecbd
00000090: 1957 57be ec2b 3fbe 000e 37bd 2b7f d93d
000000a0: 510e 533e 632b 53be c966 f83b bc98 3c3d
000000b0: 6abc 4cbe bdc5 11be 7630 883d 11e0 883d
000000c0: a4ac cabd c2eb b03d 51b7 42be c7b4 8fbd
000000d0: 96b5 b5bd 2a4e 2c3e 602c 203d 1aa9 50be
000000e0: 1f2c 1d3e 1530 0bbe 6881 71bd 4495 0d3d
000000f0: 30ac 6cbc fec3 09be 0900 c7bc 8be0 1d3e
00000100: 7493 50be 7c9b 703d 1dcc c6bd 85d4 7b3d
00000110: 61cd 08be f10a 5b3a 8717 fabc 0c03 babd
00000120: bc5e 1abe 3087 1fbd 9138 aebd 0999 563e
00000130: d012 0c3e b15a b4bc 1271 0d3e cc65 2f3e
00000140: 572a 1a3e c39e eebd 9091 583e 896d 323e
00000150: 749e 08be 5127 c73b ef21 103e f273 0c3e
00000160: c057 e53b a5bc b9bd 5e94 0cbe de2d f8bd
00000170: e26f 013e 6742 193e e70c 42be f6bb a2bd
00000180: 5057 43be cfb1 9dbd 9589 02bd 436a 8bbc
00000190: f026 003d 2cb1 113e 5eda 42be b1fb ff3d
000001a0: 5a7d 253e 91b2 9e3d c869 33bd 6eb1 0ebe
000001b0: 7b09 39bd 42d8 9cbd 2c7e 1d3e 849f 0f3e
000001c0: dca0 78bd 8af4 1cbd e194 433e 0581 46be
000001d0: 5c3f 2bbd 882d c6bc b2db fe3d f8a9 413e
000001e0: 60a1 94bb 757d 093e 42b8 9cbd 0da6 483e
000001f0: f9f6 17be adb0 21be 0174 2c3e 70fd a63d
00000200: 4565 9ebd f0c1 c23d de4f 923d 05b7 13be
00000210: 030e 803b aaa8 513e d686 983d a0a0 273e
00000220: c9cd 3ebe 281a a73b 2819 58be dc86 48be
00000230: 9cae 493e 9eb6 b83d f262 1c3d c423 9fbd
00000240: f548 803b 3279 6dbd eff3 f63d 3c42 423e
00000250: 23c1 ab3d afa2 293d 234c 28bd 4863 023e
00000260: 0d07 d6bd 8b75 4d3e 182c 34be a6f3 10be
00000270: b905 683d 6b05 5cbe 77e6 3bbe 5511 09bd
00000280: 7ad1 003d d09c 8f3c 0195 5cbd d3ae 9ebd
00000290: 71b6 2a3e 93f2 43be 00f4 28be 7507 58be
000002a0: d44e bbbc 3eca 8bbd 946d 0f3e dc77 1dbd
000002b0: b329 763d db53 5abe 07e7 483b d090 6f3c
000002c0: d173 2ebe c4dd 063d 9d95 383e c1e7 36bd
000002d0: f1c5 1e3d fcc5 d7bd b93a 2b3c 8a2c 28be
000002e0: d448 5cbe 62f5 a1bd cff1 d53b 34d8 82bd
000002f0: 02c7 253d 35c6 103e 25f9 0abe eb92 603c
00000300: 9ac7 373e 0979 273e 9f10 d9bd 0167 efbd
00000310: 08c4 25be 9018 e93c d1ac b13d de47 db3d
00000320: a884 7dbd 75e9 25be 3190 3e3e e56e d2bd
00000330: d088 5cbe ae0a 96bd 021b 55be 78bc 2bbe
00000340: 4def 2abe 6be7 b73c 039a eebd b5ef 12bd
00000350: 1ee7 5f3e 111d 1b3d 656c 12be 56f0 c33d
00000360: 6f94 09be e5fb 3f3e 303e c5bd 312b 5bbe
00000370: 8c7c 143d 9c5a c43b 32ea 373e ce29 8fbd
00000380: 8881 16be ee92 17be ceed c8bd 8256 f1bd
00000390: 2328 1dbe 83a4 043e cbfc b63d dc79 4dbe
000003a0: aa98 41be 8ed2 0fbc 96ff a6bc b148 22bc
000003b0: 7a6d 2c3e 5e25 49be 805b 9cbb 8898 b73c
000003c0: 5c5d 1f3d f11f 69bd 3dd7 183e 7644 523e
000003d0: 8ad4 9b3d f336 443e 6a9b c53d 9a9b ee3d
000003e0: f5b8 a13b b63e 57be 2f3b 05be 747e 45be
000003f0: 0126 0dbe 8ee8 0cbe 6b1e 1b3c 6b85 c33d

base_model.2.weight f4 [256, 256]
0.013915813 -0.0052777915 0.032978497 0.030960163 -0.054011162 -0.017944401 0.00459531 0.05549694
0.0055683125 -0.0040329597 0.026613165 0.05496836 0.049320012 0.01245971 -0.04117957 0.00060292345
0.043667197 0.04318596 -0.027525142 -0.043623284 -0.052409552 -0.020827768 -0.029515468 0.027847439
0.026207574 -0.054412488 0.021229735 -0.04238817 0.0033657004 0.039226647 -0.011642858 -0.047537107
0.060476128 0.02256236 0.005741257 -0.032066204 -0.034733005 -0.011560608 -0.0005854368 0.026277805
0.05859609 0.039291598 -0.0090424325 0.015097991 0.051861115 -0.018777642 0.040472098 0.0030583125
0.05154818 0.01572954 -0.024134502 -0.043799277 0.056510508 -0.029849038 -0.058418296 -0.009581012
-0.018648898 -0.0417109 -0.018936768 -0.04151202 -0.024911992 -0.027535778 -0.012955947 -0.043513622
-0.054573517 0.013840862 0.05615558 -0.030810094 -0.021500833 -0.043509826 0.05759036 -0.0017303828
0.06171074 -0.058507025 0.027870268 -0.046553694 0.058844488 -0.058675617 -0.052815318 0.05538777
0.014195046 0.050181508 -0.04894949 -0.025357472 0.06283629 0.053183258 0.05538469 -0.041506603
0.00063478947 -0.007393103 -0.035929564 -0.05898395 0.032557387 0.024799425 0.036922596 0.028762715
-0.04024817 -0.019324742 -0.044741537 0.05429201 0.030251792 0.012982706 0.0049193907 0.046981186
-0.025926597 0.021025026 -0.0018993553 -0.027107742 0.026105283 0.044804916 0.052492388 -0.03979493
0.0060367365 0.008522389 0.022354871 -0.032716032 -0.012558235 0.013671599 -0.017621167 0.045354933
0.05202151 -0.03834123 0.034254905 -0.0307746 -0.05856135 0.025065176 0.05749748 0.01965534
0.03255855 0.03875147 -0.02527465 -0.024625078 -0.03859653 0.032051332 0.037144877 -0.02786689
0.060540434 0.046810973 0.05115954 0.056133807 0.038679037 0.00907781 0.028392456 0.018815849
-0.0012376442 0.038606405 -0.01236002 -0.046047434 -0.05495813 -0.025178367 -0.021572012 -0.02602884
-0.05561755 -0.0463092 0.011230422 -0.04354248 0.06418408 -0.03735386 0.053265586 0.0332053
0.033585332 0.018289007 0.020661216 -0.012149361 0.0083657205 0.029698918 0.00958566 -0.03772887
0.03340015 -0.042362016 -0.04153659 0.060948417 -0.02402813 -0.020312065 -0.0058026845 -0.05180853
0.010455799 0.044449262 0.029675243 0.0050118025 0.05369103 -0.021104872 -0.0030344783 0.05252563
0.048006445 -0.048847944 0.04205789 0.036668368 0.004972957 0.06454598 -0.037801825 -0.0047335355
0.010353195 -0.04991185 -0.009727695 -0.017183958 -0.0537827 0.031545766 0.051678244 0.010433532
0.023785552 -0.036789626 -0.032425165 0.06316052 0.01071144 -0.000336767 -0.011316653 -0.008379989
0.019739715 -0.052028723 0.017445488 -0.037514515 -0.02118187 0.013647205 0.015285254 -0.033423826
-0.0069423234 -0.01850725 -0.043296546 0.021216571 -0.033352695 0.016063984 -0.008985528 0.036608398
-0.01700391 -0.038006894 -0.010018555 0.054670088 0.00031804532 0.034772143 0.016992034 0.015830575
-0.025227819 -0.05431323 0.019306336 0.012266473 0.0025441863 0.036924817 0.04113107 -0.059189625
-0.038281254 0.044010546 0.053622294 0.03952103 -0.028841244 0.033323854 -0.040229198 -0.0309446
0.0321225 -0.036990087 0.032487616 0.05804704 0.02296108 0.021811318 -0.010302291 0.031577177
00000000: 26ff 633c 53f1 acbb 7614 073d 2ba0 fd3c
00000010: cf3a 5dbd 2300 93bc 4194 963b c250 633d
00000020: 6476 b63b eb26 84bb da03 da3c 8126 613d
00000030: c803 4a3d d023 4c3c e9ab 28bd 820d 1e3a
00000040: 60dc 323d c3e3 303d 687c e1bc 54ae 32bd
00000050: 66ab 56bd ff9e aabc 6cca f1bc 5020 e43c
00000060: 44b1 d63c a1df 5ebd fbe9 ad3c 389f 2dbd
00000070: 1593 5c3b 1fac 203d b0c1 3ebc 45b6 42bd
00000080: d1b5 773d b3d4 b83c 2821 bc3b da57 03bd
00000090: 3244 0ebd b468 3dbc 0078 19ba 8d44 d73c
000000a0: 7402 703d 3af0 203d b626 14bc 905d 773c
000000b0: 526c 543d 92d3 99bc 12c6 253d f86d 483b
000000c0: 2f24 533d 3cdb 803c b8b5 c5bc df66 33bd
000000d0: 9077 673d f885 f4bc 0648 6fbd adf9 1cbc
000000e0: 93c5 98bc 0cd9 2abd 4821 9bbc 8208 2abd
000000f0: 3c14 ccbc b692 e1bc 2e45 54bc 573b 32bd
00000100: 7b88 5fbd c8c4 623c 6503 663d 7365 fcbc
00000110: 8422 b0bc 5c37 32bd dfe3 6b3d 03ce e2ba
00000120: 67c4 7c3d 10a5 6fbd 3050 e43c 16af 3ebd
00000130: eb06 713d d855 70bd e054 58bd 49de 623d
00000140: 5792 683c 208b 4d3d 437f 48bd 79ba cfbc
00000150: 50b0 803d b0d6 593d 0fdb 623d d402 2abd
00000160: 0068 263a d841 f2bb e12a 13bd 2899 71bd
00000170: e55a 053d 2a28 cb3c 263c 173d c99f eb3c
00000180: 44db 24bd ec4e 9ebc e742 37bd 4c61 5e3d
00000190: 9bd2 f73c 6ab5 543c d732 a13b 586f 403d
000001a0: 0464 d4bc ad3c ac3c caf3 f8ba 0e11 debc
000001b0: bfda d53c 5c85 373d 4202 573d 0200 23bd
000001c0: d1cf c53b 7ea1 0b3c 9021 b73c 3f01 06bd
000001d0: 0ec1 4dbc d8fe 5f3c 445a 90bc 18c6 393d
000001e0: 8214 553d b20b 1dbd df4e 0c3d 041b fcbc
000001f0: 07de 6fbd 7c55 cd3c 7a82 6b3d 3c04 a13c
00000200: 1d5c 053d ddb9 1e3d c80c cfbc 88ba c9bc
00000210: 6517 1ebd 4248 033d 3a25 183d 1b49 e4bc
00000220: 3ff9 773d ddbc 3f3d aa8c 513d 90ec 653d
00000230: e96d 1e3d 18bb 143c 4c97 e83c b223 9a3c
00000240: 7338 a2ba c021 1e3d ae81 4abc 3c9c 3cbd
00000250: c71b 61bd dd42 cebc cab7 b0bc 6f3a d5bc
00000260: 3acf 63bd b7ae 3dbd ceff 373c 9959 32bd
00000270: f172 833d 5c00 19bd 042d 5a3d 4802 083d
00000280: c690 093d d4d2 953c b641 a93c 1d0e 47bc
00000290: 6010 093c 254b f33c 2c0d 1d3c 9689 1abd
000002a0: 98ce 083d cb83 2dbd 4522 2abd 0ca5 793d
000002b0: a4d6 c4bc 7d65 a6bc 7224 bebb 2e35 54bd
000002c0: cd4e 2b3c 6e10 363d 7f19 f33c 0c3a a43b
000002d0: 20eb 5b3d 20e4 acbc 19de 46bb 1d25 573d
000002e0: 68a2 443d c814 48bd e544 2c3d 9231 163d
000002f0: 30f4 a23b af30 843d 16d6 1abd c61b 9bbb
00000300: 72a0 293c 5e70 4cbd e960 1fbc 5fc5 8cbc
00000310: 404b 5cbd 2236 013d 91ac 533d 68f1 2a3c
00000320: ebd9 c23c b8b0 16bd 40d0 04bd 4d5a 813d
00000330: 097f 2f3c 1a90 b0b9 7c69 39bc 394c 09bc
00000340: 2fb5 a13c 121c 55bd d7e9 8e3c d2a8 19bd
00000350: 9a85 adbc 8798 5f3c 016f 7a3c 6ce7 08bd
00000360: 6e7c e3bb 849c 97bc b857 31bd 60ce ad3c
00000370: d69c 08bd 9e98 833c 0938 13bc b0f2 153d
00000380: c94b 8bbc 1ead 1bbd de24 24bc beed 5f3d
00000390: 52bf a639 3c6d 0e3d e132 8b3c 1faf 813c
000003a0: 92aa cebc 8d77 5ebd 5228 9e3c 51f9 483c
000003b0: 5dbc 263b 7a3e 173d 0e79 283d d270 72bd
000003c0: cecc 1cbd 6744 343d 0da3 5b3d cee0 213d
000003d0: 7944 ecbc 987e 083d 5fc7 24bd 887f fdbc
000003e0: e292 033d eb82 17bd bc11 053d bcc2 6d3d
000003f0: e018 bc3c a6ad b23c f1ca 28bc 1257 013d

base_model.2.bias f4 [256]
0.013629376 -0.030921035 0.024839371 0.061661795 0.017783664 -0.017889393 0.024286816 -0.0545128
0.057092607 0.061272763 -0.055545256 0.023788154 0.024775011 0.051617082 -0.05947806 -0.048102364
-0.039451778 -0.049049612 0.020192023 0.023809902 0.017901246 -0.03039532 -0.029277133 -0.0044924957
-0.032943588 -0.04849654 -0.007940748 -0.051863737 0.008271093 0.05425044 0.005196494 -0.04758821
0.047670677 -0.012575055 0.035162404 -0.017973753 0.013736927 -0.03553764 -0.015418448 -0.0048565525
-0.016337618 0.03130675 0.045730066 -0.01593762 -0.02726094 0.032902874 0.020473907 -0.049118217
-0.05217581 -0.008028466 -0.01096843 -0.000554502 -0.049415942 0.055402577 -0.02657805 -0.0516983
0.056379154 -0.016775325 -0.032156076 0.042406995 -0.058251377 -0.05857961 0.04598327 -0.027190607
0.01198978 -0.043976255 -0.04924383 0.0007288269 0.019722072 -0.040583886 0.026123831 -0.02418825
0.006270447 -0.011492584 -0.022246324 0.06200111 0.054829106 0.040491004 0.011311498 0.026258588
-0.026870867 0.047775388 -0.028144116 -0.04281763 0.053332936 -0.031591807 -0.039921142 0.013343428
-0.01914406 0.05849721 0.0031174384 -0.049763158 0.01592701 -0.04331694 -0.045916636 -0.014811755
0.010567295 0.013061892 -0.050734837 -0.045442283 0.0015263334 -0.044029795 0.01815407 -0.057515334
0.031624492 0.036836255 0.0037011753 -0.0014837007 0.0006438418 -0.027102403 -0.037030324 -0.044898257
0.033229537 -0.060255375 0.009447835 -0.05290949 -0.004082349 -0.036921494 0.0046475814 -0.022740386
-0.023295492 -0.006619565 0.041234564 0.058825485 -0.059685398 0.04718979 0.054139815 0.020036278
0.03985752 -0.018071432 -0.021409009 -0.058015447 0.003656606 0.060669217 0.019365286 0.035697628
-0.0219866 0.017591171 0.01842999 0.023591546 -0.030271899 -0.020041667 0.0081703365 -0.031593997
0.04005731 0.02476153 0.021702992 0.0017239617 0.046069503 0.008633225 0.04264872 0.026331093
0.020478874 -0.020298714 -0.052441303 0.02595428 -0.012620248 0.057438873 0.005577597 -0.02332278
0.033444837 -0.053064547 0.033471186 -0.015546764 0.02970122 0.058578532 0.036433186 0.024548218
0.03757489 0.028411292 0.048548654 0.0022071912 -0.012898796 -0.039018277 -0.011589181 -0.0571914
-0.045618724 0.032176025 0.026722178 0.064401865 -0.026964454 0.0012078179 -0.057869896 -0.0058272434
0.031085895 -0.048160873 0.046520717 -0.059530396 -0.03926131 0.042208407 0.025960252 -0.0030762553
0.019420914 -0.023119302 -0.0152155105 0.018834844 -0.01769859 -0.017385 0.028680854 -0.00088699494
-0.0027749217 0.03298979 -0.022900604 0.0025150583 -0.018454663 0.056791168 -0.018679515 0.0013925484
0.05220579 0.01626637 0.011782721 0.0038721657 0.021407539 0.028834315 -0.02251178 -0.00025788028
0.0040714154 0.03206637 0.03682516 0.020559229 0.052316703 -0.032836825 -0.034512863 0.015734356
0.023432167 0.04465451 0.062826164 -0.053344887 0.005188987 0.0037644506 -0.021135353 0.055007804
-0.042944103 -0.005568152 0.03278211 -0.02906745 0.022620006 0.02567106 0.010442294 0.027792217
-0.0525615 0.060475286 -0.01948716 -0.008537269 0.02925932 -0.014946197 0.027045416 -0.06028949
0.028606718 0.04277831 0.057865407 -0.03212261 -0.0518834 -0.06350075 0.057883397 -0.02940569
00000000: bf4d 5f3c 1c4e fdbc f07b cb3c 1491 7c3d
00000010: 0caf 913c c78c 92bc 25f5 c63c d048 5fbd
00000020: f0d9 693d 26f9 7a3d 6c83 63bd 60df c23c
00000030: f7f4 ca3c 6f6c 533d 449f 73bd fc06 45bd
00000040: 3098 21bd 3fe8 48bd be69 a53c fc0c c33c
00000050: a2a5 923c 9bff f8bc 99d6 efbc c935 93bb
00000060: dbef 06bd 4fa4 46bd e919 02bc 126f 54bd
00000070: 7a83 073c b635 5e3d 5a47 aa3b dbeb 42bd
00000080: 5442 433d 9a07 4ebc 7406 103d b13d 93bc
00000090: d910 613c eb8f 11bd a89d 7cbc b723 9fbb
000000a0: 78d6 85bc 823b 003d 734f 3b3d 9d8f 82bc
000000b0: 5652 dfbc 2ac5 063d e5b8 a73c 2f30 49bd
000000c0: 4db6 55bd d489 03bc eeb4 33bc 005c 11ba
000000d0: 5f68 4abd d0ed 623d 36ba d9bc 99c1 53bd
000000e0: d4ed 663d 686c 89bc 17b6 03bd f5b2 2d3d
000000f0: ff98 6ebd 2cf1 6fbd f458 3c3d d6be debc
00000100: c870 443c 7220 34bd e6b3 49bd bf0e 3f3a
00000110: 2f90 a13c 4a3b 26bd a501 d63c 7026 c6bc
00000120: 5278 cd3b 644b 3cbc ec3d b6bc e0f4 7d3d
00000130: 7c94 603d e5d9 253d dc53 393c 401c d73c
00000140: 4b20 dcbc 20b0 433d 7d8e e6bc 8a61 2fbd
00000150: a373 5a3d 6966 01bd 5a84 23bd 659e 5a3c
00000160: 01d4 9cbc c59a 6f3d f04d 4c3b 74d4 4bbd
00000170: 5c79 823c 1b6d 31bd 1513 3cbd 01ad 72bc
00000180: 7322 2d3c 8c01 563c 55cf 4fbd b021 3abd
00000190: 400f c83a 9658 34bd d8b7 943c 3395 6bbd
000001a0: af88 013d 9de1 163d 6b8f 723b bc78 c2ba
000001b0: 7ec7 283a dc05 debc 1cad 17bd 3ce7 37bd
000001c0: b21b 083d 57ce 76bd 18cb 1a3c 9fb7 58bd
000001d0: 3ac5 85bb fe3a 17bd bd4a 983b 0c4a babc
000001e0: 30d6 bebc f0e8 d8bb 93e5 283d fef2 703d
000001f0: ad78 74bd 154a 413d b6c1 5d3d 1f23 a43c
00000200: a441 233d 8a0a 94bc f261 afbc 9ba1 6dbd
00000210: aba3 6f3b 4980 783d f3a3 9e3c ad37 123d
00000220: 3e1d b4bc 5c1b 903c 7efa 963c 0f43 c13c
00000230: c6fc f7bc 6c2e a4bc e0dc 053c b568 01bd
00000240: 2213 243d b1d8 ca3c 79ca b13c 8ef6 e13a
00000250: 60b3 3c3d 5f72 0d3c 6db0 2e3d 4eb4 d73c
00000260: 50c3 a73c 7d49 a6bc b1cc 56bd 129e d43c
00000270: 28c5 4ebc 0645 6b3d 46c4 b63b 6a0f bfbc
00000280: 74fd 083d 365a 59bd 1519 093d dbb7 7ebc
00000290: f94f f33c 0bf0 6f3d f73a 153d 5819 c93c
000002a0: 21e8 193d ccbe e83c f4da 463d 86a6 103b
000002b0: 7955 53bc a1d1 1fbd 8ce0 3dbc 8841 6abd
000002c0: b3da 3abd 02cb 033d 78e8 da3c 20e5 833d
000002d0: 8fe4 dcbc a54f 9e3a fc08 6dbd 76f2 bebb
000002e0: d9a7 fe3c 5644 45bd 828c 3e3d 25d6 73bd
000002f0: 78d0 20bd b9e2 2c3d 98aa d43c 009b 49bb
00000300: 9c18 9f3c b164 bdbc 7a4a 79bc 884b 9a3c
00000310: a2fc 90bc fd6a 8ebc 1cf4 ea3c 3985 68ba
00000320: 76db 35bb 4d20 073d 0c9a bbbc add3 243b
00000330: 3c2e 97bc db9d 683d c805 99bc 2c86 b63a
00000340: bdd5 553d 0d41 853c 500c 413c 29c4 7d3b
00000350: dd5e af3c f135 ec3c a06a b8bc 1b34 87b9
00000360: 8269 853b 0758 033d fbd5 163d d46b a83c
00000370: 0a4a 563d e87f 06bd 5c5d 0dbd 56e5 803c
00000380: d1f4 bf3c a6e7 363d 01ab 803d 2b80 5abd
00000390: 6108 aa3b 00b5 763b 0c24 adbc dd4f 613d
000003a0: 28e6 2fbd 0b75 b6bb 8946 063d dc1e eebc
000003b0: 974d b93c 1d4c d23c 2816 2b3c 81ac e33c
000003c0: ba4a 57bd efb4 773d 89a3 9fbc e7df 0bbc
000003d0: 3eb1 ef3c e5e0 74bc 598e dd3c 1df2 76bd
000003e0: a358 ea3c 4f38 2f3d 4704 6d3d ff92 03bd
000003f0: b083 54bd ae0c 82bd 2417 6d3d 34e4 f0bc

fc.0.weight f4 [12, 256]
-0.059718154 -0.030602075 0.016646871 -0.033339154 -0.0430718 0.054226566 -0.025377423 -0.0026252663
0.04406582 -0.017426714 -0.02366501 0.00710683 -0.057166487 -0.038601562 0.027728533 -0.017723199
0.034772567 0.016927661 -0.030273315 0.016897978 -0.014258358 -0.049833562 0.005170794 0.01820386
0.014728865 -0.055945083 0.014923133 0.005501529 -0.027704308 0.032434255 0.008759708 0.05418349
-0.050573945 -0.018340686 -0.059832636 0.03639791 0.016257767 0.050164253 -0.02701734 0.010996053
-0.027301222 -0.027197884 0.05865331 -0.008377339 0.019989284 0.05758339 0.058458466 0.03132032
0.05583819 0.052815888 -0.013777145 0.04782553 0.011983303 -0.020062352 -0.033264775 -0.042997755
-0.052893877 -0.03831862 0.055328216 -0.035457965 -0.033939656 -0.054139122 -0.00544605 0.014666184
-0.018209098 -0.060910687 -0.056198634 0.02495185 0.021886073 0.012619009 0.014587559 0.06139069
0.046761747 0.050605338 -0.0032131975 -0.05952776 0.0076861973 -0.054981582 0.037901983 -0.06081157
0.0014921675 -0.061683863 0.03951012 -0.055184767 0.0025536763 0.03362519 0.036318377 0.027458007
-0.016134903 -0.0046654795 0.036925405 -0.017063426 0.033801086 -0.0478618 -0.004279431 0.010751369
-0.0048460863 0.02716432 -0.011692751 -0.051777363 -0.048195265 -0.004840158 -0.05458535 0.010384618
-0.029457506 0.008210065 0.0002668628 -0.044638917 -0.008037359 0.029752588 -0.020366706 0.03193521
-0.055437487 -0.020607108 0.013983622 0.04630201 -0.023273274 0.0118366815 0.018037157 0.038395885
0.006359257 -0.005235754 0.00037829895 0.0005862224 0.042316657 0.011176288 0.044021904 -0.063714944
-0.06255353 -0.057200994 -0.027356226 -0.0011844317 -0.017253483 0.022118544 -0.016960008 0.00237009
-0.06011804 -0.050230708 -0.011013003 0.009723455 -0.049174327 0.01632458 0.048436083 0.04107324
0.002630666 -0.0027004543 0.044949785 0.039148334 0.04037612 -0.051985614 0.042583212 -0.01223289
-0.061247185 0.026963783 0.04133761 0.05329853 -0.042676605 0.04904192 0.021875998 0.012881488
-0.06155786 0.0024882122 0.024868218 -0.040900107 0.026854035 -0.035891652 0.037097525 -0.06024427
-0.043451075 0.04954108 -0.017929504 0.03016672 -0.03248195 0.050469153 -0.008652462 0.003417655
-0.028966796 -0.0549519 0.0013460084 -0.05139424 -0.02399593 0.045147866 0.010757893 -0.009358891
-0.040687095 -0.060121708 0.055236258 0.007950826 -0.053895146 0.03781696 0.060770728 0.030526526
-0.05483412 -0.023379376 -0.04798736 0.05812122 0.017926553 -0.039183814 0.05896856 -0.029576693
0.044260647 -0.017809901 0.05479023 0.014645538 -0.007402979 0.054809146 0.045502253 -0.014589496
0.012641018 -0.01350657 -0.009576529 0.04404465 -0.024851948 -0.0074999235 0.011285014 -0.0010582733
-0.03979141 -0.00064719986 -0.061393365 -0.023097534 -0.055769384 0.05102868 0.010818832 0.026265904
0.056664117 0.04638086 0.021797836 0.020271223 -0.06250814 0.02318383 0.05925861 0.027818542
-0.03232565 0.009308295 -0.011465709 0.052340277 -0.023263566 -0.02317906 -0.045957483 -0.038899966
0.0029623285 0.031092342 0.027160304 -0.05252177 -0.038906593 -0.055064406 -0.057986993 0.040109735
-0.032444365 -0.0017362697 -0.023456167 0.00044276292 -0.021868208 0.046095554 0.00742054 0.03343474
00000000: 069b 74bd 34b1 fabc 055f 883c a38e 08bd
00000010: 0e6c 30bd ad1c 5e3d 50e4 cfbc a90c 2cbb
00000020: 5c7e 343d 78c2 8ebc 20dd c1bc 69e0 e83b
00000030: 6827 6abd ac1c 1ebd f326 e33c 3e30 91bc
00000040: ae6d 0e3d e1ab 8a3c beff f7bc a16d 8a3c
00000050: e39b 69bc 471e 4cbd c46f a93b 4320 953c
00000060: 5651 713c ac26 65bd 2880 743c 2c46 b43b
00000070: 25f4 e2bc c8d9 043d e184 0f3c 82ef 5d3d
00000080: a026 4fbd 353f 96bc 1113 75bd fa15 153d
00000090: 022f 853c 0879 4d3d 7853 ddbc ca28 343c
000000a0: d0a6 dfbc 19ce debc 743e 703d 1b41 09bc
000000b0: 91c0 a33c 90dc 6b3d 2572 6f3d bc49 003d
000000c0: 96b6 643d 7955 583d 89b9 61bc b4e4 433d
000000d0: 9e55 443c cd59 a4bc a540 08bd 6a1e 30bd
000000e0: 40a7 58bd fcf3 1cbd d79f 623d 5f3c 11bd
000000f0: 4f04 0bbd fcc0 5dbd c774 b2bb 6f4a 703c
00000100: 3f2b 95bc 7c7d 79bd 8a30 66bd d267 cc3c
00000110: 6c4a b33c f6bf 4e3c a800 6f3c ce74 7b3d
00000120: 3f89 3f3d 8b47 4f3d 8294 52bb 61d3 73bd
00000130: 7fdc fb3b 5e34 61bd 1c3f 1b3d 8e15 79bd
00000140: d594 c33a 38a8 7cbd 5dd5 213d 6c09 62bd
00000150: 945b 273b 91ba 093d 94c2 143d 9def e03c
00000160: 582d 84bc e1e0 98bb 183f 173d 99c8 8bbc
00000170: 0273 0a3d bc0a 44bd 783a 8cbb 8326 303c
00000180: ebcb 9ebb b587 de3c f492 3fbc 8014 54bd
00000190: 6668 45bd 309a 9ebb e394 5fbd 3f24 2a3c
000001a0: de50 f1bc 8283 063c b8e9 8b39 4cd7 36bd
000001b0: 21af 03bc b3bb f33c 14d8 a6bc 7fce 023d
000001c0: 6b12 63bd 3dd0 a8bc 901b 653c 2da7 3d3d
000001d0: 98a7 bebc a4ee 413c a9c2 933c 0145 1d3d
000001e0: 5061 d03b b090 abbb 6d56 c639 b8ac 193a
000001f0: 3b54 2d3d c01c 373c 5050 343d fb7c 82bd
00000200: 111c 80bd 974b 6abd 2a1a e0bc ef3e 9bba
00000210: 2d57 8dbc f331 b53c b7ef 8abc 8353 1b3b
00000220: 553e 76bd b7be 4dbd e26f 34bc 204f 1f3c
00000230: 056b 49bd 20bb 853c ea64 463d 6a3c 283d
00000240: 4067 2c3b 1bfa 30bb 441d 383d 015a 203d
00000250: 6e61 253d deee 54bd bc6b 2e3d 766c 48bc
00000260: 54de 7abd 27e3 dc3c a051 293d 8f4f 5a3d
00000270: aacd 2ebd 2ee0 483d 4b35 b33c e00c 533c
00000280: 1824 7cbd 4611 233b 6fb8 cb3c df86 27bd
00000290: fefc db3c 2003 13bd 93f3 173d b2c2 76bd
000002a0: c1f9 31bd 96eb 4a3d e5e0 92bc 3220 f73c
000002b0: cb0b 05bd beb8 4e3d 0ec3 0dbc bcfa 5f3b
000002c0: c64b edbc 3e15 61bd 8c6c b03a c482 52bd
000002d0: 1d93 c4bc f8ec 383d e041 303c 0956 19bc
000002e0: 83a7 26bd 2e42 76bd 6a3f 623d 2e44 023c
000002f0: 28c1 5cbd f5e5 1a3d baea 783d c412 fa3c
00000300: be99 60bd 1b86 bfbc 658e 44bd 8410 6e3d
00000310: b5da 923c 357f 20bd 0489 713d d24a f2bc
00000320: a74a 353d 12e6 91bc b86b 603d d7f3 6f3c
00000330: b094 f2bb 8e7f 603d 9260 3a3d c808 6fbc
00000340: 461c 4f3c a94a 5dbc e0e6 1cbc 2a68 343d
00000350: 5096 cbbc ebc1 f5bb c8e4 383c c2b5 8aba
00000360: 51fc 22bd d9a8 29ba 9c77 7bbd 0a37 bdbc
00000370: 706e 64bd 7303 513d 7841 313c 982b d73c
00000380: a218 683d dbf9 3d3d 6091 b23c d60f a63c
00000390: 4504 80bd 04ec bd3c 28b9 723d b6e3 e33c
000003a0: e767 04bd d281 183c abda 3bbc c262 563d
000003b0: 3c93 bebc 03e2 bdbc ea3d 3cbd 9255 1fbd
000003c0: a023 423b 5eb5 fe3c 497f de3c 1121 57bd
000003d0: 855c 1fbd 378b 61bd c583 6dbd 1b4a 243d
000003e0: 62e4 04bd 8b93 e3ba 2627 c0bc a222 e839
000003f0: f524 b3bc b1ce 3c3d 0028 f33b def2 083d

fc.0.bias f4 [12]
-0.050607383 -0.05448561 0.0052772653 -0.03815121 0.056409683 0.039294537 0.02651834 0.036480084
0.048888683 0.0012005878 -0.05043929 -0.03916213
00000000: b049 4fbd 4e2c 5fbd e9ec ac3b 7144 1cbd
00000010: d70d 673d 4ff3 203d fd3c d93c 246c 153d
00000020: 803f 483d 0b5d 9d3a 6e99 4ebd 7868 20bd
