RL_algorithms/Torch/PPO/Continious/PPO_Two_heads/models/space_robot_critic.pt (torch, 288663 bytes, 5 tensors)

critic.0.weight f4 [256, 21]
000000 52 6f 09 bd 9b 25 5a bd ab 34 ab 3c ae eb 56 be
       -0.03355343 -0.05325852 0.020899137 -0.20988342
000010 ed b6 78 3d 12 a3 01 3e dc f7 31 3e ff 89 53 3d
       0.060721327 0.12659863 0.17379707 0.051645275
000020 6a ee d7 3d 47 ff 59 be 4f a8 d2 3c 90 43 50 3e
       0.10543521 -0.21288787 0.025715021 0.20338273
000030 ca 93 98 bd d5 45 4d be fb fb 08 bd 55 ba 07 3e
       -0.074500635 -0.2004617 -0.033443432 0.13254674
000040 5b aa 05 3e 5e 6e 7e 3d 90 6c b1 bd 34 85 c6 bd
       0.13053267 0.062116973 -0.08663285 -0.09693375
000050 36 93 38 bd a3 fc d9 3d 9e 7d cc 3d 64 9d cc bd
       -0.045062266 0.1064389 0.09984897 -0.099909574
000060 31 ce 84 3c 06 74 fc 3d 63 b3 06 3d b6 f6 25 3d
       0.016211601 0.12326817 0.03288592 0.040518485
000070 e6 3a 63 3c d7 7e a4 3c 2d 10 f3 3a cb e5 74 bb
       0.013869023 0.020080013 0.001854425 -0.0037368413
000080 cf 52 4f 3e 7b c1 cd bd 26 10 89 bd b6 2d 64 3b
       0.20246433 -0.10046669 -0.06692533 0.0034817285
000090 4c 24 6e 3d cc c2 63 3e 40 34 1d 3e 9a f5 0e be
       0.058140084 0.22242278 0.15351963 -0.13960877
0000a0 da fc c4 bd ac 43 88 3d 7c 65 8e bd da e3 e9 bd
       -0.0961854 0.066535324 -0.0695295 -0.11420412
0000b0 c8 c5 01 be 8c f3 5f be 3b 43 dd bc d5 c6 db 3d
       -0.12673104 -0.2187025 -0.027009597 0.107312836
0000c0 90 50 d9 bd 3a 7e 6f 3c 36 3e 30 be 20 5f 1c be
       -0.10611069 0.014617497 -0.17211232 -0.15270662
0000d0 09 6b 25 be ac f5 25 3d 40 2b 35 be 75 e6 b9 3d
       -0.16154112 0.040517494 -0.1769228 0.09077159
0000e0 d8 eb 41 bd d9 85 09 be 86 08 50 3d 33 61 21 bd
       -0.04734406 -0.13429965 0.05078938 -0.039399337
0000f0 24 85 3b be e2 d5 0f be 0a f4 13 3d 66 d6 4e be
       -0.18312508 -0.14046434 0.036121406 -0.20198974
000100 bb 8b f1 bb bf 73 d4 3d ee db ce 3d 78 ba 28 be
       -0.0073713935 0.10373639 0.10100542 -0.16477382
000110 17 49 c6 bd 80 bc 38 be 2a 2a e5 3d 78 60 16 be
       -0.096819095 -0.18040657 0.11189683 -0.14685237
000120 c8 92 e9 bd 68 03 5c 3e 57 bf 60 bd c1 a7 a4 bd
       -0.114049494 0.21485674 -0.054869976 -0.08039809
000130 e9 64 0e 3e e9 67 44 be e2 68 9f 3d e0 8a 67 3d
       0.13905682 -0.19180264 0.07783677 0.056528926
000140 13 08 14 be fe c9 b2 bd 4e e1 ca 3c b7 e0 84 bb
       -0.14456205 -0.08729933 0.024765637 -0.0040551084
000150 f1 2d 5f 3e 2b 84 6f 3d 5a 4f 36 be 48 c6 f5 bb
       0.21794869 0.058475655 -0.17803708 -0.0075004436
000160 89 eb 87 3d 23 ad 97 bd 46 ab 43 3e 30 9e f7 3d
       0.06636722 -0.0740607 0.19108304 0.12090719
000170 43 af 77 bd c1 c4 22 be 75 74 d1 bd 08 06 76 3c
       -0.060469877 -0.15895368 -0.102272905 0.015016086
000180 36 d1 b9 3d 6d f1 45 3e da 6e 43 3e 26 bc b0 3d
       0.09073107 0.19330378 0.19085255 0.086296365
000190 01 f4 3f be 65 40 2e 3e 5c 1f 4d 3e 67 d8 34 be
       -0.18745424 0.17016752 0.20031494 -0.17660676
0001a0 10 04 0a 3e 25 a7 38 be c9 50 0a 3e ab 30 03 be
       0.13478112 -0.1803251 0.1350738 -0.12811534
0001b0 db 99 a8 bd 77 82 47 3d 98 3e 58 be 44 4a ef 3d
       -0.082324706 0.048708405 -0.21117628 0.11684087
0001c0 d8 c8 39 3e 12 b7 30 3e 65 13 53 3e 04 74 38 be
       0.18143022 0.17257336 0.20612867 -0.18013006
0001d0 1b 62 32 3e 7a 3d cb bd 9a 52 cc bd 0a 95 4b 3e
       0.17420237 -0.09923835 -0.099766925 0.19881073
0001e0 ce 60 0b 3e 3e d7 13 3e be 04 2a 3d 87 0e c5 bd
       0.13611147 0.14437577 0.04150843 -0.096219115
0001f0 b0 43 26 be 71 76 30 bd 9f 45 ee 3d b3 8a 40 3e
       -0.16236758 -0.043081705 0.11634373 0.1880291
000200 bd 12 50 be 67 18 0c 3e 5a ee 8f 3d d4 86 3e be
       -0.20319648 0.13681184 0.07027884 -0.1860612
000210 02 9e 57 bd 93 3e 35 bb 3c 53 44 be 36 55 16 bc
       -0.052640922 -0.0027655705 -0.19172376 -0.009175589
000220 f8 76 34 3e 3f 99 ef bc 5f e9 4d bd 69 58 0b 3e
       0.17623508 -0.029247878 -0.05027139 0.13607945
000230 63 98 83 3c 7e e5 66 3d 57 1a 4b be e2 5c d4 bc
       0.016063875 0.056371205 -0.19834267 -0.025923196
000240 99 55 5f 3b 94 50 a0 3c 51 5c 8a bd 7b 43 4e 3d
       0.003407812 0.019569673 -0.06755889 0.050357323
000250 ad 49 36 bd 88 1c 10 bd f7 00 58 be 5f 59 6a 3d
       -0.044503856 -0.03518346 -0.21094118 0.057214137
000260 58 fd 2a 3e 57 f7 55 bd f0 47 dc bd 56 fe 0b 3e
       0.16698205 -0.052237835 -0.107559085 0.1367124
000270 b0 f3 45 be 32 74 4a be 8f a8 15 be f9 7d f1 3d
       -0.1933124 -0.19770887 -0.14615081 0.117916055
000280 b4 0e 87 bd 5c 3b 60 be 92 b2 40 3e 3c 99 b9 3d
       -0.06594601 -0.21897644 0.18818119 0.0906243
000290 3e d2 77 3d 9f 17 32 3c f4 2a 14 be e8 4a 52 be
       0.060503237 0.0108698895 -0.1446951 -0.20536387
0002a0 6f 62 1c 3d 11 92 8f 3d b5 d3 31 be 6f 78 58 3e
       0.03817981 0.07010282 -0.17365916 0.21139692
0002b0 59 a8 c8 3c 38 3d 27 3e 61 97 49 bd 39 d2 ed bd
       0.024494337 0.16331947 -0.04921663 -0.116123624
0002c0 95 e3 05 be 3b 1d 26 bd 11 af 90 bc ca 50 56 3d
       -0.13075097 -0.04055522 -0.017661603 0.05232314
0002d0 ec 23 d9 bd 3d b6 8d 3d 8f f5 bf bd 49 5c bb bd
       -0.10602555 0.06919525 -0.093730085 -0.09148461
0002e0 d4 cb d5 3d 51 68 de 3c 6e 26 16 be f5 48 1a be
       0.10439268 0.027149351 -0.14663097 -0.15066893
0002f0 ab 1b 27 3e 4c 36 4e bd b7 8b 1a be 4e fb 19 3d
       0.16319148 -0.05034475 -0.1509236 0.03759318
000300 6d f1 e2 bc ee 04 21 3e 78 e0 00 be 3d 84 3f 3e
       -0.027703011 0.15724537 -0.12585628 0.18702789
000310 73 3e 11 3e 6d 16 45 be 8f be 1f 3e 8f 47 ce bd
       0.14183979 -0.19246836 0.15600036 -0.100722425
000320 24 6f df bd 2c 0e 25 bd 89 49 18 be 88 09 c0 bd
       -0.1090987 -0.04029672 -0.14871801 -0.09376818
000330 eb 0a 01 be f7 81 5d 3e 19 6c 06 3d 6c 7f 15 be
       -0.12601821 0.21631609 0.032817934 -0.14599389
000340 ad 64 15 3e 83 ec c7 3d e7 86 17 be 0b d9 8d 3c
       0.14589186 0.09761908 -0.14797555 0.017315408
000350 58 73 45 3d d2 0c 29 be 77 d8 1e 3e 2b b2 11 3e
       0.048205703 -0.16508797 0.15512262 0.14228122
000360 5d 82 b5 3c b7 7b 9f bd 96 f0 5a 3e f6 ac 39 bd
       0.022156889 -0.077872686 0.21380839 -0.045330964
000370 37 5e 47 3e 3a 02 c7 bb e5 fc 3a 3e a4 b7 60 3e
       0.19469534 -0.0060732635 0.18260534 0.21945053
000380 2c 9a 0a be a7 fa e8 bd 95 10 ae 3d e2 b2 1b be
       -0.13535374 -0.11375933 0.084992565 -0.15204957
000390 dd dc 03 bc 7f 26 e6 bd 9f 3c 5f 3c 12 3c 91 bd
       -0.008048263 -0.11237811 0.013625293 -0.07091536
0003a0 b8 ba 26 3e fa 02 2d 3e 64 34 e4 bb c2 ba d0 bc
       0.16282165 0.16895667 -0.0069642533 -0.025479678
0003b0 8c 9b d6 bc 36 b9 a4 3d f2 db e1 3d 0d 31 b0 3d
       -0.026197217 0.08043139 0.11028279 0.08603106
0003c0 b0 7b f7 3d 1b cb f3 3c 0a 62 2e be b8 13 2b be
       0.120841384 0.029759934 -0.17029586 -0.16706741
0003d0 c7 32 0a be 80 0b ae 3d 57 75 49 3e 36 11 2b 3e
       -0.13495933 0.08498287 0.19673668 0.16705784
0003e0 f4 ce 50 3e e2 f7 80 bd 5b 5c ae bd f0 4b ba bc
       0.20391446 -0.0629728 -0.08513709 -0.022741288
0003f0 63 f2 3c 3e 72 ae 0b 3e 86 68 a7 3d 43 f0 1f bd
       0.18451838 0.13640764 0.08174233 -0.03904749

critic.0.bias f4 [256]
000000 9b a7 3d be be 78 35 3c 93 74 d8 bd dc 21 3e 3e
       -0.18520968 0.01107615 -0.1056911 0.18567604
000010 2a 3f 44 3e c3 8d 13 3e 60 ba 0e bd a4 27 1a 3d
       0.1916472 0.14409547 -0.03484571 0.03763546
000020 99 6d a4 3d d6 f1 cc bd 8f 56 3b 3e 01 88 5b 3e
       0.080287166 -0.10007064 0.18294738 0.214386
000030 e7 0d bb bd 0d 8e bf bd 3a 67 b5 3d 96 e0 04 be
       -0.09133511 -0.09353266 0.088575795 -0.12976298
000040 2d be 1b be 95 2b 18 be 93 12 ee 3d 24 e2 35 3e
       -0.15209265 -0.14860375 0.116246365 0.17762047
000050 1b 7d 47 be f4 c8 b3 bd 32 78 d3 3d 11 14 29 3e
       -0.19481318 -0.08778563 0.1032566 0.16511561
000060 6c ea 4e be 52 54 70 3d 42 66 a0 bd 34 45 cc 3d
       -0.20206612 0.058674164 -0.07832004 0.09974137
000070 21 a5 0f 3d ab 97 1c 3e 1f 40 4a bd 93 25 5b 3e
       0.03506959 0.15292232 -0.049377557 0.21401052
000080 2d cd 40 3e ae c9 c6 bd 5a 91 cf bd ed 09 6e 3d
       0.18828268 -0.09706436 -0.101351455 0.058114935
000090 3e 38 5a bd 9a de 2e 3e b1 b9 94 3d a9 15 40 3e
       -0.053276293 0.17077103 0.0726198 0.18758263
0000a0 33 38 b5 bd 27 ff a3 3d e2 20 67 3d d7 a7 31 bd
       -0.0884861 0.08007651 0.056427844 -0.043372955
0000b0 cb ce 6d bd 0e 8f eb 3b f4 40 fd bd 35 63 d9 3c
       -0.05805854 0.0071886843 -0.123659045 0.026536563
0000c0 05 e3 6c 3e 3c 3a 34 3d c0 e1 87 3d 4a ac 81 3d
       0.23133476 0.04400085 0.06634855 0.0633169
0000d0 82 a0 4f bd dd 17 16 be 08 dd 0c 3e 57 b3 40 3e
       -0.05069018 -0.1465754 0.13756192 0.18818413
0000e0 5a 1c ee 3d 49 f3 0a 3d c4 7c 19 bc 1e db 23 bc
       0.116265014 0.03392342 -0.009368125 -0.010000972
0000f0 d9 a6 09 be 4b a2 0b be ee 07 79 3d f9 57 45 3d
       -0.13442554 -0.13636129 0.060798578 0.0481796
000100 73 9d f6 3d 8b 22 55 3e 4b 76 0e bc 56 9f 13 3d
       0.1204175 0.20813958 -0.008695195 0.036040626
000110 73 23 43 be 9b 7d cb 3d c7 d3 22 3e 84 78 da 3d
       -0.19056492 0.09936067 0.15901099 0.10667518
000120 2d 8e af 3d 77 0d 3e be e2 0b 5d be 3e e9 b1 bd
       0.0857204 -0.18559824 -0.21586564 -0.086870655
000130 06 8c 3c be 2e dd e7 3b 69 75 7d bd 58 dc 3e be
       -0.1841279 0.007075927 -0.06187955 -0.18638742
000140 44 e3 49 3e 0a 28 57 be e5 0d 14 3e 4a ed 3d 3e
       0.19715601 -0.21011367 0.14458425 0.1854755
000150 6e 9a b7 3d bd 20 de bd 24 d7 d7 bd a8 0c 93 bd
       0.08965002 -0.10846088 -0.10539082 -0.07180148
000160 20 c1 f2 3c f5 57 bf bd 3b 25 34 3d f5 a5 e4 bd
       0.029633105 -0.09342948 0.04398082 -0.11164466
000170 ae 99 fa 3d f2 4c db 3c eb a7 44 be 3f 3f 47 be
       0.12236343 0.026770089 -0.1920468 -0.1945772
000180 89 56 41 3e e6 6a 0e be 3a cb c2 3d 5a 06 90 bb
       0.18880667 -0.13907966 0.09511419 -0.0043952884
000190 14 0e 3e be d8 f0 39 bd d2 ec 53 3e 89 ca 10 bc
       -0.18560058 -0.045395702 0.20695809 -0.008837351
0001a0 09 0c e4 3c da e7 12 be 7a 58 85 3d 90 31 e7 3c
       0.02783777 -0.14346257 0.06511016 0.028221875
0001b0 34 21 01 3e 33 83 c5 3d f4 67 50 3d 0a 26 56 be
       0.12610322 0.09644165 0.050880387 -0.20912948
0001c0 7e d3 90 3d a7 6f 57 3d c5 97 c9 3d 07 77 e6 bd
       0.07071589 0.052596714 0.09843401 -0.112531714
0001d0 0a 37 ae bd b8 e6 1b be cc 23 ad bd 81 c8 8a bd
       -0.085065916 -0.15224731 -0.08454093 -0.06776524
0001e0 ee 4b c2 bc 34 e5 21 be 12 67 29 be 7f 66 cf bc
       -0.023717847 -0.1581009 -0.16543224 -0.025317429
0001f0 8f e3 b0 bd 09 da 1e 3e 99 48 1b 3e 19 11 ab bd
       -0.08637153 0.15512861 0.15164413 -0.083528705
000200 d7 46 41 be 82 ad 4d be 20 96 26 be 62 0c 41 be
       -0.1887468 -0.20085719 -0.16268206 -0.1885238
000210 e4 d7 0d 3e c8 3c 72 3d 25 b1 32 3e f1 11 46 be
       0.13851887 0.059139997 0.17450388 -0.19342782
000220 69 67 34 be 94 2a f6 3d b4 d8 5c be dd c0 5c be
       -0.17617573 0.1201984 -0.2156704 -0.21557947
000230 60 28 4b 3e a5 1d 28 bd d6 c3 df bc 2b b7 51 3b
       0.1983962 -0.041043896 -0.027315062 0.0032000046
000240 ba 6c e6 bd d0 fb 37 bd a6 5f f8 bc 3d 78 a2 bd
       -0.11251207 -0.04491788 -0.030319046 -0.0793309
000250 f2 bf 4f be 1b 10 bc bd 8a 29 3e 3e 77 70 d6 3d
       -0.20288065 -0.091827594 0.18570533 0.1047067
000260 2f 5b 5b be a7 c7 ac bd 85 69 35 3e b7 c7 b4 3d
       -0.21421503 -0.08436518 0.17716034 0.08827155
000270 01 b6 52 3e 64 33 20 3e a9 52 11 bd ba 3c 22 3e
       0.20577241 0.15644604 -0.03547922 0.15843478
000280 50 f4 40 be 2a 90 45 3e 65 75 1e 3e 50 8f 8d bd
       -0.18843198 0.19293275 0.1547447 -0.069121
000290 d1 2e 9f 3d 6b 7a 03 be 15 59 06 3e 82 c9 1e be
       0.077726014 -0.12839667 0.1311992 -0.15506557
0002a0 bf 15 16 be 64 64 c4 bd 60 6b 17 3e 2a 4c 2e 3d
       -0.14656733 -0.095894605 0.14787054 0.042553104
0002b0 1c d1 39 3e 42 88 91 bd 61 f1 41 be 59 ae 42 3e
       0.18146175 -0.07106067 -0.18939735 0.19011821
0002c0 bb 5a 1d be 96 57 1a be 00 ae 0b be fd c2 1c 3e
       -0.15366642 -0.15072474 -0.13640594 0.15308757
0002d0 7d 39 3f 3e 32 d0 17 3d 90 2b 41 be df 33 79 bd
       0.18674274 0.037063785 -0.18864274 -0.060840484
0002e0 c1 a2 49 bd 1b df b5 3d 35 18 5a 3e 58 45 33 3e
       -0.04922748 0.088804446 0.21298297 0.17506921
0002f0 ae 3e 96 3d e0 1e 9c bc fc a4 2b be 48 8f 18 be
       0.07336174 -0.019057691 -0.16762155 -0.14898407
000300 af a9 3e be 53 1b 0a be da a2 e8 3d f5 52 66 3e
       -0.18619417 -0.13486986 0.113591865 0.22492583
000310 f9 02 c5 bd b6 68 47 3e 10 bb 37 3e cd 69 c4 3d
       -0.096197076 0.19473538 0.17942452 0.095904924
000320 0b 8a e6 bd 4e f7 36 3e 0e ed e7 bb c4 00 2a 3d
       -0.11256798 0.17867777 -0.0070778197 0.041504636
000330 d1 ae 36 3e 42 22 12 be 57 06 58 be 80 ff 9d 3d
       0.17840125 -0.14270881 -0.21096168 0.077147484
000340 e8 3f a3 3c 70 05 21 be 83 15 e0 bd 44 63 24 be
       0.019927934 -0.1572473 -0.10941603 -0.16053492
000350 b3 81 39 3e 55 89 57 be cf 58 3a 3d bd a6 97 3c
       0.18115883 -0.21048482 0.04549485 0.018512124
000360 1f 68 58 be 46 39 5b 3e 80 95 49 3d a7 e7 64 3e
       -0.21133469 0.21408567 0.04921484 0.22353993
000370 2d 40 a0 bd 49 55 0c be 42 1b 7c ba 3f f5 1d be
       -0.078247406 -0.13704409 -0.0009617099 -0.15425585
000380 46 dd b7 bd ff c5 e3 3c 20 13 fb bd bf 46 2b bd
       -0.089777514 0.027804373 -0.12259507 -0.041815516
000390 7a b8 e6 bd 06 e8 71 bd 26 5e 97 3d 44 9a d9 3d
       -0.11265655 -0.059059165 0.07391004 0.10625127
0003a0 f2 b5 85 bd d3 ce 34 3a 2e 36 a1 3d b5 ef 0f 3e
       -0.06528844 0.0006897274 0.07871662 0.14056285
0003b0 84 e7 c3 bc f4 d2 3a be 41 b1 11 be e2 6e af 3c
       -0.023914106 -0.18244535 -0.14227773 0.021415178
0003c0 44 1e 97 bc 86 fc 96 bd 91 58 b7 bd 91 77 2c 3e
       -0.018447049 -0.07372384 -0.089524396 0.16842486
0003d0 99 49 63 bd 4e 50 d6 bb 62 03 1d be 57 ad 43 bd
       -0.05549011 -0.006540335 -0.15333322 -0.04777273
0003e0 ae bd be 3d 19 c7 d9 bd 7e 08 25 3e bb 06 16 3e
       0.09313522 -0.10633678 0.16116521 0.14651005
0003f0 8b 1d 1c be e0 da 0b be c4 1f 86 bd 97 09 37 3e
       -0.15245645 -0.13657713 -0.065490276 0.17874752

critic.2.weight f4 [256, 256]
000000 20 6e 9d 3b 00 08 80 bc 40 97 43 bc 1a ba 79 3d
       0.0048043877 -0.015628815 -0.011937916 0.060968496
000010 58 db 66 bc 38 45 99 bc 46 2f 26 bd ee 6f 43 3d
       -0.014090382 -0.018709764 -0.040572427 0.047714166
000020 f8 c2 78 bd 20 81 f6 bb ec 14 cb bc 94 89 2f bd
       -0.06073281 -0.007522717 -0.02479025 -0.042855814
000030 5e ef 69 3d dc 1a 93 bc c0 02 c4 ba 50 dd f2 3c
       0.057113044 -0.017957143 -0.0014954433 0.029646546
000040 3c f1 c8 bc 28 a0 d2 bc 20 82 43 bc 1a c5 51 3d
       -0.024529092 -0.025711134 -0.01193288 0.05121336
000050 30 e8 1d 3d ee e9 5d bd e2 be 5b 3d 90 66 ba 3c
       0.03855151 -0.05417817 0.053648837 0.022753984
000060 1a 1e 4a bd ce f3 0c 3d 1c 1e f8 bc d8 43 d2 3c
       -0.049345113 0.034412198 -0.030287795 0.025667116
000070 22 55 20 bd 00 c4 c3 3a bc 5f 9b bc c2 6b 7f bd
       -0.03914369 0.0014935732 -0.018966548 -0.062358625
000080 10 2b f9 bc d0 67 cb 3b be 59 33 bd 70 61 7a bc
       -0.030416042 0.006207444 -0.043786757 -0.01528202
000090 5e 3e 42 3d 5e 8d 0c 3d 90 ab 5f bc 80 09 f9 3c
       0.04742276 0.034314506 -0.0136517435 0.030400038
0000a0 a8 37 f1 3c e2 32 63 bd 40 e8 bf bb 20 c9 66 bc
       0.029445484 -0.055468448 -0.005856544 -0.014086038
0000b0 04 b8 4d 3d 48 90 12 3c 1e d3 68 3d f8 33 37 bc
       0.05022432 0.008945532 0.056841962 -0.011181824
0000c0 48 8e 81 bc 98 74 18 bc 6c c6 ed 3c b8 32 e3 bc
       -0.015814915 -0.009305142 0.029025279 -0.027734146
0000d0 16 67 0b 3d 10 7c 88 bb 74 5a 52 bd 98 f4 5d bc
       0.034033857 -0.00416518 -0.051355794 -0.013547085
0000e0 80 d8 9f ba 00 15 1d 3b 20 5c 64 3c 84 9b 8b bc
       -0.0012195259 0.0023968816 0.01393798 -0.017041929
0000f0 c0 c2 69 3b 08 47 2a 3d d0 fb 93 bc 80 a6 f6 bc
       0.0035669059 0.041571647 -0.01806441 -0.03010869
000100 18 a3 66 3c 40 ff ff ba fc af 75 bd 76 ee 18 bd
       0.0140769705 -0.0019531026 -0.059982285 -0.03733679
000110 04 d1 8c bc 80 76 57 bb 5c 04 18 bd c2 f1 28 3d
       -0.01718951 -0.0032877028 -0.037113532 0.041246183
000120 7a 59 30 3d 88 41 55 bd 1a be 08 bd f2 1e 2e 3d
       0.04305408 -0.05206445 -0.03338442 0.04250998
000130 98 f9 25 bd d0 f8 02 bc 6a 35 1e 3d f0 bb 8b bb
       -0.040521234 -0.007993892 0.03862516 -0.0042643473
000140 bc 8f 66 bd 30 5f e2 3c 22 22 37 bd 28 29 08 bc
       -0.05628942 0.02763328 -0.044710286 -0.008310594
000150 40 79 79 bb de e8 2f 3d 14 46 05 bd 1c 93 09 3d
       -0.0038066655 0.04294669 -0.032537535 0.03358756
000160 34 09 f2 3c c8 1c 2c 3d dc 9a 27 bd d6 36 7e 3d
       0.029545404 0.042019635 -0.04091917 0.062064014
000170 f8 20 ec bc e4 0e 46 bd 46 d5 6d bd 1e 90 79 3d
       -0.028824314 -0.048354045 -0.05806472 0.060928456
000180 f4 85 e2 bc d0 de 2c bc 80 78 d2 bc 4a c8 2e bd
       -0.027651764 -0.0105511695 -0.025692225 -0.04267148
000190 52 b7 60 3d 80 56 e7 bb b0 37 3c bc 6a 98 27 3d
       0.054862328 -0.007059872 -0.011487886 0.040916838
0001a0 d8 62 60 bd be 2c 7e bd 50 54 b2 3b 78 ea 1a 3d
       -0.054781765 -0.06205439 0.0054421797 0.037821263
0001b0 28 04 3a bd 38 30 4c bc f0 e1 58 bc 4e a3 26 bd
       -0.04541412 -0.012462668 -0.013237461 -0.040683083
0001c0 00 62 1f b9 bc a7 a5 bc 1c 79 3d 3d 4e 58 75 3d
       -0.0001519993 -0.020221584 0.046258077 0.059898667
0001d0 90 18 ca 3c e0 70 b6 3c d0 d0 fe bc 60 de 66 3c
       0.024669915 0.02227062 -0.031105429 0.014091104
0001e0 e0 b4 83 3b a0 79 25 3d 14 12 43 bd 88 73 ef bc
       0.0040193647 0.040399194 -0.047624663 -0.029229894
0001f0 16 77 42 3d be 9b 08 bd c8 1a ab 3c 08 29 46 bc
       0.04747685 -0.033351652 0.020886794 -0.012094744
000200 04 5d b0 3c e8 be 1b bd b0 42 c7 bc 7c 0e 60 3d
       0.021528728 -0.03802386 -0.024323791 0.054701313
000210 6c ae d2 3c ac 85 27 3d 90 9a 3f 3c 20 7a de bb
       0.025717936 0.040898964 0.011694565 -0.006789461
000220 76 76 21 bd 40 77 ea 3b 64 86 c3 3c 14 53 06 bd
       -0.039419614 0.007155329 0.023867793 -0.032794073
000230 58 df 2c bc f6 83 1c 3d 98 dc 53 bc a4 7c 9a 3c
       -0.010551296 0.038211785 -0.012931012 0.018858261
000240 14 c1 7d bd d2 a1 6d 3d d8 a2 22 3d ec b9 45 bd
       -0.06195171 0.058015652 0.03970608 -0.048273012
000250 e6 bf 65 bd 80 a7 80 3c 24 0c b2 3c dc ff 15 bd
       -0.05609121 0.01570487 0.021734305 -0.03662096
000260 ba 32 15 3d 6c b3 fa 3c 28 d9 57 bc 4c a3 ff 3c
       0.03642533 0.030603133 -0.013174333 0.031205796
000270 ec ce 07 bd 1e 94 0b bd 46 99 59 bd c8 4c 2e bc
       -0.03315632 -0.034076802 -0.05312469 -0.010638423
000280 ce 2a 19 3d e0 9e 54 3b 00 44 ce 38 ee ac 1d bd
       0.037394337 0.003244333 9.8355114e-05 -0.038494997
000290 4a 48 40 3d 84 bd 24 3d 8c 54 44 bd 20 84 d8 3b
       0.04694394 0.0402198 -0.047932193 0.0066075474
0002a0 34 25 15 bd 20 18 e1 3c 00 22 21 3b 90 29 97 3b
       -0.036412433 0.027477324 0.0024586916 0.004613109
0002b0 9c 47 42 3d 60 b8 31 3c 10 9a b4 3b a0 c6 0c 3d
       0.047431573 0.010847181 0.0055115297 0.03436911
0002c0 e4 20 13 3d 24 a3 59 bd 04 ad 01 3d 00 e0 2f bb
       0.03592004 -0.0531341 0.03165914 -0.0026836395
0002d0 14 60 2b 3d ca 81 18 bd 60 4f c9 3b c8 67 90 bc
       0.041839674 -0.03723315 0.0061434954 -0.017627612
0002e0 3c b0 ad bc 60 ec 97 3b e0 e6 21 bb a0 c5 88 3b
       -0.0212022 0.0046363324 -0.0024704263 0.0041739494
0002f0 a8 e6 12 3d 00 60 ac ba a0 d0 55 bb c6 06 66 3d
       0.035864502 -0.0013151169 -0.003262557 0.056158803
000300 6e 02 5d 3d 30 63 4d bd f6 ec 45 3d 04 cc 16 bd
       0.053957395 -0.05014342 0.048321687 -0.03681566
000310 30 05 6a bd a4 2e df bc 28 90 c9 3c fa ae 7c 3d
       -0.057133853 -0.02724392 0.024604872 0.06169031
000320 94 7d d0 bc 56 4f 57 3d a0 4c 8f 3b 30 6b 8e 3b
       -0.025450505 0.052565895 0.004373148 0.004346274
000330 90 1c 05 3c a2 08 70 bd e0 d7 63 3b 90 3d 8f 3c
       0.008124486 -0.058601983 0.0034766123 0.01748541
000340 20 50 70 bb 70 f7 3a bc 8c c9 f2 3c a0 20 62 3d
       -0.0036668852 -0.011411533 0.02963712 0.055206895
000350 a0 68 1d 3d 2a 61 1f 3d a0 69 33 bc c4 93 75 3d
       0.038429856 0.038911022 -0.010950476 0.059955373
000360 40 8f 28 3d e0 8d ce bc 20 e2 53 3d 70 c8 0c bc
       0.04115224 -0.025214136 0.05172932 -0.00859271
000370 30 8d b2 3b 24 b2 ab 3c da 81 07 3d 38 fe 0a bc
       0.00544896 0.020958968 0.03308282 -0.008483462
000380 80 59 77 bc 80 ac a5 bc 88 b4 ad bc d4 67 5a 3d
       -0.015097022 -0.020223856 -0.021204248 0.053321674
000390 fc 69 f8 bc 96 68 28 3d 38 71 51 3d 60 db 2c bb
       -0.030323975 0.041115366 0.051133364 -0.0026375875
0003a0 e8 99 a6 bc be 61 68 bd 08 d4 28 bc e0 fe dd 3c
       -0.02033706 -0.05673384 -0.010304458 0.027099073
0003b0 b0 21 d6 bb a0 2b 8e 3c 80 ed 80 3b a4 53 c5 3c
       -0.0065347776 0.017354786 0.003934562 0.024087735
0003c0 d4 15 f3 3c 70 82 0f bd 20 bb e4 3b 8c 9d 3e 3d
       0.029673494 -0.035036504 0.006980315 0.046536967
0003d0 1a 3c 27 bd de a1 3c bd 48 c1 ee 3c 06 cc 3e 3d
       -0.0408288 -0.046052806 0.029144898 0.04658129
0003e0 b8 53 b6 3c 88 ef 5e bd 18 8d ad 3c 38 c3 47 bd
       0.022256717 -0.054427654 0.021185443 -0.04877016
0003f0 20 29 ad 3b d4 21 5f bd 36 21 77 bd c0 92 63 bc
       0.0052844435 -0.05447562 -0.060334407 -0.013889968

critic.2.bias f4 [256]
000000 90 3e 08 bd 38 fc 1b bd 8c 8f 1b bd e2 7e 8b bc
       -0.03326279 -0.03808233 -0.037978694 -0.017028276
000010 f0 ea 09 bd 12 87 43 3d a0 1f ec bb 89 c6 20 3c
       -0.03367132 0.047736235 -0.0072059184 0.0098129595
000020 b8 b5 1e bb 4b 65 de 3b ba 23 04 bd 25 5f 04 3d
       -0.00242172 0.0067869774 -0.032260634 0.0323173
000030 92 7b 40 3d 20 91 2c bd f7 4e 57 bd 80 07 36 bd
       0.046992846 -0.04213059 -0.05256554 -0.044440746
000040 2d cb 19 bd 69 82 e9 3c 24 20 2d 3d 81 d1 06 3d
       -0.03754728 0.028504567 0.04226698 0.032914642
000050 00 bb 29 3d 5a f6 4d ba 06 8c 2f bd 71 49 2f bd
       0.041438103 -0.00078568386 -0.042858146 -0.04279465
000060 64 1a de bc 46 f6 38 bd 87 e7 cc bc 41 e1 21 bd
       -0.027112193 -0.04515674 -0.025012745 -0.03952146
000070 7b 65 25 bd 7b f2 e6 3c 37 b2 8a bc db 43 47 bd
       -0.040379982 0.028191796 -0.016930683 -0.048648696
000080 8b 39 b0 3c 0c 3f ba 3c 52 02 82 ba 81 86 8d 3d
       0.021511814 0.022735141 -0.0009918904 0.0691042
000090 ba 52 ad b9 3d 50 0f bd ba cd 30 bd dd 19 fe bc
       -0.00033058767 -0.03498863 -0.043164946 -0.031018192
0000a0 18 3d c6 3c b4 5a ac bc 62 10 59 3d e3 84 36 3d
       0.024199054 -0.021039344 0.05299414 0.044560324
0000b0 9d f9 72 bd 8a e5 59 3d fb be 4d 3d 34 39 0e 3d
       -0.05932008 0.05319742 0.05023096 0.034722522
0000c0 4b cc ef 3c 7c 52 91 3c c3 4a 4e 3b b1 0d 86 3c
       0.02927222 0.017739527 0.0031477667 0.01636395
0000d0 b2 f8 54 3c 00 31 8a 3d 48 74 5e bc f8 a7 33 bd
       0.012998747 0.06747627 -0.013577528 -0.04386136
0000e0 f7 d8 1a 3d 54 19 31 3d d8 9b 88 3c 78 a2 e6 bc
       0.03780457 0.043237045 0.016675875 -0.028153643
0000f0 a0 8a 67 bd 90 10 d5 bc 55 9f 4f 3c dc c9 74 bd
       -0.056528687 -0.026008874 0.012672265 -0.05976282
000100 c2 f8 01 3c 80 ed 5f 3d 9d 7d 3d 3d 4b a1 38 bd
       0.007932844 0.054669857 0.046262372 -0.045075696
000110 67 dd 4c bd be 3f 0f 3c 52 05 a7 bb 18 71 94 bc
       -0.050015833 0.008743225 -0.00509707 -0.018120334
000120 d0 98 ae bc c3 30 85 3c 64 5d 2d 3d 76 7b 33 bd
       -0.021313101 0.016258603 0.042325392 -0.043818913
000130 8d fc 2c 3d a8 81 c1 bc 69 ad e2 bc 04 a7 45 3d
       0.04223304 -0.023621395 -0.027670579 0.04825498
000140 a6 ca 55 3d 20 97 c3 3c e0 8f 3d ba c2 d3 0e bd
       0.052195214 0.023875773 -0.0007231217 -0.034869917
000150 03 80 73 3d 20 d3 da bc 8e b8 dc 3c ac 75 df bc
       0.059448253 -0.026712 0.026943471 -0.02727779
000160 a4 bf 99 bc b8 30 38 bd ae 4c 5a 3d b0 1c 5f bd
       -0.01876814 -0.044968337 0.053295784 -0.054470718
000170 a2 bf 79 bc a0 ac 61 3d 06 dd 21 3d 18 5a 72 bc
       -0.015243443 0.05509627 0.039517425 -0.014791988
000180 18 f8 47 3d e0 6d 20 3c ae 9a cc bc b0 f7 27 bd
       0.048820585 0.009791821 -0.0249761 -0.041007698
000190 56 ae ab bc 9f 33 4e 3d 20 88 15 bb 9a 4c 93 bc
       -0.020957153 0.0503422 -0.0022816733 -0.017980862
0001a0 d8 c1 2a bd d5 57 a7 bc e1 2b 9f 3c e4 47 2b 3d
       -0.04168877 -0.020427624 0.019430103 0.041816607
0001b0 89 2c e7 ba aa 42 bc 3c 13 14 d2 3b c8 8b c5 bb
       -0.0017637174 0.022981007 0.0064110844 -0.006028626
0001c0 db 14 22 3c 04 18 89 bd 28 55 89 3c f8 06 2f bd
       0.009892668 -0.06694034 0.016764238 -0.042731255
0001d0 c9 b9 33 3d 10 ce ce bc a0 33 5d 3d 5c 61 a5 3c
       0.04387835 -0.025244743 0.05400431 0.020188026
0001e0 fc 6a 25 3d 38 05 fe ba f0 3c d3 bc 97 1d 0a 3d
       0.04038523 -0.0019380217 -0.025785893 0.033719625
0001f0 7e 48 59 bd d2 6b 7f 3d 10 30 1b 3c 7c a8 17 bd
       -0.05304765 0.062358685 0.009471908 -0.037025914
000200 8a 0b 08 3d 6e 25 43 3d ed 5e 16 bd 12 b9 1a bd
       0.03321413 0.047643118 -0.036711622 -0.037774153
000210 55 96 fd bc 1e 73 71 bd 18 f8 75 3c 15 b2 de 3c
       -0.030955473 -0.058947675 0.015012763 0.027184526
000220 da cb 57 3b cc fe 42 bd 51 44 21 3d b0 a2 42 bd
       0.0032927901 -0.047606274 0.039371792 -0.047518432
000230 12 47 1e bc 8a 15 3c 3d 1d 27 54 3d 15 73 3f 3d
       -0.009660499 0.04591898 0.051795114 0.04674061
000240 ad d7 a0 bc 20 d6 09 3c ee 81 18 3d e3 9b ae bc
       -0.019634092 0.008412868 0.037233286 -0.021314567
000250 d8 4d a4 3c d9 7f c7 3c 20 bf ec bc 10 25 62 bc
       0.02005665 0.024352955 -0.02889973 -0.013802782
000260 9d e4 6b bb 19 e4 e3 3c 05 f5 05 3d 42 a2 9c bc
       -0.0035994418 0.027818726 0.032704372 -0.01912034
000270 4e d2 88 bd 4b 0d ab 3c b6 5d 8f 3d 73 bc 8c bb
       -0.066807374 0.020880362 0.07000296 -0.004294926
000280 62 d3 4a 3d b3 21 0a 3d f1 cb f1 bc f4 f5 78 3d
       0.049517997 0.033723544 -0.029516192 0.060781434
000290 54 b7 43 bd 53 f3 95 bc 23 21 84 bd 56 0b 78 3d
       -0.047782257 -0.018304503 -0.06451633 0.060557686
0002a0 34 1b 25 3d 88 0b 87 3c db e5 21 bc c2 9c 8e bc
       0.040309146 0.01648499 -0.009881462 -0.017408732
0002b0 68 c5 0c 3a 07 03 26 3d e1 2f 25 3d ed 4b 4e 3d
       0.0005369992 0.04053023 0.040328864 0.050365377
0002c0 a4 7f 42 bc 9a 50 8f 3d 02 c2 48 3c 44 18 ef 3c
       -0.011871252 0.069977954 0.012253286 0.029186375
0002d0 d8 db fe bc 73 67 5c 3d 92 eb 5b bd 1c 40 b6 bc
       -0.031110689 0.053809594 -0.053691454 -0.022247367
0002e0 ae 7f 72 3d b1 09 cf 3c a0 3f 26 bd 12 38 50 bc
       0.059203796 0.025273176 -0.04058802 -0.012708681
0002f0 e1 d4 92 3d f9 3d 0f bd 1b 5b 7b 3b 7c eb 40 3c
       0.0716951 -0.03497121 0.0038353864 0.011774894
000300 5d 07 22 3d ac f6 09 3d 5c ce 5d 3d 48 fd 70 bd
       0.039557803 0.03368251 0.054151878 -0.058835298
000310 5a 0a 2d bd 80 85 0d 3c 58 9b cd 3c b6 08 c0 39
       -0.0422462 0.008637786 0.025098488 0.00036627584
000320 d4 6e cc 3c 8c 8b 1c bd 53 46 aa bb 5c 83 37 3d
       0.02495519 -0.03821902 -0.0051963716 0.04480301
000330 90 f5 24 bd 8a 7f 19 3d a8 b9 01 3d 94 1a 0e 3d
       -0.04027325 0.037475146 0.031671196 0.034693316
000340 ff d5 94 3d f8 ec 39 3d 66 b6 58 3c a6 b8 42 3b
       0.07267379 0.045392007 0.013227081 0.002971211
000350 71 29 f0 3b 5f 63 ef 3c 77 a8 e4 3c 15 36 27 bd
       0.007329159 0.029222189 0.027912362 -0.04082306
000360 ae d5 4a bd 9f 7a 35 3d a5 48 a3 3b e2 ef 36 3d
       -0.049520187 0.044306394 0.004983025 0.044662364
000370 b6 41 67 bd f0 bc 0c bd 58 6b b1 bc 7a 6d 90 bc
       -0.05645915 -0.034359872 -0.02165763 -0.017630327
000380 00 67 8c ba 74 63 c8 3c 8d 0a e7 bc 7f 8c 59 bc
       -0.0010711849 0.024461485 -0.028203273 -0.013278126
000390 33 7e 12 bd aa c5 80 bd b2 5e 1a 3d f5 c9 31 3c
       -0.035764884 -0.062877014 0.037687965 0.010851373
0003a0 38 07 1f 3d e0 89 3f 3c 30 19 04 bc cb 51 ba bc
       0.038825244 0.011690587 -0.008062646 -0.02274408
0003b0 0a d5 6e 3d f8 69 26 bc 3d c6 fb ba db f6 9d bc
       0.05830864 -0.010157101 -0.001920886 -0.019282749
0003c0 dd be 4a 3d 42 2d 5d 3d 45 39 51 3d 56 78 49 bd
       0.049498428 0.05399824 0.051080007 -0.049187027
0003d0 1c ff 7f 3d 85 94 5b 3d f8 07 53 3c 6b 3d 18 3d
       0.06249915 0.053608436 0.012880318 0.037167948
0003e0 f4 00 2f 3c 70 58 4d bc d3 77 9d bc a0 dd aa bc
       0.01068138 -0.012533292 -0.019222176 -0.020857632
0003f0 79 c1 87 3d fd 72 4e bd 92 93 25 3c 86 99 9c bc
       0.06628699 -0.05040263 0.010105984 -0.019116174

critic.4.weight f4 [1, 256]
000000 fe a6 3d 3d 70 50 70 3c 76 01 21 3d 1d dd 27 bd
       0.046301834 0.014667615 0.039308034 -0.040982354
000010 c4 89 86 3c ac f2 b1 bc 64 4e bb 3c 22 34 80 bd
       0.016423114 -0.02172216 0.022864528 -0.062599435
000020 78 70 e0 bc b6 85 06 bd 38 f1 dc 3c c6 82 58 bd
       -0.02739738 -0.03284236 0.02697049 -0.05285909
000030 a6 6f 5c bc db 82 e1 bc 46 27 ae bc 23 5b 8f 3d
       -0.013454353 -0.027528217 -0.021258961 0.06999805
000040 ca a9 19 3d 4c c4 85 3d d5 98 61 3d 28 85 c9 3b
       0.03751544 0.06531581 0.055077393 0.0061499067
000050 ac 51 ca bc ef 36 84 3d 63 5d 0b bd 25 c2 24 bc
       -0.024697147 0.0645579 -0.034024607 -0.010056053
000060 45 4a f9 bc bc 5b 5f bd 2d d0 fa bc e4 53 83 3d
       -0.030430922 -0.054530844 -0.030616844 0.06412485
000070 82 a3 04 bd 50 de 94 3d 70 bd bb 3c 85 a0 ed 3c
       -0.032382496 0.07268965 0.02291748 0.029007206
000080 c3 5b b4 3c c6 eb 7f 3d 02 23 b6 bc 34 67 42 3d
       0.022016412 0.06248071 -0.02223349 0.047461703
000090 15 34 4d 3d 27 3c 95 bc c0 4e 64 3b b4 c4 67 bc
       0.050098497 -0.01821716 0.0034836978 -0.014146019
0000a0 1c 3d c2 3c 72 c8 e3 bc a9 6e 4d bd 02 9c 43 bc
       0.02371078 -0.02780554 -0.050154362 -0.011939051
0000b0 86 4d 99 bc 6e 85 35 bd 88 9e 38 3c df aa 64 bb
       -0.018713724 -0.0443167 0.011268266 -0.0034891886
0000c0 80 68 64 3d 10 7b ed bc a4 e1 0f bc d8 db 73 3d
       0.05576372 -0.028989345 -0.008781824 0.05953583
0000d0 a9 89 29 3d 00 a9 44 3d 48 86 3f 3d 2d 6c 42 bd
       0.04139105 0.048012733 0.04675892 -0.047466446
0000e0 48 2f 95 bc 6a 36 1b bd f1 90 2d 3c 50 2b eb bb
       -0.018211022 -0.03789369 0.010593639 -0.007176794
0000f0 35 51 37 bd 6a ce 4e 3d e9 d2 35 bd 20 85 37 3d
       -0.04475518 0.05048982 -0.044390593 0.044804692
000100 1f 1d 29 bb 78 40 25 3d 1e 7e 20 3d 94 59 84 bc
       -0.002580471 0.040344685 0.039182775 -0.016155995
000110 8d 03 68 bd 6a 05 90 bc e1 3d 2e bb 22 b0 81 bc
       -0.05664401 -0.017580707 -0.0026587176 -0.015831057
000120 02 53 f9 3c af c4 06 3d f8 f4 ad 3c d9 0c 1c 3d
       0.030435089 0.032902416 0.021234974 0.03809819
000130 04 26 01 bd 7b ab 60 3d 11 91 6b bc 5d 73 a2 3c
       -0.031530395 0.054851037 -0.014377848 0.0198304
000140 bc 26 86 3d b6 a0 e2 39 1d 50 f7 bc 39 d0 aa 3c
       0.06550357 0.00043225818 -0.030189568 0.020851241
000150 f1 38 a1 bc e6 2a 7f 3d 9d 8d 9e 3d 32 bf 31 bd
       -0.019680472 0.06229677 0.07741854 -0.04339523
000160 14 39 40 bd 54 c9 95 39 23 3d 4d bd a0 9b 8e bc
       -0.046929434 0.00028569496 -0.050107133 -0.017408192
000170 b5 76 55 3d 76 40 4d bd 16 f7 90 bc 78 94 31 3d
       0.05211516 -0.050110303 -0.017695945 0.04335448
000180 93 85 97 3d af 31 29 3d 62 8b 5d bd 50 1a 3f bc
       0.07398524 0.041307148 -0.054088004 -0.011663988
000190 80 70 91 bc c6 a2 0b 3d 10 ed a1 bb 60 bb 94 3d
       -0.01775384 0.03409078 -0.00494159 0.072623014
0001a0 ad 14 b5 3c 24 70 fd 3c f0 12 5f bd 08 f9 b4 bc
       0.022104586 0.030937262 -0.05446142 -0.022091404
0001b0 a4 19 6e 3d a9 e3 45 bb fd 3a 02 bd 01 7e 17 bb
       0.05812992 -0.003019551 -0.031794537 -0.0023115876
0001c0 57 f2 39 bd 85 91 29 bd 51 df 6a 3d f8 ee 38 3d
       -0.04539713 -0.041398544 0.057341877 0.045149773
0001d0 5d 71 50 bc 50 9e 4d bd 3c ca b7 bb f4 e4 29 bd
       -0.01272234 -0.050199807 -0.005608825 -0.041478112
0001e0 4c 67 59 bd 31 f6 53 bd d2 32 92 bc f8 2b 3e 3d
       -0.053077027 -0.05174846 -0.017846499 0.04642865
0001f0 54 22 2c bd 40 2f c8 bb 64 84 25 bd 6f 59 94 3d
       -0.042024925 -0.0061091483 -0.04040946 0.072436206
000200 95 7a 2f 3d a8 c4 2a 3d 95 b9 4e bd 99 23 f9 bb
       0.042841513 0.041691452 -0.050469954 -0.0076031205
000210 90 6d a4 3c ef 96 29 bc 40 8f d9 ba 5f 0e 4c 3d
       0.020071775 -0.010350927 -0.0016598478 0.049818393
000220 14 40 48 3d f9 9d 4c 3d 88 d3 d0 bb 6d 34 31 bc
       0.048889235 0.049955342 -0.0063728727 -0.010815722
000230 0d fc 40 3d 80 fc d8 bc f0 2b 35 bd ec 3f 29 bd
       0.047115374 -0.026487589 -0.044231355 -0.041320726
000240 b1 12 42 3d b4 f8 33 3d fc f3 a4 bc 02 1c a4 bb
       0.047381107 0.043938354 -0.020135872 -0.0050082216
000250 eb 1a 54 bd 02 98 86 3d 53 28 17 3d 18 be 70 3c
       -0.051783483 0.06571962 0.03690369 0.014693759
000260 d2 fc 69 3d 06 cc 32 bd a0 5e 48 bd 41 9b 25 bc
       0.057125874 -0.043651603 -0.048918366 -0.010107816
000270 2e f4 1a bc 92 fb be 3c 22 72 53 3d 89 36 eb bc
       -0.009457631 0.023313317 0.051622517 -0.028712528
000280 b9 67 2e 3d 14 fe fa 3b f4 a1 0f 3d 70 01 68 3d
       0.042579386 0.007659683 0.03506656 0.056641996
000290 8f 78 1c 3c a9 7d d5 bc d5 91 89 bc bd 61 bb 3c
       0.009550228 -0.026060896 -0.016793171 0.022873754
0002a0 79 50 03 bd e0 af df 3b ab 0c 07 3d 2d 17 51 3c
       -0.032059167 0.006826386 0.032971065 0.012761873
0002b0 74 5c fa 39 31 69 93 3c 67 24 c8 3c 92 45 5b 3d
       0.000477526 0.017994495 0.02443142 0.053533144
0002c0 75 3d 6f 39 6c e2 88 3d fb a5 83 3d ca c6 1d bd
       0.0002281571 0.066838115 0.06428143 -0.03851966
0002d0 71 9b 30 3c e0 ad 13 bd c0 2c d1 bb 70 a1 d3 3c
       0.010779248 -0.036054492 -0.0063835084 0.025833815
0002e0 07 36 61 bd 02 fd 0c 3d ab 18 11 bd aa d7 20 bd
       -0.054983165 0.034420975 -0.035423916 -0.039268173
0002f0 44 4b 8f 3d 42 5d 52 3d 27 48 bf 3b 89 02 b0 bc
       0.06996778 0.05135847 0.0058374587 -0.021485584
000300 7a 2e 4f 3d dc 46 bb 3c a7 b7 30 3d 40 7c e7 3a
       0.050581433 0.022860937 0.043143895 0.0017660931
000310 cf 2b 19 3d 3f b4 1e 3d 28 6f 35 bc ec f1 86 3d
       0.037395295 0.038746115 -0.011073865 0.06589112
000320 31 b6 01 bd ce bc 4d bd 50 a9 53 bc 10 b9 45 bd
       -0.031667892 -0.050228886 -0.012918785 -0.048272192
000330 cc 88 fb 3c 12 b5 5c bd 7e 27 74 3d 20 57 5b 3d
       0.030704878 -0.05388362 0.059607975 0.053549886
000340 d8 e5 54 3d e7 f7 19 3d e2 e8 c7 3b d0 e5 8a 3d
       0.05197701 0.037589934 0.00610076 0.067821145
000350 ba fd 64 3d 05 10 35 bd ee d5 1e bd 6a 35 d7 bc
       0.055906035 -0.04420473 -0.038778238 -0.026270587
000360 1e 9f 54 3d 1c 03 00 bd c1 cf c7 3c 1a 68 46 bd
       0.05190956 -0.031252965 0.024391057 -0.048439123
000370 e8 3a 51 bd 44 43 44 3c f4 98 e8 3c 84 2c 84 3d
       -0.051081568 0.011978928 0.028393246 0.06453803
000380 40 5f 49 bb cc a0 07 bd 0f 0e 75 bc 4a 77 35 bd
       -0.003072694 -0.033112332 -0.014956965 -0.044303216
000390 ec 84 80 b9 c4 65 96 ba 41 f9 ad bb 79 30 eb bc
       -0.00024513097 -0.001147442 -0.0053092544 -0.028709637
0003a0 07 92 46 ba 36 db 68 3d 6a 6d 72 3d 94 4b 0d bd
       -0.00075748604 0.05684968 0.059186377 -0.034495905
0003b0 d0 23 81 bc 7c 29 8c 3c 5c a5 67 3c f8 26 eb bc
       -0.015764147 0.017109625 0.014138546 -0.028705105
0003c0 e3 ca 33 bd 95 b8 29 bd 95 3a 95 3d 6d 64 15 bc
       -0.04389466 -0.041435797 0.07286564 -0.009118182
0003d0 39 8f f2 3c f4 26 99 3d 8e e5 4e bd 97 a7 9a 3d
       0.02960931 0.07478133 -0.05051189 0.075514965
0003e0 68 e7 cd 3c 40 ad 22 bb 98 7d 02 3d 27 27 47 bd
       0.025134757 -0.0024822503 0.031858057 -0.048621323
0003f0 52 8b 09 3d 87 01 34 3d e7 a8 c4 bc 46 5a 3c bd
       0.03358013 0.04394677 -0.02400632 -0.04598453
