RL_algorithms/Torch/PPO/Continious/PPO/models/space_robot_critic.pt (torch, 288663 bytes, 5 tensors)

critic.0.weight f4 [256, 21]
0	0xbded9d1a	-0.1160223
1	0xbe716501	-0.23573686
2	0x3df5b716	0.119978115
3	0xbe5459c7	-0.20737372
4	0x3e0ef98e	0.13962385
5	0x3c754bb8	0.014971666
6	0xbe1c7ea5	-0.15282686
7	0xbce11090	-0.027473718
8	0x3dfcb93c	0.12340018
9	0xbe64bcc5	-0.22337635
10	0x3dc7bd67	0.097529225
11	0xbe40a5c1	-0.1881323
12	0x3e6aa617	0.22914921
13	0x3e3c5392	0.18391255
14	0x3c1fdf21	0.009757788
15	0x3dd18489	0.10230357
16	0xbde032aa	-0.109471634
17	0x3e0b1726	0.13583049
18	0x3c581bf1	0.0131902555
19	0xbd13d89f	-0.036095258
20	0x3de5896f	0.11207854
21	0x3e344fb9	0.17608537
22	0xbe0334b8	-0.1281308
23	0xbda7c604	-0.08192065
24	0xbe56236c	-0.2091195
25	0x3df6cb40	0.120504856
26	0xbdd0bb93	-0.10192027
27	0xbdc5a83c	-0.09651229
28	0xbe005b82	-0.12534907
29	0x3dabbdcf	0.083858125
30	0x3d9b8608	0.07593924
31	0x3de282da	0.11060114
32	0xbe3bf87d	-0.1835651
33	0xbd95a9a6	-0.073077485
34	0x3e28b45c	0.16475052
35	0xbe5e265b	-0.21694319
36	0xbbddaa23	-0.0067646666
37	0xbe1db528	-0.15401137
38	0xbe4692fc	-0.19392008
39	0x3e580438	0.2109536
40	0x3c3acf86	0.0114020165
41	0xbd94eb1a	-0.072714046
42	0x3e1a6ad1	0.1507981
43	0xbddf8499	-0.10913963
44	0xbd8ee41c	-0.06977102
45	0xbdafa23d	-0.08575866
46	0x3c5c6f38	0.013454251
47	0x3d2e6243	0.04257418
48	0xbe315519	-0.17317618
49	0xbda7b6ed	-0.08189187
50	0xbe1c463b	-0.15261166
51	0xbe12c825	-0.14334162
52	0xbe65f7d3	-0.22457819
53	0x3cde790b	0.027157327
54	0x3e32d02f	0.17462228
55	0x3e68e00f	0.22741722
56	0xbdece1b0	-0.11566484
57	0x3b8b840e	0.0042576855
58	0x3d36ac3f	0.04459786
59	0x3d180d50	0.03712207
60	0xbe0f67da	-0.1400446
61	0x3d149173	0.036271524
62	0x3e3e8db2	0.1860874
63	0x3d6fc845	0.0585406
64	0xbe35fb4e	-0.17771646
65	0x3d94673e	0.072462544
66	0x3e304f25	0.17217691
67	0xbe3b165a	-0.18270245
68	0x3e57fb6a	0.21092
69	0xbe3ca7ba	-0.18423358
70	0x3dc986e3	0.09840181
71	0x3d877be8	0.0661543
72	0x3e3a57e7	0.18197595
73	0xbe1a1c4a	-0.15049854
74	0x3e34fd48	0.17674744
75	0xbe2d906b	-0.16949622
76	0x3d0cff58	0.034423202
77	0x3e1db137	0.15399633
78	0xbdc2fe3a	-0.09521146
79	0xbe016f83	-0.12640195
80	0xbe5b9f23	-0.21447425
81	0xbd8f18cc	-0.069871515
82	0xbdba443a	-0.090950444
83	0xbd942376	-0.07233326
84	0x3d227e92	0.039671488
85	0x3e1d4020	0.15356493
86	0x3d069b55	0.03286298
87	0x3dad5e22	0.0846522
88	0xbe4cf2fa	-0.20014563
89	0x3e241f7f	0.1602764
90	0x3b25f79e	0.0025324593
91	0xbe5658c1	-0.20932294
92	0xbccb36cc	-0.024806403
93	0xbd7b607c	-0.06137131
94	0xbe36333d	-0.17792983
95	0xbdcedcca	-0.10100706
96	0x3e484cca	0.19560543
97	0x3e58ca87	0.21171008
98	0x3e5db093	0.21649389
99	0x3e5301d4	0.20606166
100	0xbd20a619	-0.039220903
101	0xbe0725a4	-0.13197953
102	0xbe409dc6	-0.18810186
103	0xbe2f0d93	-0.17095022
104	0xbcc23124	-0.023705073
105	0xbde6de7d	-0.11272905
106	0x3de7ec4e	0.113243684
107	0xbe047fc5	-0.12939365
108	0xbe3cad0b	-0.18425386
109	0x3e486801	0.19570924
110	0x3ddc074a	0.10743578
111	0x3d7c77f4	0.061637834
112	0xbe5bcd53	-0.21465044
113	0xbd3a8180	-0.045533657
114	0xbe1353c0	-0.14387417
115	0x3d5c5d9c	0.05380021
116	0xbd9df258	-0.07712239
117	0xbd2fbcf8	-0.042904824
118	0xbda80bb8	-0.0820536
119	0xbdefe165	-0.117129125
120	0xbd432010	-0.047638
121	0xbe50487e	-0.20340154
122	0xbde92d73	-0.11385622
123	0x3e424613	0.18972044
124	0xbde7a379	-0.11310477
125	0xbe3ec03a	-0.18628016
126	0xbd077607	-0.033071544
127	0xbd32520d	-0.04353528
128	0xbe0aa182	-0.13538173
129	0xbda5e60c	-0.081005186
130	0xbe5aba50	-0.21360135
131	0x3d4c78aa	0.04991976
132	0xbdcf6dea	-0.10128386
133	0xbd99c406	-0.07508092
134	0x3e493fd9	0.19653262
135	0xbe3e3600	-0.18575287
136	0x3d938876	0.07203762
137	0xbe6310b1	-0.22174336
138	0xbd3c6cf8	-0.04600236
139	0xbe307d6b	-0.17235343
140	0xbe52a339	-0.20570077
141	0xbdb0fd8f	-0.086421125
142	0x3ddd2eb4	0.107999235
143	0x3de4f8a1	0.11180235
144	0xbdef2a9d	-0.1167805
145	0xbd80f505	-0.06296734
146	0xbd8a228d	-0.06744871
147	0x3e2865ff	0.16445158
148	0x3b7e5d08	0.0038812775
149	0x3e16d834	0.14730912
150	0xbe2100af	-0.15722917
151	0xbd457073	-0.048202943
152	0x3dc44a0a	0.09584434
153	0xbbc5b81e	-0.0060339114
154	0x3e26e7f5	0.16299422
155	0x3c2fb2bd	0.010723767
156	0x3d76815d	0.060181964
157	0xbd26e773	-0.04074807
158	0xbd2e0c80	-0.04249239
159	0x3d5a9256	0.053362213
160	0x3c93f336	0.018060308
161	0xbdf22d45	-0.11825041
162	0xbe3bca2e	-0.18338844
163	0xbe3e259c	-0.18569034
164	0xbdc78499	-0.09742088
165	0x3d1f8c4f	0.038952168
166	0xbe38c5e6	-0.18044242
167	0xbe1d1429	-0.15339722
168	0xbda54690	-0.08070099
169	0xbd071b2c	-0.032984897
170	0xbe3f4796	-0.18679652
171	0x3df63ca6	0.120232865
172	0xbe3f265c	-0.18666977
173	0x3e501806	0.20321664
174	0xbd83aa4b	-0.06428965
175	0x3e58f0df	0.21185635
176	0xbe25d4b8	-0.16194427
177	0x3e2a032e	0.16602775
178	0xbd839155	-0.06424204
179	0x3da65f74	0.08123675
180	0xbdbd208b	-0.09234723
181	0x3e421fee	0.18957493
182	0x3b94c5f8	0.0045402013
183	0xbd8dc3b1	-0.06922091
184	0x3cbcead1	0.023061188
185	0x3b032b88	0.002001496
186	0x3ce29e9a	0.027663518
187	0x3d649d6d	0.055814195
188	0x3e2a98c0	0.16659832
189	0xbc116df3	-0.008876312
190	0x3da742df	0.081670515
191	0xbdd84bf3	-0.10561361
192	0x3e3905e7	0.18068658
193	0x3dc7f0b1	0.09762705
194	0x3e0f472d	0.13991995
195	0xbdfb5341	-0.12271739
196	0xbdf9bcec	-0.12194237
197	0x3e533c41	0.20628454
198	0x3e3048d5	0.17215283
199	0x3db4f99b	0.08836671
200	0x3dee6ac3	0.11641457
201	0xbde2a2e6	-0.11066227
202	0xbe0df09d	-0.13861318
203	0x3d7680f8	0.060181588
204	0xbd99e0e7	-0.075136
205	0xbe53d4f7	-0.20686708
206	0x3e48c2f9	0.19605626
207	0x3add4da6	0.0016884103
208	0xbe030fb0	-0.12798953
209	0xbdd58de5	-0.10427455
210	0x3d406b8a	0.046977557
211	0xbdc88359	-0.097906776
212	0x3d37d882	0.044884212
213	0xbdbe4c2d	-0.09291873
214	0xbd690973	-0.056893777
215	0xbd53f9e9	-0.051752005
216	0x3d4630e7	0.04838648
217	0x3e058b58	0.13041437
218	0xbe1b67eb	-0.1517636
219	0x3e007900	0.12546158
220	0xbe2e43c6	-0.17018041
221	0xbe53b379	-0.20673932
222	0xbd3beac7	-0.045878198
223	0xbc69d6e7	-0.014272428
224	0x3dd7fdd1	0.105464585
225	0xbe094a4b	-0.13407247
226	0xbdd44831	-0.10365332
227	0x3e2502d2	0.16114357
228	0x3d3f3215	0.04667862
229	0x3e09b640	0.13448429
230	0x3db766a9	0.08955128
231	0x3d5b8a74	0.053598836
232	0xbe081ffb	-0.1329345
233	0xbe2dc067	-0.16967927
234	0x3c22383a	0.009901101
235	0xbcaa9618	-0.020823523
236	0xbe4e26ee	-0.20132038
237	0x3e5dcae1	0.21659423
238	0x3e262eed	0.16228838
239	0xbe09da0e	-0.13462088
240	0x3dc22234	0.0947918
241	0x3d6caa87	0.057779815
242	0x3df835e1	0.121196516
243	0x3de4cf20	0.111723185
244	0x3d292e90	0.04130417
245	0x3dd82095	0.105530895
246	0x3e186311	0.14881541
247	0xbe02f57c	-0.12788957
248	0xbe4b90e0	-0.19879484
249	0x3e248ed4	0.1607011
250	0x3d8c889a	0.06861992
251	0x3e6ed5b5	0.2332371
252	0xbe48a306	-0.19593439
253	0x3df82d96	0.1211807
254	0xbd62aaf8	-0.05533883
255	0x3d900b7e	0.07033442

critic.0.bias f4 [256]
0	0xbdc91cd9	-0.098199554
1	0xbe5d066f	-0.21584485
2	0x3c946212	0.01811317
3	0x3dff18c5	0.12455896
4	0x3a4e90b7	0.00078798406
5	0x3bf5acc0	0.0074974
6	0x3cd48077	0.025940163
7	0x3d74c220	0.059755445
8	0x3dd24aae	0.1026815
9	0xbd08849f	-0.033329602
10	0x3e719853	0.23593263
11	0xbdec3765	-0.11534003
12	0xbdf08558	-0.11744183
13	0x3e033d47	0.12816344
14	0xbe5daae0	-0.21647215
15	0x3d889c48	0.06670433
16	0xbdb64ab9	-0.08900971
17	0x3db5bfe7	0.08874493
18	0x3e5a38b8	0.21310699
19	0x3e414622	0.1887441
20	0xbe34ec0e	-0.17668173
21	0xbd003a52	-0.03130562
22	0x3e59c477	0.21266352
23	0x3dcd8f7f	0.10037135
24	0x3e0c563b	0.1370477
25	0xbdf41b40	-0.1191926
26	0xbe1da7c9	-0.15396036
27	0xbc6cff50	-0.014465168
28	0xbd664be0	-0.056224704
29	0xbccf1194	-0.025276937
30	0x3dcee77e	0.101027474
31	0x3e58c264	0.21167904
32	0xbdef7869	-0.11692888
33	0xbe175be6	-0.1478115
34	0xbe449078	-0.19195735
35	0x3e71b8d9	0.2360567
36	0x3e4f9dec	0.20275086
37	0xbdc97db9	-0.09838433
38	0x3de00a70	0.10939491
39	0xbd377ec8	-0.044798642
40	0x3d6e976c	0.058249876
41	0x3dd3abf5	0.103355326
42	0x3c94cba1	0.018163504
43	0x3b7d836e	0.0038683075
44	0x3e398ed3	0.1812089
45	0xbdc00544	-0.09376004
46	0xbda4e4f4	-0.08051482
47	0xbe38a672	-0.18032244
48	0x3c29632d	0.010338587
49	0x3de0e8d2	0.10981907
50	0x3d42a812	0.047523566
51	0x3caaf770	0.02086994
52	0x3e210daf	0.15727876
53	0xbdaf45fc	-0.0855827
54	0xbd7c9bfa	-0.06167219
55	0x3cbf6c50	0.023367077
56	0xbdc27099	-0.094941325
57	0xbd9723ab	-0.0737985
58	0xbdedaad3	-0.11604848
59	0xbd806346	-0.06268935
60	0xbe2827d4	-0.16421443
61	0xbe00b88e	-0.12570402
62	0xbe5e35c6	-0.217002
63	0x3e00efd7	0.12591492
64	0x3d8b54df	0.06803297
65	0x3dcf31da	0.1011693
66	0x3d295346	0.04133918
67	0xbd32c00a	-0.043640174
68	0x3e424657	0.18972145
69	0x3e4f0f64	0.20220715
70	0xbe255f24	-0.16149575
71	0x3e1e584a	0.15463367
72	0x3d92103a	0.07132001
73	0xbd5a74fc	-0.05333422
74	0xbe1f7b72	-0.15574434
75	0x3baf5ede	0.005351885
76	0x3e440bd1	0.19145133
77	0x3dfa0690	0.12208283
78	0x3cfbddb4	0.030745365
79	0xbe1e59a9	-0.1546389
80	0x3d8ef394	0.069800526
81	0xbe0e2fee	-0.13885471
82	0x3e06a503	0.13148884
83	0x3dae87bf	0.08521985
84	0xbe0a3208	-0.13495648
85	0x3dcfa517	0.1013891
86	0xbd115216	-0.035478674
87	0xbe3c172c	-0.18368214
88	0xbe40d285	-0.18830307
89	0x3e1df410	0.15425134
90	0x3e678895	0.22610696
91	0xbd84be9e	-0.0648167
92	0xbe1afa9f	-0.15134667
93	0xbdabe385	-0.08393005
94	0xbe24cf1b	-0.1609463
95	0x3e4d4fd4	0.20049983
96	0xbd701212	-0.058610983
97	0xbd4dcbca	-0.050243177
98	0xbe43df02	-0.1912804
99	0xbe1c8e24	-0.15288597
100	0xbd13de41	-0.03610063
101	0x3e3d6fe6	0.18499717
102	0x3d0c05f4	0.034185365
103	0x3e829438	0.25503707
104	0xbe363317	-0.17792927
105	0x3e36fe9d	0.17870565
106	0xbc4aa51f	-0.0123684695
107	0x3e1bb9c6	0.15207586
108	0xbd909a4a	-0.07060678
109	0x3dbb3435	0.09140817
110	0x3d5993a4	0.053119317
111	0xbe1a3827	-0.15060483
112	0xbdb9be24	-0.090694696
113	0xbe08715f	-0.13324498
114	0x3da67d69	0.08129389
115	0x3d883c02	0.066520706
116	0x3de09db5	0.1096758
117	0xbe28e002	-0.16491702
118	0xbe45a6ab	-0.1930186
119	0x3e23d9dd	0.16001077
120	0x3c8259bd	0.015911931
121	0xbe1e575a	-0.1546301
122	0xbd98fe31	-0.07470358
123	0x3ce72126	0.028214049
124	0xbd9ebafc	-0.07750508
125	0x3e4e0271	0.20118119
126	0x3e2d3020	0.1691289
127	0xbe1a5b68	-0.15073931
128	0xbe1b696b	-0.15176933
129	0xbe1e4daa	-0.15459314
130	0x3e261b49	0.16221346
131	0xbdd6b7c9	-0.10484273
132	0xbd98cbf5	-0.07460777
133	0xbe09949b	-0.13435595
134	0xbe04ddec	-0.12975281
135	0xbdaf475e	-0.08558534
136	0xbe487971	-0.19577576
137	0xbde59327	-0.11209708
138	0xbde7f2a6	-0.113255784
139	0x3e37576c	0.17904443
140	0x3e115089	0.14190878
141	0x3d605e70	0.054777563
142	0x3e08ac62	0.13347009
143	0x3e5be7a8	0.21475089
144	0xbe5eaf6d	-0.21746607
145	0x3d87cdec	0.06631073
146	0x3e180c10	0.14848351
147	0x3dd7da38	0.10539669
148	0xbd3fac1a	-0.04679499
149	0xbd8479d9	-0.06468553
150	0xbd9c3adc	-0.07628414
151	0x3d0562d8	0.032564968
152	0x3e2741a5	0.16333635
153	0xbe005576	-0.12532601
154	0xbd88164b	-0.06644877
155	0xbe23092f	-0.15921472
156	0xbd490d4a	-0.04908494
157	0xbe390443	-0.18068032
158	0x3de044ec	0.10950646
159	0xbcade590	-0.021227628
160	0x3e16a097	0.14709698
161	0x3d2d6df4	0.042341188
162	0xbdfa7ca0	-0.122308016
163	0xbd608a10	-0.054819167
164	0xbca2754d	-0.019831324
165	0xbd44c8df	-0.048043128
166	0x3dd975bf	0.106181614
167	0xbe12015c	-0.14258331
168	0x3e7720de	0.24133632
169	0xbdecbded	-0.11559663
170	0x3d282338	0.041049212
171	0x3e154639	0.14577569
172	0x3b0ed655	0.0021795232
173	0xbe2dbb01	-0.16965868
174	0x3e27f029	0.16400208
175	0x3d20896c	0.039193556
176	0xbc9dd1f5	-0.019265154
177	0x3e2e7344	0.17036158
178	0xbe097e97	-0.13427196
179	0xbd588584	-0.052861705
180	0xbdcc6d02	-0.09981729
181	0x3bbfc223	0.0058520003
182	0xbd7de48d	-0.06198554
183	0x3e4e27a3	0.20132308
184	0xbe036540	-0.12831593
185	0xbce8f6fc	-0.028438084
186	0xbd965ce6	-0.07341938
187	0xbdc67c5a	-0.09691687
188	0xbdc6d553	-0.09708657
189	0x3dc84377	0.09778493
190	0xbdc04d09	-0.09389693
191	0xbd0d2b51	-0.034465138
192	0xbe2e2450	-0.1700604
193	0x3e432cae	0.19060013
194	0x3e648674	0.22316915
195	0x3d6e6654	0.058203056
196	0x3e0ea513	0.13930158
197	0x3d8c6a12	0.06856169
198	0xbddefd64	-0.10888174
199	0xbe1d7cf9	-0.15379705
200	0x3d9536bb	0.0728583
201	0x3e52f0bb	0.20599644
202	0x3e4134ec	0.18867844
203	0x3e19db5e	0.15025088
204	0xbdd47ace	-0.10374986
205	0xbd8819fe	-0.066455826
206	0x3dd23b99	0.102652736
207	0x3d943d95	0.07238308
208	0x3e23b276	0.15986046
209	0x3c99f05f	0.018791376
210	0x3e295785	0.16537292
211	0x3d5cf711	0.05394656
212	0x3c9acb43	0.01889575
213	0x3d467eb4	0.048460677
214	0x3e1909c4	0.14945132
215	0x3dcac819	0.09901447
216	0xbe340799	-0.17581023
217	0x3e2be1b8	0.16785324
218	0xbe10d50c	-0.14143771
219	0x3dd2db59	0.102957435
220	0x3dbc3fbe	0.09191845
221	0xbdd5845c	-0.10425636
222	0x3ba10251	0.004913606
223	0xbe2eadf4	-0.17058545
224	0xbe215f7d	-0.15759082
225	0xbde85d34	-0.11345902
226	0xbd3d014d	-0.04614382
227	0xbdd730d8	-0.10507363
228	0xbdf5d5b3	-0.120036505
229	0x3cf818c8	0.030285254
230	0xbe279e37	-0.16368948
231	0x3df8b56a	0.12143977
232	0xbe583cc6	-0.21116933
233	0xbdac57da	-0.08415194
234	0x3bab0771	0.005219393
235	0xbdb29658	-0.08720082
236	0xbe08f850	-0.13375974
237	0xbd262176	-0.040559255
238	0x3e31e920	0.17374086
239	0xbe20fc96	-0.15721354
240	0x3e5eb7f7	0.21749865
241	0xbdd4db17	-0.103933506
242	0xbe13919a	-0.14411011
243	0x3df0c53f	0.11756372
244	0xbe299375	-0.16560157
245	0x3e59b0a5	0.21258791
246	0x3d35da35	0.04439755
247	0x3e02fe9e	0.12792441
248	0x3dd3577c	0.10319421
249	0x3dd81282	0.10550405
250	0xbd9a32bc	-0.07529208
251	0xbdd4868c	-0.10377225
252	0xbdbad19f	-0.09122013
253	0xbdfbcb8e	-0.12294684
254	0xbe2d0b26	-0.16898784
255	0xbd264c96	-0.04060038

critic.2.weight f4 [256, 256]
0	0x3d3b8294	0.045778826
1	0x3cd6fe04	0.026244171
2	0xbd5c7758	-0.053824753
3	0xbc46dac5	-0.01213712
4	0xbc869875	-0.016430119
5	0xbd26ee34	-0.040754512
6	0x3d24939e	0.04017984
7	0xbcc076fa	-0.023494232
8	0x3bf6bcc0	0.007529825
9	0xbd5df04e	-0.05418425
10	0xbb1d0773	-0.002396074
11	0xbc9fcefb	-0.019507876
12	0xbd6679de	-0.056268565
13	0xbab4ce46	-0.0013794384
14	0xbd029632	-0.03188152
15	0xbd578f2e	-0.05262678
16	0xbc9bd842	-0.019024018
17	0xbc9d7e75	-0.019225338
18	0xbd66a166	-0.056306265
19	0xbd6d231b	-0.057894807
20	0x3d497e71	0.04919285
21	0xbcc1b894	-0.023647584
22	0xbcdaadc0	-0.026694179
23	0xbd5347fe	-0.05158233
24	0xbcf6ced1	-0.030127915
25	0xbc3bc4e0	-0.011460513
26	0xba26a200	-0.00063565373
27	0x3c3197f0	0.010839447
28	0x3cfde374	0.030992247
29	0xbd0bd6a1	-0.034140233
30	0x3d1777e7	0.036979582
31	0xbcf83464	-0.03029842
32	0x3d37942f	0.044819053
33	0x3be2a5a4	0.0069167186
34	0xbc9c7a3e	-0.019101258
35	0x3d32dfda	0.043670513
36	0x3d0e22a9	0.034701023
37	0xbd0b13f5	-0.03395458
38	0x3c98636f	0.018602101
39	0x3c552638	0.0130096
40	0xbbce25b0	-0.006291114
41	0xbb447b80	-0.0029980838
42	0x3d6f2525	0.058385033
43	0x3d54f4b5	0.051991183
44	0xbd82b499	-0.063821025
45	0x39bff7b4	0.00036614912
46	0x3cdebd8d	0.027189994
47	0x3d09f6ac	0.03368251
48	0x3cd197fc	0.025585167
49	0x3d0eba3e	0.034845583
50	0xbcbae893	-0.022815978
51	0x3ca4c816	0.02011494
52	0xbc8e9434	-0.017404653
53	0xbd712154	-0.058869675
54	0xbb184840	-0.0023236424
55	0x3be8b3e0	0.007101521
56	0xbcc01600	-0.02344799
57	0x3c47e349	0.012200185
58	0xbd4a60e4	-0.04940881
59	0xbd5073b4	-0.050891593
60	0x3d437848	0.04772213
61	0x3d3a8d4c	0.045544907
62	0x3cb224d8	0.021746084
63	0xbd0a7286	-0.033800624
64	0xbd63d346	-0.055621408
65	0x3cd9db90	0.026593953
66	0xbabf8960	-0.0014613084
67	0xbcb27de4	-0.021788545
68	0x3c56b1a8	0.01310388
69	0x3c413e78	0.011794679
70	0x3d61d59f	0.055135366
71	0xbd6ac768	-0.057319075
72	0xbca8eb07	-0.020619882
73	0xbd24de66	-0.04025116
74	0xbd1f6794	-0.03891714
75	0xbc43afb3	-0.011943745
76	0xbd18a336	-0.037265025
77	0x3d199b26	0.037501477
78	0x3d14966a	0.03627626
79	0xbd0149b8	-0.031564444
80	0xbd607008	-0.05479434
81	0xbb165760	-0.0022940263
82	0x3d09ee43	0.03367449
83	0xbd35624c	-0.044283196
84	0xba33c480	-0.0006857589
85	0xbbc55fe0	-0.006023392
86	0x3d13b4ab	0.03606097
87	0xbd4084ca	-0.047001638
88	0x3ced5f53	0.028976118
89	0xbd04b674	-0.032400563
90	0x3c942e88	0.018088594
91	0x3cf3f8dc	0.029781751
92	0x3d1a95a1	0.037740353
93	0x3d19308e	0.03739982
94	0xbd0e3f44	-0.034728304
95	0xbd3eaaa4	-0.046549454
96	0xbd3f0211	-0.04663283
97	0x3cd171ad	0.0255669
98	0x3ca2f26c	0.019890986
99	0xbcb90308	-0.022584453
100	0x3bceb0f0	0.0063077137
101	0x3bf706d4	0.007538656
102	0xbca47800	-0.020076752
103	0x3c615920	0.013754159
104	0xbd415f16	-0.04720982
105	0xbcf1a190	-0.029495984
106	0x3d0fa6e4	0.03507127
107	0xbd4611ad	-0.0483567
108	0xbc6f6d18	-0.014613412
109	0xbc4634ff	-0.012097596
110	0xbd4ffa5e	-0.050775878
111	0x3c23bea1	0.00999418
112	0x3c65e108	0.014030702
113	0x3d3f2cf6	0.046673737
114	0x3c7e7950	0.015531853
115	0x3cc09194	0.023506917
116	0xbd0cca75	-0.034372766
117	0xbd81d7ec	-0.06340012
118	0x3d1f5d7b	0.03890751
119	0xbd832cfb	-0.06405064
120	0xbb250f36	-0.0025186068
121	0x3d2a666e	0.04160159
122	0x3d6c8a4a	0.05774907
123	0xbc270e70	-0.010196313
124	0x3b0c6d60	0.0021427497
125	0xbc5deefb	-0.013545747
126	0x3ca6a4b6	0.020342212
127	0x3ce5026b	0.027955255
128	0xbd264fe7	-0.040603545
129	0x3d0aff34	0.033934787
130	0xbd42bd34	-0.04754372
131	0x3c2df1c3	0.0106167225
132	0x3c86bf7e	0.016448732
133	0x3d74cede	0.059767596
134	0xbcce2234	-0.025162794
135	0xbd616d78	-0.05503604
136	0x3cc15dc4	0.023604281
137	0x3d685746	0.056723855
138	0x3cb01da8	0.021498516
139	0x3cbd6e20	0.0231238
140	0xbcf33c28	-0.02969177
141	0xbc9d89ea	-0.019230802
142	0xbcbfa3fc	-0.023393624
143	0xbc12c006	-0.008956915
144	0x3d5fd6d0	0.05464822
145	0x3d1927ad	0.037391353
146	0xbd4bcb50	-0.04975444
147	0xbc85e95c	-0.016346626
148	0xbd2d3ae0	-0.042292476
149	0x3cba2700	0.022723675
150	0x3bc5801c	0.0060272347
151	0xbd6d59ad	-0.05794685
152	0x3ccf4333	0.025300598
153	0xbd25fe0d	-0.040525485
154	0xbd723ca4	-0.059139863
155	0x3caee890	0.021351129
156	0x3cb7ddac	0.022444569
157	0x3c94913b	0.018135658
158	0x3c384e52	0.011249142
159	0xbc62a06f	-0.013832196
160	0xbd835433	-0.06412544
161	0xbc8bb5e8	-0.017054513
162	0x3d7f7ffe	0.062377922
163	0xbccb96b0	-0.024852127
164	0xbd04a78d	-0.03238635
165	0xbd616d7d	-0.055036057
166	0xbc37e130	-0.0112231225
167	0xbc5cdc18	-0.013480209
168	0xbd201b0b	-0.03908829
169	0x3d3fe464	0.04684867
170	0x3d110bb2	0.035411544
171	0xbb5e985c	-0.0033965325
172	0xbd555c74	-0.052090123
173	0xbd4fdb41	-0.050746206
174	0x3c90fe8c	0.017699502
175	0xbd16480c	-0.036689803
176	0x3d1ce8b6	0.038307868
177	0xbc2f0c98	-0.010684155
178	0xbbb40c5b	-0.005494637
179	0x3d3482ba	0.044069983
180	0xbce450e3	-0.027870601
181	0xbd15135a	-0.03639541
182	0x3d78c06a	0.060730375
183	0x3d7141f1	0.058900777
184	0xbd5ca04c	-0.05386381
185	0xbd242a32	-0.040079303
186	0x3d6d9f3e	0.058013193
187	0xbd7fbb4c	-0.06243448
188	0xbbb4c21a	-0.005516303
189	0xbd16f86e	-0.036858015
190	0xbc860d5c	-0.016363792
191	0xbd3fc5ef	-0.046819624
192	0x3c032f9a	0.008006955
193	0xbd46f4f6	-0.048573457
194	0xbba8bebe	-0.0051496914
195	0x3cb41798	0.021983907
196	0x3d3f50e8	0.046708018
197	0xbb3fbad9	-0.0029255657
198	0xbd7671ac	-0.060167
199	0x3c685828	0.014181174
200	0xbc8b2052	-0.016983185
201	0x3d10545f	0.035236713
202	0xbd8248a4	-0.06361511
203	0x3d1e6c04	0.03867723
204	0x3d41196e	0.047143392
205	0x3c6ad175	0.014332165
206	0x3d6102e9	0.054934416
207	0xbd18f2a1	-0.037340764
208	0xbc8276ac	-0.015925728
209	0x3cb27e91	0.021788867
210	0x3d0a79b4	0.03380747
211	0xbce0cb91	-0.027440818
212	0xbccda8d1	-0.025104912
213	0xbd74a4f8	-0.05972764
214	0xbd72a7a5	-0.05924191
215	0x3ccb3110	0.024803668
216	0x3d0194b4	0.031635955
217	0x3d15f190	0.036607325
218	0xbd73fbb5	-0.05956622
219	0x3c2be1c1	0.010490836
220	0xbcf51664	-0.029917903
221	0x3c3fe08c	0.011711251
222	0x3ce53636	0.027979951
223	0x3cea7a5f	0.028622804
224	0x3d70cff2	0.058792062
225	0x3d445112	0.047928877
226	0x3c3ee467	0.011651135
227	0x3b12f8e0	0.0022426173
228	0xbd5d8cfe	-0.05408954
229	0xbc8f111a	-0.01746421
230	0xbd8041dc	-0.06262562
231	0x3c707058	0.014675222
232	0x3cc293f3	0.023752188
233	0xbbd39980	-0.0064575076
234	0xbd02747c	-0.03184937
235	0xbc640a40	-0.013918459
236	0xbceb833c	-0.0287491
237	0xbd5ba058	-0.053619713
238	0xbd82c833	-0.06385841
239	0x3d5224fc	0.051304802
240	0xbd82b6fc	-0.06382558
241	0x3cc49214	0.023995437
242	0x3d0bcf7e	0.034133427
243	0x3d567510	0.052357733
244	0x3abcf200	0.0014415383
245	0x3c53ceb0	0.012927696
246	0x3b5f6dc6	0.003409253
247	0xbcd4e419	-0.025987672
248	0xbbf1dc67	-0.0073810103
249	0x3cc6468b	0.02420356
250	0x3d0056ae	0.031332664
251	0xbd2ce3f8	-0.042209595
252	0xbd4287a6	-0.047492646
253	0x3bdc3b14	0.00672091
254	0x3cfad0d6	0.030617159
255	0x3c20a20b	0.009804259

critic.2.bias f4 [256]
0	0xbd2d5aa5	-0.042322773
1	0x3d456187	0.048188712
2	0xbd63af1b	-0.055586915
3	0xbd15244f	-0.03641158
4	0x3cc7b23d	0.024376983
5	0xbd11ec1d	-0.035625566
6	0xbc86e6cc	-0.016467474
7	0xbd6efed7	-0.058348503
8	0xbd3867db	-0.04502092
9	0xbc6bfccc	-0.014403533
10	0x3d42b163	0.04753245
11	0xbcaa9295	-0.020821849
12	0x3a8e05b6	0.0010835442
13	0x3cb51019	0.022102403
14	0x3d14df7c	0.036345944
15	0x3d69c979	0.057076905
16	0x3da55293	0.080723904
17	0x3d2b85b5	0.04187556
18	0xbcb2b3c1	-0.021814229
19	0x3cec0451	0.028810652
20	0x3ce4e8dc	0.027943067
21	0x3db31d85	0.08745865
22	0x3d38260f	0.04495817
23	0xbd71e898	-0.05905971
24	0x3d7b9cce	0.061428837
25	0x3d4d2339	0.05008242
26	0x3d283f45	0.041075964
27	0x3c8e26a8	0.017352417
28	0x3d46a1c9	0.048494134
29	0x3c36982a	0.011144677
30	0xbc194fa5	-0.009357368
31	0x3da426f2	0.08015241
32	0xbc086a76	-0.0083261635
33	0xbcc65f20	-0.024215281
34	0xbd40dfea	-0.04708854
35	0xbd077da9	-0.033078823
36	0x3d2b465e	0.041815154
37	0xbcbbd3f6	-0.02292822
38	0xbcc6ba80	-0.024258852
39	0xbccf0f7d	-0.02527594
40	0x3d2a6c94	0.041607454
41	0x3bfb3fed	0.0076675327
42	0x3c68c0f0	0.014206156
43	0xbc287b40	-0.010283291
44	0x3c9df2da	0.01928084
45	0xbccd1ffa	-0.025039662
46	0x3d09baf3	0.033625554
47	0x3d00fe9d	0.03149282
48	0xbd37367e	-0.044729702
49	0x3d3f860d	0.0467587
50	0x3d8f44da	0.06995554
51	0x3bc65678	0.0060527883
52	0x3d701d64	0.05862178
53	0xbbf967f4	-0.007611269
54	0x3c9aefa5	0.0189131
55	0x3cc67b9a	0.02422886
56	0x3d59dafa	0.053187348
57	0xbcfc04fc	-0.030764095
58	0x3da37423	0.07981136
59	0x3cc1e29f	0.023667632
60	0x3b9ca45c	0.0047803354
61	0x3abebf80	0.0014552921
62	0x3d3e0415	0.04639061
63	0x3d39ed77	0.04539248
64	0x3d379a81	0.04482508
65	0xbcd62b11	-0.026143583
66	0x3d57ae46	0.052656434
67	0xba5aa2c3	-0.00083402934
68	0xbaf600d4	-0.0018768557
69	0xbc99ebc8	-0.018789187
70	0xbbc7de2e	-0.006099484
71	0x3d1fd2db	0.039019447
72	0x3d05a7a0	0.032630563
73	0xbd741884	-0.059593692
74	0xbd9a93fe	-0.075477585
75	0x3d0e5a60	0.034754157
76	0x3c8b81a6	0.017029595
77	0x3d089357	0.03334364
78	0x3cc3da23	0.023907727
79	0xbbc9d1a8	-0.006159026
80	0x3da95a11	0.08269132
81	0xbd077b5b	-0.033076625
82	0x3d9f0117	0.0776388
83	0x3d24df7b	0.04025219
84	0x3c8d31fd	0.01723575
85	0x3c0768f0	0.008264765
86	0xbd5a7fae	-0.05334442
87	0x3c8bd40f	0.01706889
88	0x3d5eb217	0.05436906
89	0xbc8b4dd1	-0.01700488
90	0x3ccfd86e	0.025371756
91	0x3da3806c	0.07983479
92	0xbd5dabe8	-0.05411902
93	0xbd80cd8b	-0.06289204
94	0xbcf2d7e2	-0.029643957
95	0xbd102a73	-0.035196733
96	0xbcdbc405	-0.026826868
97	0x3d68d863	0.056846987
98	0x3d34c2b5	0.044131
99	0xbd161354	-0.036639526
100	0xbd62a97e	-0.05533742
101	0x3ce83e8a	0.028350133
102	0x3d1e528e	0.03865295
103	0xbd3e11d9	-0.04640374
104	0x3cc3cb2c	0.02390059
105	0x3ab21009	0.0013585101
106	0x3a85a3c5	0.0010195902
107	0xbc21ba21	-0.009871037
108	0xbc492d4d	-0.012278867
109	0x3cb1dc0b	0.02171137
110	0x3d0adc90	0.03390175
111	0x3d2326b0	0.039831817
112	0x3d1aebfd	0.037822712
113	0x3d439435	0.047748763
114	0xbd6f7d9b	-0.058469396
115	0x3d05d91c	0.032677755
116	0xbd134887	-0.03595784
117	0x3ca20bd0	0.019781023
118	0x3b5689fd	0.0032736056
119	0x3ccbbd51	0.024870547
120	0x3d29633a	0.041354395
121	0x3c040248	0.0080571845
122	0x3d5c558c	0.05379252
123	0x3d75958d	0.059957076
124	0xbc6e0929	-0.014528551
125	0x3d85d0c4	0.065339595
126	0xbd03e2ac	-0.032198593
127	0xbc6e42da	-0.014542306
128	0x3d9458fe	0.072435364
129	0xbb4479ab	-0.0029979746
130	0x3da9eb30	0.082968116
131	0xbd2f3840	-0.042778254
132	0x3d929810	0.0715791
133	0x3ccb85b8	0.024844036
134	0xbd8615d3	-0.065471314
135	0xbbbfeee0	-0.0058573335
136	0xbbc6339d	-0.0060486333
137	0xbd7ecaa4	-0.062204972
138	0x3da74d12	0.08168997
139	0xbca22ebc	-0.019797675
140	0xbc6a5bc0	-0.0143041015
141	0x3c425823	0.011861834
142	0x3d5ef78e	0.054435305
143	0x3da79851	0.08183349
144	0x3d1ac4d6	0.037785374
145	0x3d1ad60f	0.0378018
146	0x3daedcfb	0.085382424
147	0x3c7863de	0.015160529
148	0x3d4d6f9f	0.05015528
149	0x3c8f0c18	0.017461821
150	0x3d57241b	0.052524667
151	0x3cb4ae97	0.022055907
152	0xbd61588f	-0.055016097
153	0x3d156c73	0.03648038
154	0xbd1aa821	-0.037757996
155	0xbcd5083e	-0.026004907
156	0xbc50c511	-0.012742297
157	0xbd05370c	-0.0325232
158	0xbd5f119c	-0.054460153
159	0x3ce46193	0.027878558
160	0x3d1018f5	0.03518005
161	0x3d40d457	0.047077503
162	0x3d118bc0	0.035533667
163	0x3d4081ee	0.04699891
164	0xbca6441b	-0.020296147
165	0x3d11fea1	0.035643224
166	0xbd79697b	-0.06089161
167	0x3c22b073	0.009929764
168	0xbb386390	-0.0028135516
169	0x3bde30ab	0.006780704
170	0xbd50db90	-0.05099064
171	0x3db1aea5	0.08675889
172	0xbd85c0b8	-0.06530899
173	0xbcaa6195	-0.020798484
174	0xbd701631	-0.058614913
175	0xbcbc99ad	-0.023022497
176	0xbb047ffa	-0.0020217882
177	0xbbef4615	-0.0073020556
178	0x3d470a4c	0.048593804
179	0xbc914a9f	-0.017735777
180	0xbcf2fe52	-0.029662285
181	0x3d0b166d	0.033956934
182	0x3c2ce4ee	0.010552628
183	0xbd64d41e	-0.055866353
184	0xbd572a8a	-0.052530803
185	0xbc498bee	-0.012301428
186	0xbd5ea072	-0.05435223
187	0x3a41f9d5	0.00073995936
188	0x3d1ef22b	0.038805168
189	0xbcabe286	-0.020982038
190	0xbd66a2a3	-0.056307446
191	0xbc023025	-0.007946049
192	0x3db4662c	0.0880855
193	0xbcae3301	-0.021264555
194	0xbc03c3b8	-0.008042268
195	0xbcd7027c	-0.026246302
196	0xbcf23d7b	-0.029570332
197	0xbd011d17	-0.031521883
198	0xbd07ec3e	-0.033184282
199	0x3c145281	0.009052874
200	0xbd03b30d	-0.032153178
201	0xbd5b9ad1	-0.05361444
202	0x3d1e39c5	0.038629312
203	0xbd361ae0	-0.044459224
204	0x3b5471e0	0.0032416508
205	0x3d2b4253	0.0418113
206	0xbc7bc542	-0.015366854
207	0x3d004265	0.03131332
208	0x3cea36cc	0.028590582
209	0x3da536fc	0.08067128
210	0x3cd80280	0.02636838
211	0x3d7039f4	0.05864902
212	0x3d659544	0.056050554
213	0x3d6c03f3	0.057620954
214	0x3d5d0335	0.053958137
215	0x3d2ac95d	0.04169594
216	0xbd3975e9	-0.045278464
217	0x3c4c5cc9	0.012473294
218	0x3d51aed9	0.05119214
219	0x3d80ccf5	0.062890925
220	0x3b6a807c	0.003578215
221	0x3bdda458	0.006763976
222	0x3cd42428	0.025896147
223	0x3d23ec45	0.040020246
224	0xbc1bd640	-0.00951153
225	0xbc6877cf	-0.014188721
226	0xbcf54277	-0.02993892
227	0x3d225938	0.039635867
228	0x3d4c454e	0.04987078
229	0x3d589614	0.0528775
230	0xbd6e5298	-0.058184236
231	0xbd4e453c	-0.050358996
232	0x3d8fd680	0.070233345
233	0xbd3813cd	-0.04494076
234	0x3d50317d	0.050828446
235	0xbd4793a3	-0.04872478
236	0x3d5590a5	0.052139897
237	0x3c62e6f7	0.013849012
238	0xbd26a2b6	-0.040682517
239	0x3d107cba	0.0352752
240	0x3d8f2229	0.069889374
241	0x3d25814d	0.040406514
242	0xbd45c6f2	-0.048285432
243	0x3d9fea62	0.07808377
244	0xbc71def0	-0.014762625
245	0x3c2c5d2a	0.010520259
246	0x3ce48c9c	0.027899079
247	0x3c3f7784	0.01168621
248	0xbcfc065d	-0.030764753
249	0x3cc5c929	0.024143772
250	0x3b2a21b0	0.002596002
251	0x3ca7712d	0.020439709
252	0xbd7dd563	-0.06197108
253	0x3b578136	0.0032883412
254	0xbc8e116d	-0.017342294
255	0xbd01f32a	-0.03172604

critic.4.weight f4 [1, 256]
0	0x3d4a6862	0.049415953
1	0x3c8247ab	0.015903315
2	0xbc321317	-0.010868809
3	0x3d12b86a	0.035820402
4	0x3d44f954	0.04808934
5	0xbca8b4a3	-0.020593947
6	0x3cf97514	0.030451335
7	0xbd3723c0	-0.04471183
8	0xbc824e8b	-0.015906593
9	0xbd4c4bb1	-0.049876872
10	0x3cd35a80	0.02579999
11	0xbd5e0c79	-0.054211114
12	0x3ca2a7e5	0.019855449
13	0x3cfd41b7	0.030915124
14	0xbc08ecda	-0.008357251
15	0x3d668cc4	0.05628659
16	0x3cdb2974	0.026753165
17	0x3c93f6be	0.018061992
18	0x3d4db072	0.0502171
19	0x3d9ffc69	0.07811815
20	0xbd161f2c	-0.03665082
21	0x3ce10278	0.027466998
22	0xbcf279d4	-0.029599108
23	0xbc180091	-0.009277479
24	0x3d69100f	0.05690008
25	0xbd0739b0	-0.033014
26	0x3d8b2df1	0.06795872
27	0x3d1b42a2	0.037905343
28	0x3d982786	0.074294135
29	0xbd5409da	-0.051767208
30	0x3d1ba8aa	0.038002647
31	0x3d4901c0	0.049073935
32	0x3d926342	0.07147838
33	0x3cd7e6ae	0.026355114
34	0x3d200002	0.039062507
35	0xbcd20ff5	-0.025642375
36	0xbc811d5c	-0.01576107
37	0x3ab2b4ae	0.0013634169
38	0x3d533ed9	0.051573608
39	0x3d17d33a	0.037066676
40	0x3c45d0bd	0.012073693
41	0xbcc26deb	-0.023734054
42	0x3d9cb683	0.07651999
43	0xbd5899d2	-0.05288107
44	0x3cf4c75e	0.029880222
45	0xbbbd70db	-0.0057812757
46	0x3d77f202	0.06053353
47	0x3d9fa7db	0.07795688
48	0xbd53ae86	-0.05168011
49	0xbd33031c	-0.043704137
50	0x3ce7f715	0.02831606
51	0xbd16d4b7	-0.036823954
52	0xbd158da9	-0.03651205
53	0x3d97cc9a	0.074120715
54	0x3d965473	0.07340326
55	0xbd66fe2d	-0.056394745
56	0x3cb2e853	0.021839296
57	0xbd892438	-0.06696361
58	0x3d17df9f	0.037078496
59	0xbc2b4998	-0.010454558
60	0xbd43a232	-0.047762103
61	0x3d23b20e	0.039964728
62	0x3d1cbf6a	0.038268484
63	0xbcc29269	-0.023751454
64	0xbd4a1b34	-0.04934235
65	0xbd294d37	-0.041333403
66	0x3cb1026d	0.021607602
67	0xbcad870c	-0.02118256
68	0x3d9b336e	0.07578169
69	0x3cb570ec	0.022148572
70	0xbcb59422	-0.022165362
71	0x3c9f1805	0.019420633
72	0xbc8f6bfd	-0.017507548
73	0xbcb88130	-0.022522539
74	0xbd2b940e	-0.041889243
75	0xbc0a50ff	-0.008442163
76	0x3d596272	0.0530724
77	0x3d850c68	0.06496507
78	0x3d877e3c	0.06615874
79	0xbd60f4a7	-0.05492082
80	0x3d8ae912	0.06782736
81	0x3d7b4f0d	0.061354686
82	0x3d879b1f	0.06621384
83	0xbc80d28b	-0.015725395
84	0x3cdd49ed	0.02701279
85	0x3d0ae243	0.033907186
86	0x3930c982	0.00016859735
87	0x3ca82703	0.020526415
88	0x3d396807	0.045265224
89	0x3d891f20	0.0669539
90	0xbc5ba851	-0.013406829
91	0x3d90d71e	0.0707228
92	0xbab6400f	-0.0013904589
93	0xbb9d8ead	-0.004808268
94	0xbd6ec135	-0.058289725
95	0xbcc3d300	-0.023904324
96	0xbbb8b332	-0.005636596
97	0xbcb9dc70	-0.02268812
98	0x3cb03d9c	0.021513753
99	0x3d47b931	0.048760597
100	0x3d43997c	0.047753796
101	0xbc523869	-0.012830832
102	0xbc75daa3	-0.01500574
103	0xbd607081	-0.054794792
104	0x3d35e67c	0.04440926
105	0x3d9f0bb5	0.07765905
106	0xbb912265	-0.004429149
107	0x3d74580f	0.05965429
108	0x3d950a52	0.07277359
109	0x3cac90ea	0.021065194
110	0x3b5a4760	0.0033306703
111	0xbd3c3ece	-0.045958333
112	0xbd352504	-0.044224754
113	0x3d187151	0.037217442
114	0xbd5b6bd4	-0.05356963
115	0x3da42611	0.08015073
116	0x3d664ccd	0.056225587
117	0xbd0706d0	-0.03296548
118	0x3d81f8ba	0.06346269
119	0x3c38d2ee	0.011280758
120	0x3d4007b6	0.046882354
121	0x3cbf22a6	0.023331951
122	0x3d2d2c10	0.04227835
123	0x3d8266f5	0.06367294
124	0x3d306b96	0.043071352
125	0x3c8b5c87	0.017011894
126	0xbcac7f70	-0.02105686
127	0x3d33fd36	0.043942653
128	0x3d863ebc	0.065549344
129	0xbd373f87	-0.04473832
130	0x3d79362c	0.060842678
131	0xbd162a72	-0.036661573
132	0x3cea5f2e	0.028609838
133	0xbd5c62f9	-0.053805325
134	0xbd4f7d4b	-0.050656598
135	0x3cd32c28	0.025777891
136	0x3d74f7e8	0.059806734
137	0x3d54e014	0.05197151
138	0x3d1e934b	0.03871469
139	0x3d2ffd86	0.04296639
140	0x3ccd5d92	0.025069032
141	0x3cc6e9aa	0.024281342
142	0x3a960f67	0.0011448682
143	0x3d5fb2a7	0.054613736
144	0xbd40f959	-0.047112796
145	0xbd0b1f16	-0.033965193
146	0x3d9302b9	0.07178254
147	0xbc62ec7a	-0.013850326
148	0x3d20870d	0.039191294
149	0x3d67af1f	0.056563493
150	0xbcdff648	-0.027339116
151	0xbd5ca924	-0.053872243
152	0xbd4f3a96	-0.05059298
153	0x3cbf9f9d	0.02339154
154	0xbd1718b1	-0.036888782
155	0xbb73ebf1	-0.003721949
156	0xbd28bf3c	-0.041198
157	0xbaebac31	-0.0017980394
158	0xbd6271ff	-0.055284496
159	0x3b0cfa18	0.0021511372
160	0x3d140501	0.036137585
161	0xbd4dba36	-0.050226413
162	0xbd7cc5be	-0.06171202
163	0x3d943764	0.072371274
164	0xbd3efa7f	-0.04662561
165	0x3d88ff27	0.066892914
166	0xbd0fbee6	-0.035094164
167	0xbc5982d5	-0.013275822
168	0xbd117e52	-0.03552086
169	0xbc96455a	-0.018343616
170	0xbd46de63	-0.04855193
171	0x3cf98393	0.030458247
172	0xbbcc45b1	-0.006233894
173	0xbcb01617	-0.021494908
174	0xbd62b9ea	-0.055353083
175	0xbc157930	-0.009123132
176	0x3d6c2921	0.05765641
177	0x3d46e7aa	0.048560776
178	0xbd73cc22	-0.059520848
179	0x3d75230a	0.05984787
180	0xbd1041f2	-0.03521914
181	0x3c3450f8	0.011005633
182	0x3d4310cd	0.047623444
183	0x374842bb	1.1936466e-05
184	0x3cb30dc0	0.021857142
185	0x3d2e5a84	0.04256679
186	0x3a3d9f0d	0.0007233478
187	0x3c883f55	0.016631762
188	0xbd3f4907	-0.046700504
189	0x3d72d4ea	0.059285082
190	0xbd5c75bc	-0.053823218
191	0xbcc0227d	-0.023453945
192	0x3d50a368	0.050937086
193	0xbd17f349	-0.03709725
194	0x3c8f3290	0.017480165
195	0x3d20a9f8	0.039224595
196	0xbcfb886e	-0.030704703
197	0x3d8381ce	0.06421243
198	0xbcc9ff10	-0.024657756
199	0x3bb0ad60	0.0053917617
200	0xbbb4daf6	-0.0055192662
201	0xbd46abf9	-0.04850385
202	0xbd1fb734	-0.038993075
203	0x3d38b892	0.045097895
204	0x3d25f22a	0.04051415
205	0xbd29c70d	-0.041449595
206	0xbcc9e49c	-0.024645142
207	0xbd00dd32	-0.03146095
208	0x3cd7fe70	0.026366442
209	0x3d2dc871	0.042427484
210	0xbb557eed	-0.0032576874
211	0xbcfaa8bd	-0.030598039
212	0x3d9b306e	0.075775966
213	0x3cbadeba	0.022811282
214	0x3d9c0b6e	0.076193675
215	0xbcf287ef	-0.029605834
216	0x3c942dfa	0.01808833
217	0x3b3770aa	0.0027990737
218	0x3ce397ff	0.027782438
219	0x3d304729	0.043036614
220	0xbd49338b	-0.04912142
221	0x3d9c3c67	0.07628708
222	0xbcc7fbc5	-0.024412045
223	0x3d192830	0.03739184
224	0xbd26ffd6	-0.040771328
225	0x3d4aefc1	0.049545053
226	0x3d964c8b	0.07338818
227	0x39f78b00	0.00047215074
228	0x3d7d349b	0.061817747
229	0x3d669de2	0.056302913
230	0xbd58dee1	-0.05294693
231	0x3cc4f6a1	0.024043383
232	0x3d266650	0.040624917
233	0xbc6cefe5	-0.014461492
234	0xbb770fc5	-0.0037698608
235	0xbcbaaea8	-0.02278836
236	0xbcee36bc	-0.029078834
237	0xbcefaa83	-0.029256111
238	0xbc7d9a2f	-0.015478655
239	0x3d3a7dac	0.045530006
240	0x3c9e41b8	0.019318447
241	0xbd383d29	-0.044980202
242	0x3d19a69e	0.037512414
243	0x3d6793f7	0.056537595
244	0xbd640688	-0.05567029
245	0x3da48edc	0.08035061
246	0xbd4bd732	-0.049765773
247	0x3ce5a33e	0.028031942
248	0xbc8ebd1d	-0.01742416
249	0x3c8bfde8	0.017088845
250	0xbcb56049	-0.022140639
251	0xbafa147e	-0.0019079593
252	0xbd60f57e	-0.05492162
253	0x3caa7b7c	0.020810835
254	0x3c9696f8	0.018382534
255	0x3d8ac228	0.067753136
