RL_algorithms/Torch/PPO/Continious/PPO/models/space_robot_actor.pt (torch, 294035 bytes, 7 tensors)

log_std f4 [6]
00000000: e9c5 00bf 2882 01bf c964 00bf 6524 febe
00000010: c986 febe 8337 febe
-0.50301987 -0.5058923 -0.50153786 -0.49637142 -0.49712208 -0.49651727

actor.0.weight f4 [256, 21]
00000000: c85d b53d 0f1d 7dbc d5f1 153e b1c4 1bbe
00000010: 759c 8c3d d9f5 5cbe 5d82 3dbe f32b cd3d
00000020: a518 543e ea92 bc3d bfcc 46bc 811c 0e3d
00000030: 951f b3bd 2a08 aa3d 299a 79bd c1c4 0bbe
00000040: ddb7 90bd 2843 27be c0c0 a03d 762f 163e
00000050: 3cad 543d 3025 023e b4cd 97bd 98f8 60bd
00000060: 4018 0cbe b350 f83d 5fa1 ba3d 0961 b23d
00000070: 3fea acbd f49e ffbb ad77 48be ce68 5f3e
00000080: a2d1 13be 8b50 a53d e9db 29be 5883 493e
00000090: 6dbd c5bd 3865 473e 3212 12be 5c96 23be
000000a0: 3eb4 37be 4a07 23bd 82a4 9abd f665 9c3d
000000b0: d9ff 8fbc df8a fcbd 641a 1e3e ae0f 55be
000000c0: b204 d53d d4ae 563e efe5 353e 2204 57be
000000d0: 650f 483e e276 53be edc6 3bbe d676 423e
000000e0: 14cd 18bb 7623 1ebe b8ab 9a3d 8b16 a7bd
000000f0: 181d f43d 033b 113c fbf2 d53d 835c 523e
00000100: dcb1 193e c216 433e 18f4 ab3d 0719 1dbe
00000110: 63b7 453c 10b4 2fbe 4c33 74bd 85e6 f33d
00000120: 5bef 69bd bad5 2a3e 4444 e33d 0a3d 643d
00000130: c7e0 473e 1086 38be 2644 debd 9ad5 0abe
00000140: 64a2 5d3e 23cb 163e 8a76 e5bd d154 313e
00000150: 1737 0c3e e884 c93d ec4b 033e d425 ee3d
00000160: 4cd1 f1bd 3f39 f1bd c817 3b3e 5adb 2e3e
00000170: 54e9 49be b5b4 a83b 2366 3b3e 4806 f63c
00000180: 9dbe c7bd 9ce4 1e3e 5bb3 19be a930 83bd
00000190: 1ae3 4bbe 5d31 4d3e a0c7 05be 630a 803d
000001a0: c06b 24bd 306d 533e f979 a33d 2ee5 343e
000001b0: 739a 1c3e 76f5 183e f1f8 42be e311 d33d
000001c0: e3f7 1fbe fe5a 493e 2dee 213e dfd7 2a3e
000001d0: cb3d 0f3e f0ba ebbd 821c 2cbe 6cd4 78bc
000001e0: 3500 aebd e962 183e 6ce6 acbd caa3 ec3d
000001f0: 7077 51be d5a5 97bd 6872 58be 18a8 59be
00000200: ea77 153e d764 22be 7ab2 b3bd 427d 073e
00000210: 8def b9bd 4a20 443d 8671 3b3e 0d4c 9dbb
00000220: add9 553e 8001 4ebe 898b bebd 9e9a 45bd
00000230: 16ff 153e 38aa c2bd 23e1 f73d 7972 303e
00000240: b833 33be ab91 27bb 4fbd 6cbd 4538 07be
00000250: 88f7 cc3d 2f7f f3bb 919a 003e 4977 2dbd
00000260: b0c2 e3bc 367a 423e a06f 35be e01e a03d
00000270: 37be 023e cbb6 6dbd be80 42be b991 1d3e
00000280: 5916 44be 1d2f 293e 7a7d 21be 24be 533e
00000290: 49cf 303e 8fa5 543e 4598 b73d 3522 e93d
000002a0: 407d f0bc fe3f fc3d e46c e53d a47c 29be
000002b0: fb75 493e 69cd 46be f458 8e3d 5a62 57be
000002c0: 285f 56be 7403 573e 0163 be3d 0e2c e0bc
000002d0: 484e 3f3e d6d7 433d 46db 043e c868 5dbe
000002e0: a740 46be 17a7 6fbd 5ccb 303e e10a 133e
000002f0: dffc 3abe 0b67 fbbd 8409 23be 20b8 d93b
00000300: 80cc 323c a6ef 9fbd 1f5e ebbd 9feb 543e
00000310: 101f 7fbd b9ea 2e3e c1b6 163e b7f8 4f3e
00000320: 7f08 42be 8cb8 3cbe 7de0 163e 9857 7cbd
00000330: bef0 29be c088 2ebe f031 8d3c 57f5 103e
00000340: 32a1 25be bc95 54be 59b8 61bd 7efd b7bd
00000350: efa9 4bbe 5526 b53d a254 4dbe 94a5 913d
00000360: 59e3 1fbd 0020 183e 1e28 6ebd b571 e1bd
00000370: 8551 7e3d 8406 a9bc a888 ddba aab8 1ebe
00000380: 1a56 713d 160b 00be 2092 f93d d96e 263e
00000390: 5e7f b2bd cd5f 573e 5ccb 093d 4111 0dbe
000003a0: dbcb 26be 89e1 903d 294c e93d 0e68 d03d
000003b0: 299b 063e 45b1 2ebe 6d4d 3bbd a952 c1bd
000003c0: 6b90 53be 82b4 163d 65cc eebd e80d 263e
000003d0: 51e0 dcbc d273 553e 0928 7d3d 68eb 25be
000003e0: 042e 99bd c680 933d a81d 953d 5f29 10be
000003f0: a666 e13d 7864 cfbc ec56 9a3d 4f6a bbbd
0.08855778 -0.015448823 0.14643033 -0.1521175 0.06865779 -0.21578158 -0.18506761 0.10018148
0.20712526 0.09207709 -0.012133776 0.034695152 -0.08746258 0.083023384 -0.060938034 -0.13649274
-0.07066319 -0.16334212 0.07849264 0.14666542 0.05192302 0.12709498 -0.07412282 -0.054924577
-0.13681126 0.12124767 0.0911281 0.08709914 -0.084431164 -0.007800931 -0.19576903 0.21817324
-0.14435437 0.08072003 -0.16587795 0.1967901 -0.09655271 0.19472206 -0.14264753 -0.15975326
-0.1793985 -0.039801873 -0.075509086 0.07636635 -0.017578052 -0.12331175 0.15439755 -0.20806763
0.10401286 0.20965129 0.17763494 -0.2099767 0.19537123 -0.20650819 -0.18337603 0.18990645
-0.0023315595 -0.15443215 0.07552284 -0.081585966 0.11919612 0.008864167 0.104467355 0.20543103
0.15009254 0.1905165 0.083961666 -0.15341578 0.012067649 -0.17158532 -0.059619233 0.119092025
-0.057113033 0.16683093 0.11097005 0.055722274 0.1951934 -0.18019891 -0.10852842 -0.13558045
0.21643978 0.14725928 -0.1120425 0.17317511 0.1369289 0.09839803 0.1282193 0.11628309
-0.11807498 -0.11778497 0.1827079 0.17075863 -0.19717914 0.005148495 0.18300681 0.030032292
-0.097531535 0.15516895 -0.15009825 -0.064057656 -0.19910851 0.20038362 -0.13064432 0.06251981
-0.04014182 0.2064712 0.07982249 0.1766555 0.15293293 0.14937386 -0.19040276 0.10306146
-0.15621905 0.19663617 0.15813513 0.16683911 0.13988416 -0.11510265 -0.1680775 -0.015187364
-0.08496133 0.14881481 -0.08442387 0.11554678 -0.20455718 -0.07404677 -0.21137393 -0.21255529
0.14596525 -0.1585878 -0.08774276 0.13231376 -0.09078894 0.047882356 0.18305025 -0.0048003257
0.20883818 -0.2011776 -0.09303958 -0.048243158 0.14648089 -0.09505123 0.12103488 0.17231168
-0.17500198 -0.0025569003 -0.057797726 -0.13205059 0.1000815 -0.007430933 0.12558962 -0.042350087
-0.027802795 0.18991932 -0.17718363 0.07818389 0.12767874 -0.058035653 -0.18994424 0.1538762
-0.1914915 0.16521879 -0.15770522 0.20678002 0.17266573 0.2076628 0.0896459 0.113834776
-0.029356599 0.12316893 0.1120241 -0.16551453 0.19673912 -0.19414295 0.0695056 -0.21033612
-0.20934737 0.20997411 0.09296227 -0.027364757 0.18682206 0.04781326 0.12974271 -0.21622002
-0.193606 -0.05850896 0.17265075 0.14359619 -0.18260525 -0.12275513 -0.15921599 0.006644264
0.010913014 -0.07809381 -0.114925615 0.20793007 -0.062285483 0.17081727 0.14718153 0.20309721
-0.18948554 -0.18429774 0.14734073 -0.061606973 -0.16595742 -0.17044353 0.017235726 0.1415609
-0.16174772 -0.20760244 -0.05510745 -0.08983897 -0.19889043 0.08845202 -0.20051816 0.0711166
-0.039035175 0.14855957 -0.058143727 -0.11008016 0.06208946 -0.02063299 -0.0016901689 -0.15500131
0.058920003 -0.12504229 0.12186074 0.16253223 -0.087156996 0.21032639 0.033641204 -0.13776113
-0.16288702 0.070742674 0.113914795 0.10176097 0.13145126 -0.1705981 -0.045728136 -0.09439594
-0.2066056 0.03679324 -0.11660079 0.16216242 -0.026962431 0.20844963 0.06180576 -0.16203082
-0.0747948 0.07202296 0.07281047 -0.14078282 0.11005907 -0.025316462 0.0753611 -0.09151136

actor.0.bias f4 [256]
00000000: e9a2 52be 8b96 1dbe cfd1 03be b457 123d
00000010: bc42 f4bd e5ba c13d 6119 193e cf25 ecbd
00000020: 0ec5 b43d 5248 ba3d bf9b 403d a8ef 34be
00000030: 1f4c 953d c7fe 1f3e ebbc 403e 3239 eabc
00000040: 25e6 cfbd 770d 3abe 25e2 833d 86d2 263e
00000050: af4a 623d a00e 363e 9092 e53d e331 193e
00000060: f6d9 b63d e55e dbbd 272b cfbd a67d 57bd
00000070: 6233 6cbd 0e53 d3bd b319 5fbe 44e5 4f3e
00000080: 3041 07be 0872 abbd d634 8d3d 71af 2dbe
00000090: 83a2 8cbd c5a3 04be f0ac 44be 77f2 3abe
000000a0: ea96 2f3e 00e8 fe39 79d4 843d 04b3 1abe
000000b0: cdbb 533e e6d4 3ebe 2daf 4e3b f453 033e
000000c0: bed3 f2b9 0bed 183c 2768 0f3e 430f 03be
000000d0: 068d 51be d969 3d3e f2fd 253e ed89 33be
000000e0: 735b c13d e73d 483e e0dc 5abc 7523 183e
000000f0: 2652 45be 09b3 3d3e ac56 293e d3bb d03d
00000100: a2cb cfbc a18e 653a 897f 0c3e 7856 f9bc
00000110: 94b5 5c3e 61d3 2fbe 66fd 2fbe caca 1bbe
00000120: 5736 8e3d 599f b23d 8cd1 42be bd36 06be
00000130: 89e1 0dbe d282 e2bd c041 31bd d81b 43bd
00000140: 673b 49be c068 02be b757 583e 1a4d 2ebe
00000150: d4b7 fb3d 3ea8 3a3e de60 82bc d1f9 2c3d
00000160: be28 453e df3f 1abe 7e8f 04be adff e7bc
00000170: 4157 373e 8c45 103e bcae 3c3e f32d 1a3e
00000180: 411d 38be abd7 063e 50d3 84bd 647f 82bd
00000190: e418 8bbd bfac 30bd 4e20 1bbe f70e 4ebe
000001a0: 72dd 2fbe 89aa 323b 369b 96bc 8b3e ae3d
000001b0: fe06 9a3d 474b 1d3e cd5e fbbd 1285 ccbd
000001c0: 29d5 d03d d249 dbbd 936e ce3d f5dd 053e
000001d0: f5da 1fbe cf01 c7bd e9fc 21be 4d1a e3bd
000001e0: 7219 143e d971 273e 8dae acbd b6b3 00be
000001f0: f02f d8bc 1972 293e 173a b2bd dcb3 c7bd
00000200: 93cb 043e a2ae 513e 73c7 e7bd 8d3b f6bd
00000210: 7d0a 3bbe db37 a4bd 823b b13d df92 14be
00000220: 591f 4c3e 46bb 283e 58ee 433d d7cd 0abe
00000230: d0cc e23d 502c 8a3d 2907 22be 2e42 4abe
00000240: a65d 73bb 2fb0 25be cb7b 29be 141a a0bd
00000250: 3c69 323e 84d1 b4bd 9b0c 343e 59da 243e
00000260: 86c2 bb3d efec c2bd 1a6f 413e b226 913d
00000270: de55 37be 3bf0 f0bd b078 83bd e65c 023e
00000280: 7549 0ebe 0624 d83c 5b76 4abe bc00 30be
00000290: 1007 b0bd eefa 7abd f438 1cbe 1336 213e
000002a0: 474d bcbd 0729 d4bd add3 a13d 4954 f1bb
000002b0: c881 5f3e 1cb3 d63d ae00 29be 16ae 753d
000002c0: b979 df3c cd81 c03c 4116 193e 5106 04be
000002d0: 70f9 13bc e939 8c3d 9741 ca3c 10a0 b33c
000002e0: f8d4 67bd 9837 9c3d 78c5 533e 11a0 5bbe
000002f0: 9486 60be 6bee 9cbd c481 4a3e 5d11 2e3e
00000300: 6647 b03c ffe5 e7bb 6566 243e 199f 4c3e
00000310: b9e8 4e3e f322 0c3e b9a8 4b3e 7021 31be
00000320: 887b 82bc 77de 263e 478e 2f3b 9078 2a3e
00000330: 785b 0e3d 8707 5b3d 98e5 26be 1bd2 52be
00000340: 9427 f63d a835 3fbc bba3 d5bd 0886 45be
00000350: eed3 08be e23e 243e 5365 68bd fe33 593e
00000360: 359c 41be 730f 963d 4794 22bd 70c9 bd3d
00000370: fe31 19bd d694 33be 23b3 d4bc 2f96 acbd
00000380: df4d 6a3d fffc 4cbe 6f3d 1a3e 508b 1b3e
00000390: c703 56be 8f8f 11be 48bf 19be 1c83 263d
000003a0: 5e4f 5c3e 6780 53be 52f0 1d3e 0ecd 43bd
000003b0: e317 f3bd 9c51 d93d 53bf bfbc 1c8a 083e
000003c0: c873 efbd 0adb 02b9 cea2 d03d fe84 d1bd
000003d0: e60f da3b 285d 47bd 5bdf 14be ac69 5ebe
000003e0: 1530 ac3c d46b 03bd 6dde 413e 7e23 9e3d
000003f0: 5f8f aa3d 107f ac3d f6a4 adbd d892 8bbd
-0.20569958 -0.15389459 -0.12873004 0.03572817 -0.11926791 0.094594754 0.14951088 -0.11530649
0.08826648 0.09095825 0.04702353 -0.17669547 0.072899096 0.15624534 0.18822066 -0.028591726
-0.101513185 -0.18169199 0.06439618 0.16291246 0.055247005 0.17779016 0.11209595 0.14960437
0.089282915 -0.10711459 -0.101156525 -0.052610062 -0.05766619 -0.10318576 -0.21787147 0.20302302
-0.13208461 -0.08371359 0.06894843 -0.16961457 -0.06866934 -0.12953098 -0.19206595 -0.18256555
0.17147413 0.0004861951 0.064858384 -0.15107352 0.20677109 -0.18635902 0.0031537518 0.12824994
-0.00046315597 0.009333859 0.14004575 -0.1279879 -0.20463952 0.18497409 0.16210154 -0.17533083
0.09441271 0.19554864 -0.013358325 0.14857276 -0.19269618 0.18525328 0.16536969 0.101920746
-0.025365654 0.000875691 0.13720526 -0.03043674 0.21553642 -0.17170478 -0.17186508 -0.15214077
0.06943958 0.087217994 -0.19025248 -0.13106818 -0.13855566 -0.11060108 -0.043275595 -0.047633976
-0.19651566 -0.12735271 0.2112721 -0.170216 0.12290922 0.18228242 -0.01591533 0.04223043
0.19253823 -0.15063427 -0.12945363 -0.028320158 0.17904378 0.1408903 0.18426031 0.1505659
-0.1797991 0.13168208 -0.06485617 -0.06371954 -0.06791857 -0.043133494 -0.15149042 -0.20122896
-0.17174318 0.0027262291 -0.018384557 0.08508023 0.07520865 0.15360747 -0.12273941 -0.09986319
0.10196907 -0.107074395 0.10079684 0.13072951 -0.15610869 -0.09717142 -0.15819134 -0.11089001
0.14462832 0.16352023 -0.084317304 -0.12568554 -0.026390046 0.16547431 -0.08702486 -0.09751102
0.12968282 0.20476773 -0.11317339 -0.12023077 -0.1826572 -0.08018466 0.08653928 -0.14509152
0.19933833 0.16477689 0.047834724 -0.13555084 0.11074221 0.06746733 -0.15823044 -0.19751808
-0.0037134676 -0.1618049 -0.1655113 -0.07817474 0.17422956 -0.088290244 0.17582934 0.16098918
0.09167962 -0.09517848 0.18890038 0.07087459 -0.1790385 -0.1176457 -0.06419504 0.1273075
-0.13895209 0.026384365 -0.19771712 -0.1718778 -0.08595097 -0.06127446 -0.15256101 0.15743284
-0.09194427 -0.10359388 0.07901702 -0.007364784 0.21826851 0.10483381 -0.16504166 0.059980474
0.027279722 0.023499394 0.14949895 -0.12893035 -0.0090316385 0.06846983 0.024689479 0.02192691
-0.056599587 0.07627791 0.20680797 -0.21447779 -0.21926337 -0.07662662 0.19776064 0.16998811
0.02151842 -0.007076978 0.16054685 0.19982566 0.20205964 0.13685207 0.19888581 -0.17297912
-0.015928045 0.16295801 0.0026787685 0.16647553 0.0347552 0.053473976 -0.1629852 -0.20587961
0.12019268 -0.0116705075 -0.1043162 -0.1928941 -0.13362095 0.16039613 -0.056737255 0.2121124
-0.18907245 0.073271655 -0.03969219 0.09266937 -0.037401192 -0.17537245 -0.025964325 -0.08427083
0.05720317 -0.20018385 0.15062498 0.15189862 -0.20899878 -0.1421492 -0.15014374 0.04065238
0.21514651 -0.2065445 0.15423706 -0.047802977 -0.118697904 0.10611269 -0.02340666 0.13333935
-0.116920054 -0.00012479365 0.101873025 -0.10230444 0.0066547273 -0.048672825 -0.14538328 -0.21719998
0.021019021 -0.032085255 0.18932505 0.07721613 0.08328127 0.08422673 -0.084787294 -0.068151176

actor.2.weight f4 [256, 256]
00000000: 1584 063d c28a cb3c c412 903b 0f3a 333d
00000010: 0373 0d3d 4960 0a3d 0081 01bb 2051 40bd
00000020: f7f1 14bd 1c61 bcbc 4b69 3b3d 305e 743c
00000030: ff05 74bc 7ece a4bc b00c c53c 604b d9bc
00000040: a916 fb3c 7a69 003d cd53 5cbb 07cb 20bd
00000050: d005 d33b 50be 1cbd 7c7a 0bbd 636c 0d3d
00000060: 5c60 d0bc 54a0 393d ca03 6a3d 345b 433d
00000070: baa9 49bd 7beb 0e3d e040 97bc 998e 6bbc
00000080: 3120 8439 1872 423d 70ab 6abc 1c01 163d
00000090: 0cc1 93b9 1e2d 0f3d 2de6 a03c fc93 923c
000000a0: 3328 6b3d a08c 183c 9aac 65bd 36fd 173b
000000b0: 406f cc3c 76af 9e3b 01b2 e4bc 7780 ce3c
000000c0: da37 273d 5d55 c43c 40b4 e6bb 8af3 d0bb
000000d0: fe7b 3c3d c54c 1d3d 1835 fd3a 94fa ecbc
000000e0: 9aff 0dbb db82 a5bc dc66 2b3d 664c 213c
000000f0: 43bb 61bd ff1c 7abd 3872 1bbd ccb4 debc
00000100: 00d4 77bd 95a9 993c 236a 053d f892 debc
00000110: 5b84 65bd 405a d2bc bfdd cf3b 96df f2bc
00000120: f7e0 683c 5e34 83bd b8b0 703c 9338 5abb
00000130: d855 6b3d 23c3 583d 4a31 13bd ef2f 003d
00000140: 98dd 2e3c d256 67bd 8b86 0b3d 9edd 1e3d
00000150: b806 13bd e9d1 673d 334e eabb 083a 8fbc
00000160: cc07 0d3d fa14 31bd 7954 30bb 3dde 363d
00000170: 43c6 9c3c 86ab 6fbd f147 193c f0ea df3c
00000180: 00fa 08bd d29b 343d c9cf 1e3d fb65 53bd
00000190: 80b3 19bc e519 653d 6e3b db3c 04b6 143d
000001a0: 0144 caba 50ce 15bd d055 45bc 250e aa3c
000001b0: 7473 df3c 207f 5e3d 2012 9f3c 1470 e33b
000001c0: 29b2 c73c d052 f23b d4d5 a9bc b80d 4d3c
000001d0: 160d 7bbd 350a 78bc 60d1 5a3d 68ab 123c
000001e0: 80d5 ecbc 1291 2e3d 7972 2dbd 2c78 993b
000001f0: c8f6 e33c 34ac 053d 1024 633c 1f19 593d
00000200: 4db5 3cbd dd60 763d 16aa 913c 786e 6bbc
00000210: b4bf de3c 5a83 b4bc d3eb 0ebd 3dd0 4a3d
00000220: 48cb 593d 26b9 3ebd 2016 a23b a733 443c
00000230: 88b2 0cbd cc88 5fbd 501d f53b 92f6 ea3c
00000240: b081 fe3b 7d38 60bd 086b 163d 8877 8cbc
00000250: 5af4 7fbc c40a 4e3d 33a8 74bd 4004 373d
00000260: 9235 babc da2e 1c3d d04f 4d3d d35b 5d3d
00000270: b03f e93c be8b 4abd 0634 5e3d 654c 59bd
00000280: c507 2d3c d25a 0a3d fa7f 5abb 85c3 cabc
00000290: bc1a dfbb 86bc f93c c28b 5b3d 46a9 afbb
000002a0: 127b 613b f4f4 273d be26 453c c529 5fbd
000002b0: 0a11 11bd 203d 12bc f02c ad3b 9897 1abd
000002c0: d18d b33c 0489 55bd 8c34 7cbd 28cd 07bd
000002d0: 88a6 293d 494b 4dbd e542 503c e833 203d
000002e0: f00e a3bb 1203 7f3a 4684 313d a0ea 7bbd
000002f0: 976c 70bd be26 163d d658 1abd 054a 4d3d
00000300: 285e 66bd 2dde 21bd e66f a6bc 24eb 05bd
00000310: 1010 cf3b 8488 77bd 7acc 28bd 3501 de3c
00000320: 51da b93b b52e d0bb 1cc9 7d3d dbf6 49bd
00000330: d0ce 793d 9a56 24bd 15ca 22bc e401 b5bc
00000340: 65f0 2139 9b45 aebc ff2e f43b 03ab f43b
00000350: fe01 40bc 5199 3a3c 441d 543c 5698 633d
00000360: 1025 a53c 2bad 0b3d 6b9a d5bc 8d31 ebbc
00000370: d191 2abc 0a7e 2e3d 88a3 e3bc c2c4 23bc
00000380: b032 e1bb edb0 063d 7834 403c 84e3 bcbc
00000390: 6e5d 3dbd d684 33bd 984a 403c 8e07 223d
000003a0: 885a 203d 7c62 26bd 117f 7d3b 79f9 563c
000003b0: 7ef2 26bd 2821 abbb 48db 823c c950 0bbd
000003c0: 79cc 423d 7dfa 42bd 7016 f23c 9026 053d
000003d0: dc4b ec3c 70fb d63c 6213 4fbd 4872 bbbc
000003e0: fab6 ca3c cd9b de3b f178 dfb9 f665 80bd
000003f0: 7878 40bc 9170 eebc d0b8 73bd 55d8 30bd
0.032840807 0.024846438 0.0043967683 0.04375654 0.03453351 0.03378323 -0.0019760728 -0.046952367
-0.03636357 -0.022995524 0.045754712 0.014915034 -0.014894008 -0.020117994 0.024053901 -0.0265252
0.030650454 0.03135059 -0.0033619285 -0.039256122 0.006439902 -0.038267434 -0.034052357 0.034527194
-0.025436573 0.045318916 0.05713252 0.0476944 -0.04923413 0.03489254 -0.018463552 -0.01437726
0.00025200986 0.04747209 -0.0143231 0.03662215 -0.00028181856 0.034955136 0.019641006 0.01789283
0.057411384 0.009310871 -0.05607281 0.0023191697 0.024955392 0.004842694 -0.02791691 0.025207741
0.04082475 0.023966486 -0.0070405304 -0.0063766884 0.046016686 0.03840329 0.0019318191 -0.028928079
-0.0021667243 -0.020203998 0.04184614 0.009844875 -0.055110227 -0.06106281 -0.037950724 -0.02718582
-0.060504913 0.01875762 0.032571923 -0.02716969 -0.056034427 -0.0256778 0.006343573 -0.02964763
0.014213792 -0.064064726 0.0146905705 -0.003329788 0.057454914 0.052920472 -0.035935678 0.031295713
0.010672949 -0.056479283 0.034063857 0.03878557 -0.03589508 0.05659667 -0.0071504354 -0.017483726
0.034431264 -0.043232895 -0.0026905818 0.044645537 0.019137507 -0.058513187 0.009355531 0.027333707
-0.033441544 0.044093914 0.038772378 -0.051610928 -0.009381175 0.055932898 0.026761737 0.036306396
-0.0015431644 -0.036573708 -0.012044385 0.020758698 0.027276732 0.054320455 0.019417822 0.006940851
0.024376946 0.007395126 -0.020731844 0.012515478 -0.061291777 -0.015139152 0.05342233 0.008951999
-0.028910398 0.04261882 -0.042345498 0.004683515 0.027827635 0.03263493 0.013863578 0.053002473
-0.04607134 0.06015097 0.017781299 -0.0143695995 0.02719102 -0.02203529 -0.03489287 0.049514998
0.05317238 -0.04656329 0.004946485 0.0119752055 -0.03434995 -0.05457382 0.007480301 0.028682027
0.007766925 -0.05474137 0.036723167 -0.01714684 -0.015622223 0.050303236 -0.05973072 0.044681787
-0.022730622 0.03813062 0.050124943 0.05404265 0.028472751 -0.049449675 0.054248832 -0.05305137
0.010560934 0.03377802 -0.003334044 -0.024751434 -0.006808607 0.030485403 0.05360008 -0.005360755
0.003440563 0.04100509 0.012033163 -0.054483194 -0.03541664 -0.008925706 0.005284898 -0.037742227
0.02191821 -0.05213262 -0.06157355 -0.033154637 0.041418582 -0.050120626 0.012711261 0.039112
-0.004976146 0.00097279355 0.043339036 -0.061503053 -0.05869731 0.03665804 -0.037682377 0.05011942
-0.05624214 -0.039518524 -0.02031703 -0.03269495 0.0063190535 -0.060432926 -0.04121063 0.027100185
0.0056717773 -0.006353224 0.06195937 -0.049307685 0.060988247 -0.040121652 -0.009935875 -0.022095628
0.0001544371 -0.021273425 0.0074518914 0.0074666752 -0.011719225 0.011389093 0.012946431 0.0555652
0.020159274 0.034100693 -0.026074609 -0.028710151 -0.010410742 0.04260067 -0.027787939 -0.009995641
-0.0068724975 0.032883573 0.0117312595 -0.023057707 -0.04623168 -0.043827854 0.011736535 0.039557986
0.039148837 -0.040621266 0.0038680474 0.013121002 -0.040758602 -0.0052224584 0.015973702 -0.03401259
0.04755828 -0.047602165 0.029551715 0.03250748 0.028844766 0.026242942 -0.050555594 -0.022881642
0.024745453 0.0067934752 -0.00042623983 -0.062694475 -0.011747472 -0.02910641 -0.059502423 -0.04317506

actor.2.bias f4 [256]
00000000: 7e07 e9ba 7680 24bd 1c0f 703d d06d 6d3c
00000010: f904 3e3d e3c7 81bd c0b1 69bc d72b e23c
00000020: 50f4 c6bc e2b1 0dbd 4f41 133d a27f 55bd
00000030: cb98 c93c d368 87bc e251 dbbc 4435 563c
00000040: 1369 e8ba 6b3d 6bbd df3d b03c 371d 3ebd
00000050: a468 75bc 1948 4fbd 663c 20bd 5660 82bc
00000060: 1e9d 273b aa92 e6bc 7aa0 80bd 44f5 93bc
00000070: b3b1 69bd cef1 103c c07e 543d 0879 08bb
00000080: 00a5 1d3d 6273 0e3d 1656 72bd 8224 44bd
00000090: c49a f8bc 87d4 cc3c 1f41 303c fbf7 0c3d
000000a0: 5d6e 23bd 5c0d b33c 3773 51bd 60c8 75bd
000000b0: 160c 583d 9109 d6bc 1079 16bd d51c cbbc
000000c0: a901 a9bc a0ab 483d 77f4 ffbb cd9a 333d
000000d0: 5807 663d a1ef 80bd 01cb 423d 43cd 97bc
000000e0: 2426 1cbd 6cf3 4bbd 773c 503d 58f0 1ebd
000000f0: 887c 463b 00c5 07bd 94e2 70bd cc9c 983c
00000100: d5c8 4f3d 50b7 87bc c2b6 46bd a7e9 233d
00000110: e177 253d cc58 253d c3a5 18bd a84b 34bd
00000120: ca73 6b3c e28a e0bb 6a81 3bbd 7818 b7bb
00000130: 00ca 7cbc 397a 543d 342a 193d cf82 37bd
00000140: 036a f5bc 5802 2a3d 7026 27bc 40b3 e73a
00000150: ccdf 50bc c02b 183d 10d3 9abc 15fe 2cbd
00000160: 6d35 693d 06c2 a23c c3a9 46ba 157b 27ba
00000170: 293a c53c d0d9 2bbd 9a6e 6ebd d854 4a3d
00000180: be52 af3c 0082 aeba 4c40 2d3d 913b 403d
00000190: 4509 2fbd 146c 13bd 3878 83bd 878f 693d
000001a0: 48e3 683c 7cf5 12bd 23ec 2bbc aa03 d03c
000001b0: 3c15 d43c 80cd 133d ee0a 48bd e789 4d3d
000001c0: 8fd1 50bd 1dff 3f3d 8062 82bc 2957 463d
000001d0: 63c5 623c 0069 3a3c 240f 6f3d 5550 9f3c
000001e0: c3cd 113d ff58 1cbc a7df 233d d0ff dfbc
000001f0: a033 923b be3e 0c3d ddaa b53c 7623 1c3d
00000200: dc81 f1bc 58bd feba 2f47 68bd 4cb4 073d
00000210: 84b8 84bc 89d7 eebc c684 28bd 7e38 423d
00000220: a4da 753d b797 69bd 0ef4 5bbc 482b 09bd
00000230: 0b33 ec3b 653b 633c eb26 81bd 37c2 0d3d
00000240: 9905 47bd 8c71 0c3d 6f89 cb3c 123a e6bc
00000250: 50b1 dd3b 4bff 463c 4a78 06bc 471c 0dbd
00000260: 5ad5 3cbd d6a7 e1bc 941e 6bbb 1678 71bc
00000270: e946 793d 0f45 e3bc 2988 fb3b b069 01bd
00000280: 25c0 d7bc 0b21 5abd 869e 10bc 2572 2dbd
00000290: e60a d23c 70af 253d a1d9 fb3c bf7d c1bc
000002a0: c643 04bd cd32 0a3d 313c 783c d13a 3d3d
000002b0: 74f6 70bd 34b5 463d a50a 5abc 2d36 d43c
000002c0: cbb5 60bd 9ccb 67bd a432 57bd 8b65 723d
000002d0: a4b4 bc3c 1c2b 93bc 16b5 6a3d 71e5 4a3d
000002e0: 52b5 173c ce96 6f3d 53a8 273b 8a6d 103d
000002f0: ca44 39bd 4391 b93c b455 153d 277c d03b
00000300: 6b2d 80bc 0006 deba ecaa 00bc 5c01 5b3d
00000310: 2095 1dbc eccf bfbc f8f4 6ebc fc30 b33c
00000320: 2346 56bb 767d 0d3d 71f9 d3ba fe50 1d3d
00000330: 7bfc 5e3d 4d12 18bd b833 5ebd 9e51 79bd
00000340: b7fa 113d 856f f03b fd63 88bc f896 f43b
00000350: 260c 613d 4f88 c5bb de8f 25bd 3f31 a939
00000360: fa3e 0ebd 0b76 8fbc 1eb3 6dbd ac61 12bd
00000370: 147a 00bd 2caa cdbc e2ce 6ebd 9894 8a3c
00000380: 5b65 4bbd 190b 3dbd b1d9 593d fd20 1cbd
00000390: 9cd3 23bd b7c7 f7bb 0e12 6a3d b284 3abd
000003a0: 385f 513d b122 dbbc 165e ad3c 802e bebc
000003b0: 3758 8e3c dc00 b43c 05e6 b93a 36a9 543d
000003c0: c6c4 3bbd d926 71bd c3c0 21bd 3858 b53c
000003d0: 166e 083d 82ac ed3b 0346 0d3d eabc 0fbd
000003e0: 5ea5 3b3d 23d3 863c db0f a3bc 3644 c9bc
000003f0: ac35 ef3b e0ff a0bc 6395 d5bc 0301 d5bb
-0.0017778722 -0.040161572 0.05860816 0.014491513 0.04639146 -0.063369535 -0.01426357 0.027608795
-0.02428642 -0.03459347 0.035950955 -0.052123673 0.02460899 -0.016529476 -0.026772443 0.013074223
-0.001773151 -0.05743162 0.021513877 -0.04641458 -0.014978562 -0.050605867 -0.0391201 -0.015915077
0.0025575827 -0.028146107 -0.062806085 -0.018061288 -0.057054233 0.008846713 0.05187869 -0.0020824093
0.038487434 0.034778006 -0.05916413 -0.04788638 -0.030347236 0.025003685 0.010757714 0.03441618
-0.039900173 0.021856956 -0.051135268 -0.060005546 0.0527459 -0.026127608 -0.036736548 -0.024794022
-0.020630674 0.0489918 -0.007811125 0.0438488 0.056159347 -0.062957056 0.04755688 -0.018530494
-0.03812231 -0.049792692 0.050838914 -0.03880343 0.0030286629 -0.03314686 -0.05880983 0.018629454
0.050728638 -0.016566902 -0.048514135 0.04001775 0.04039753 0.040367886 -0.037267458 -0.044017464
0.014370868 -0.0068524936 -0.045777716 -0.0055876337 -0.01542902 0.051874373 0.037393764 -0.044802483
-0.029957777 0.04150614 -0.010202035 0.0017677322 -0.01274867 0.0371511 -0.01889947 -0.0422345
0.056935716 0.019867908 -0.0007578397 -0.0006388885 0.024075584 -0.04195577 -0.058210947 0.04939732
0.02140176 -0.001331389 0.042297646 0.046931807 -0.04273345 -0.035991743 -0.06419414 0.057021644
0.014214344 -0.035878643 -0.010493311 0.025392372 0.025889032 0.036084652 -0.04883855 0.050180342
-0.0509811 0.046874154 -0.01591611 0.048422966 0.013841006 0.011377573 0.05836405 0.019447485
0.03559662 -0.009542703 0.040008213 -0.02734366 0.0044617206 0.034239523 0.0221762 0.038119756
-0.029480867 -0.0019435091 -0.05670851 0.03313093 -0.016201265 -0.02915551 -0.041142248 0.047417156
0.060022965 -0.057029452 -0.013424886 -0.03348854 0.0072082332 0.013869141 -0.06306251 0.034609046
-0.048589323 0.034287974 0.024845807 -0.028103862 0.006765522 0.0121458275 -0.00820739 -0.034450796
-0.046101905 -0.02754585 -0.003587638 -0.014738103 0.06085864 -0.02774289 0.0076761437 -0.031594932
-0.026336739 -0.05325417 -0.008826857 -0.042345185 0.025639962 0.040450513 0.030743422 -0.02361953
-0.032291196 0.033739854 0.0151510695 0.04619867 -0.058828786 0.048512653 -0.013308202 0.02590474
-0.05486087 -0.05659066 -0.05253853 0.05917887 0.023035355 -0.017964892 0.057301603 0.04953522
0.009259539 0.058493428 0.0025582507 0.035260715 -0.045231618 0.022652274 0.036458686 0.0063624564
-0.015646657 -0.0016939044 -0.007853251 0.053468093 -0.009618074 -0.023414575 -0.014584772 0.021873944
-0.0032695613 0.034543477 -0.0016172362 0.03840732 0.054440003 -0.037126828 -0.05424854 -0.06086885
0.03563949 0.007337513 -0.01664924 0.007464286 0.054943226 -0.006028212 -0.040420406 0.00032270883
-0.034728028 -0.017512342 -0.058032148 -0.03573768 -0.031366423 -0.025105558 -0.058302768 0.016916558
-0.049657207 -0.04615316 0.053186122 -0.038117398 -0.03999673 -0.0075616497 0.057146125 -0.045536704
0.0511162 -0.02674994 0.021163028 -0.023215532 0.017376048 0.021973066 0.0014182931 0.051919185
-0.045841955 -0.05887494 -0.039490473 0.022136793 0.03330811 0.0072532305 0.034490597 -0.035092272
0.045812003 0.0164581 -0.019905021 -0.024568658 0.0073000994 -0.01965326 -0.02607221 -0.0065003647

actor.4.weight f4 [6, 256]
00000000: c30e d8bc a45e 8c3c e3ff 04bc 8026 03bb
00000010: 6acc 68bd aebd 78bd d8ab 2b3d eaae d43c
00000020: a02e 4b3d f827 94bc b146 d1bc eceb b9bc
00000030: e640 3a3d 9c7c a5bc 5230 533d 4f2c e53c
00000040: dc54 273d 9c2a 91bc 6165 cd3c 3e28 1c3d
00000050: 0597 4d3d 35f6 353d 6df5 d439 88d9 f7bc
00000060: ca33 c73c 4cbd 48bd 5e9a a53c b809 023c
00000070: 13ec 023d 1142 2cbd d946 833d 7a29 5c3a
00000080: 1afc 83bc ee8b 46bc 8959 453d 0ab5 20bd
00000090: 0461 c9bb a6b4 5fbd 4f48 523c 1591 38bd
000000a0: df49 7cbd 109e 71bc bf59 74bd 917c d2bc
000000b0: 08c0 cd3c 6ac1 aabc 568e 0c3d 6bbb a53c
000000c0: 65cc b3bc 135d efbc 56e5 4abd 9014 283c
000000d0: 4d8d 4e3d 0c00 ef39 c45f 153d 692a 363d
000000e0: c86d d2bc a7b5 b13c 729a 83bb fb7a 4ebd
000000f0: db92 123d 2fc0 aabc 4667 ef3c 6efe 693d
00000100: 38d1 02bd 0081 65ba 1f80 63bd 6ace 5c3c
00000110: be9e 87bc 527a 17bd 95d7 5ebd e4c4 8cbc
00000120: 9ca8 8b38 1d84 c3bc 84ab 993c 9f96 c8bc
00000130: c812 163d 7f0f 8fbc 00ed 51bc 8a5d 873b
00000140: 3342 1b3c 0613 233a 3eb3 76bd a83a 69bd
00000150: 6125 833d bfb2 75bd 6290 393d 4ddb 583d
00000160: 9514 30bd 436a 5e3d d444 473d ad1b 1fbd
00000170: 17f0 1dbd 43bd 61bc 1a9b d1ba d797 10bd
00000180: b561 bbbc f6dd 313d 370d 44bd a349 2bbd
00000190: fa5a 003d 9b50 6a3d c291 7f3d 339a 2cbd
000001a0: 5c41 103d a2cb 6a3d 98c0 8d3c c022 20bd
000001b0: e3c4 7d3d ba95 583c 36df 6a3d 87e9 8dbc
000001c0: 70be 55bd 176e 2abd d2db f8bb a0f5 15bc
000001d0: 19c2 143d def5 683d 8cc6 6a3d 5dd5 96bc
000001e0: 77ed 713d 6d26 1b3b 3337 843d 222f 543d
000001f0: 94aa 3fbd f454 6b3d 96bf 133d 14bb acbc
00000200: b4f3 223c 945a 113c 7892 433c c779 44bd
00000210: b154 67bd 7032 4fbd e003 59bd 7ad6 433a
00000220: 6069 cabc 1c93 b13c ef37 55bd 53d0 2d3d
00000230: db7d 89bc a8a4 0cbd 9021 c03c 6943 31bd
00000240: e82b 223c c39e 5b3d e10a 59bd 1b9a bdbb
00000250: 9425 13bd c18a 30bd 9b75 283a 2107 4a3d
00000260: c0bf 2e3c 08b3 2e3d 7188 623b 941b f53b
00000270: 656e 883a 9e60 2bbd 232b 893c 7a63 eb3c
00000280: 9302 dabc fa99 1ebd 2275 1b3d df07 413c
00000290: e5d7 e1bc 84a3 16bd e1f1 56bd 88e9 4439
000002a0: 90da 303b 5678 aebb b107 1abc eac4 233d
000002b0: a608 2d3d 5c5f c33c 25d7 023d f945 1b3d
000002c0: 3581 233d 85dd 47bc 255d 363d 3817 4c3d
000002d0: 3bd8 53bd 8c19 363d be53 4c3d 45a9 cdbc
000002e0: 3155 57bd a44b 123c 8789 5ebd 3e3f 713d
000002f0: b290 153d 1a1f 22bc e46e a3bc 9b8a 133d
00000300: 65a8 d3bc 88b0 f03c 10b0 f73c 5608 323d
00000310: 3375 593b 3700 00bd 1ad7 613d 4025 77bd
00000320: c0ca a7bc e7b3 6c3d 7cdb 07bd f2f7 ac3c
00000330: bf40 e63b 5d2c 23bd 68a0 283d 8485 a3bc
00000340: 77e7 38bb f1fe 033d f705 44bd 0891 673d
00000350: 38a7 c03c b3db 663d d49b 8dbc defb 0e3d
00000360: 515b 5b3d 15a2 64bd 5437 633d 3813 8b3c
00000370: 1653 343d c01b 443d 2248 38bd de18 23bd
00000380: 8bae 203d 8986 123d b781 3dbd 464d 87bb
00000390: d145 2c3d 1763 f0bc 17a5 693d 59cc 1f3c
000003a0: 343a 56bd cf5b 023c 0430 cf3c e0f3 b03c
000003b0: b6c3 82bc f7c9 793c 41c0 4abc 6425 52bd
000003c0: d27a 743c b80b 493d aa10 483d b9d9 703d
000003d0: cc8d 8cbc 0a4a 6b3d b681 2bbc 7c35 2c3d
000003e0: b0cf d03c f418 413d de2f 0b3c 4292 2c3d
000003f0: 0b42 7d3b 0052 e5bb 2422 673d cbf9 27bd
-0.026374226 0.017134972 -0.008117649 -0.0020011961 -0.05683557 -0.060727768 0.04191193 0.025962312
0.049605012 -0.018085465 -0.025546404 -0.022695504 0.04547205 -0.02020102 0.051559754 0.02797523
0.040852413 -0.017720513 0.025072755 0.038124315 0.05019285 0.044424254 0.00040618647 -0.030255094
0.024316687 -0.049008653 0.02021521 0.007936887 0.03196342 -0.042055193 0.064099975 0.00083985145
-0.016111422 -0.012118323 0.04818109 -0.039235152 -0.0061455984 -0.05461564 0.0128346225 -0.045060236
-0.061593886 -0.014747158 -0.0596559 -0.025694164 0.025115982 -0.02084418 0.03431543 0.02023097
-0.021948049 -0.029219186 -0.049535118 0.010258809 0.050427724 0.00045585667 0.036468282 0.04447404
-0.025687113 0.021693064 -0.004016214 -0.050410252 0.035784584 -0.020843593 0.02922405 0.05712741
-0.031937808 -0.0008754879 -0.055542108 0.013476947 -0.016555186 -0.036981888 -0.054404814 -0.017183729
6.6594424e-05 -0.023866707 0.018758543 -0.024485884 0.036639005 -0.017463444 -0.012812853 0.004131024
0.009476232 0.0006220791 -0.060229532 -0.056940705 0.06403614 -0.05998492 0.04530371 0.052943517
-0.04298838 0.054300558 0.048649624 -0.038844753 -0.038559046 -0.013778034 -0.0015991658 -0.035301056
-0.022873739 0.04342457 -0.047864165 -0.041818272 0.031336762 0.057205778 0.062394865 -0.042139243
0.03521858 0.057323106 0.01730375 -0.03909564 0.061955344 0.013219291 0.057341777 -0.017323269
-0.05218357 -0.041608896 -0.007594564 -0.0091528 0.03631792 0.056875102 0.057318255 -0.018412286
0.059064355 0.0023674027 0.06455841 0.05180276 -0.046793535 0.057454064 0.036071382 -0.0210853
0.009945799 0.008871693 0.011936776 -0.0479677 -0.056477252 -0.05058521 -0.05298221 0.0007470619
-0.02470845 0.021676593 -0.052055296 0.042435 -0.016783645 -0.034336716 0.023453504 -0.043277178
0.009898163 0.053618204 -0.05298889 -0.005786193 -0.03592451 -0.043101076 0.0006426216 0.049323205
0.010665834 0.042651206 0.0034566189 0.007480094 0.0010408877 -0.04184019 0.016744202 0.028733958
-0.026612556 -0.038721062 0.037953503 0.011781662 -0.027568767 -0.036777034 -0.052476767 0.00018779014
0.0026985742 -0.0053244038 -0.009401248 0.039982714 0.042244576 0.023849182 0.03194346 0.037908528
0.039918143 -0.01219881 0.044522423 0.04982683 -0.051719885 0.044457957 0.04988455 -0.025105128
-0.05257148 0.008929167 -0.054330375 0.058898203 0.036514945 -0.0098951105 -0.019950338 0.036020856
-0.025837133 0.029381052 0.03023532 0.04346498 0.0033181428 -0.031250205 0.055136777 -0.06033826
-0.02048242 0.057788756 -0.0331683 0.021114323 0.0070267613 -0.03983723 0.0411686 -0.019961126
-0.0028214136 0.032225553 -0.04785725 0.056534797 0.023517236 0.056361865 -0.017286219 0.034908168
0.053553883 -0.055818636 0.055472687 0.016976938 0.04402455 0.047878027 -0.044990666 -0.039818637
0.039228957 0.035772834 -0.046266284 -0.0041290848 0.04205877 -0.029344125 0.057042208 0.00975331
-0.0523016 0.007956459 0.02529145 0.021600664 -0.015962463 0.015245906 -0.012374938 -0.05130519
0.014921861 0.04908344 0.048844017 0.058801387 -0.017157458 0.057443656 -0.010467937 0.042043194
0.025489658 0.047142938 0.008495299 0.04213167 0.00386441 -0.0069983006 0.056429043 -0.041009706

actor.4.bias f4 [6]
00000000: 32ff 4d3d b073 57bd a161 783d a91c edbc
00000010: c761 2c3d 025c 6abd
0.0502922 -0.052600563 0.06063998 -0.02894433 0.042085435 -0.05721665
