RL_algorithms/Torch/PPO/models/space_robot_critic.pt (torch, 288663 bytes, 5 tensors)

critic.0.weight f4 [256, 21]
-0.026955143 -0.093227305 -0.2042385 -0.19359444 -0.1821465 -0.02923593 0.20485525 -0.054310545
-0.13633592 0.036273792 0.12983777 -0.15030843 -0.038042992 -0.025152624 0.102126285 0.19197823
0.16010894 -0.02019462 -0.16381878 0.16862448 -0.21781169 -0.17264652 0.17568474 -0.10299582
-0.086994514 0.022511022 0.021153688 -0.07857715 -0.12649745 0.19654681 -0.14999445 -0.09348238
0.09806592 -0.27937266 0.0696141 -0.2601883 -0.17995152 0.1559494 0.106776424 0.14475904
0.069920875 -0.03466701 -0.11127037 -0.07081334 -0.18146099 0.14554994 0.11026387 -0.08545579
-0.0029621422 0.09360336 -0.15532109 -0.13625535 0.15129079 -0.04647018 -0.11138116 0.14885561
-0.1909121 -0.1080637 -0.03846751 0.13313283 0.035700962 0.12993293 -0.16591945 -0.18054865
-0.07872459 -0.14897877 0.16002676 -0.04245481 -0.005720706 0.092989795 0.16574553 0.06482843
-0.026238775 0.16041847 0.09544806 -0.1831886 0.19763842 0.11327413 -0.16890919 -0.14811242
-0.1224182 0.078988925 0.103522204 -0.19387315 -0.04397619 -0.15780064 0.09459116 0.06568851
0.050438914 -0.15889382 0.06596078 0.09559412 -0.13235496 -0.2517403 -0.118535794 0.030143686
-0.122428395 -0.019742398 -0.08305344 0.06860504 0.11797685 0.00663227 -0.00012845661 -0.027209185
0.13593069 0.052074924 0.016263992 -0.20748775 -0.214543 0.03930451 -0.2002361 -0.11343157
0.021740243 0.10686846 -0.15512627 0.04547657 -0.055072308 0.033474877 0.17038678 -0.046994895
-0.12581657 -0.040135533 0.21502031 -0.010791749 -0.07516992 -0.06837362 -0.09647903 -0.15527014
0.006998782 -0.19949374 0.09983863 0.020998687 0.16976643 0.20623197 0.18384396 -0.09104148
0.027339589 -0.10057048 -0.07838562 0.034053802 -0.17384219 0.14524545 -0.1418599 0.05124099
-0.024877101 0.108088784 0.16430487 0.09931528 -0.03575819 -0.021162292 0.05215811 0.03296796
0.024657885 -0.0244513 0.050519414 -0.17484458 0.23328076 0.09110747 -0.10470973 -0.19785811
-0.06788518 -0.079030804 0.098949745 -0.013937373 0.21303771 -0.054132998 -0.09084435 0.042152036
0.023672368 -0.00036174763 0.14165904 0.19335952 0.24542661 -0.042868804 -0.10192933 -0.098180264
-0.08222293 0.027765412 0.008259629 0.088578016 0.1769334 0.13915631 -0.024042878 0.13609043
-0.083058536 -0.099400885 -0.105573975 0.0077293194 -0.07725505 0.14231534 -0.1456119 0.123367764
-0.002617962 -0.24381685 0.110145904 0.20294124 0.12317688 0.13588025 -0.09948094 0.12325177
-0.1462414 -0.10188748 0.07215888 -0.16452748 -0.105082415 0.20029141 -0.07356028 0.10351369
-0.17758541 -0.029811408 -0.0413628 -0.032744005 0.18624105 -0.08599308 -0.23962036 0.02721348
0.2213285 0.13230823 -0.0023944785 -0.11335919 0.12181342 -0.04975396 -0.11959707 0.004541945
-0.20231919 -0.042791314 -0.14555463 0.037251428 -0.06942343 -0.11307006 0.12317549 -0.22895017
-0.05564045 0.0009909894 -0.2155102 -0.1166127 -0.03541943 -0.019321708 0.16561481 -0.13990787
-0.16535094 -0.22390932 0.1424785 0.17014147 -0.1624764 -0.034461945 -0.016400436 0.12243389
-0.20459864 0.12232188 0.110868804 -0.043602493 0.16441864 0.2423349 -0.17954686 -0.23380548
00000000: 08d1 dcbc f5ed bebd e623 51be 9f3d 46be
00000010: 9d84 3abe 3080 efbc 93c5 513e bc74 5ebd
00000020: a59b 0bbe d493 143d 31f4 043e 74ea 19be
00000030: f8d2 1bbd e00c cebc 9627 d13d f195 443e
00000040: 99f3 233e 306f a5bc 1cc0 27be e5ab 2c3e
00000050: 070a 5fbe 40ca 30be b3e6 333e 79ef d2bd
00000060: 2e2a b2bd 0969 b83c 804a ad3c 0fed a0bd
00000070: 8c88 01be 9143 493e 2598 19be b173 bfbd
00000080: c9d6 c83d ef09 8fbe d691 8e3d 6737 85be
00000090: 3645 38be 33b1 1f3e 99ad da3d b73b 143e
000000a0: ad32 8f3d fffe 0dbd b8e1 e3bd 9606 91bd
000000b0: e9d0 39be 0b0b 153e 06d2 e13d 7203 afbd
000000c0: 8020 42bb 1eb3 bf3d 7e0c 1fbe 8686 0bbe
000000d0: f9eb 1a3e 8457 3ebd ce1b e4bd 9b6d 183e
000000e0: 767e 43be 8050 ddbd 1c90 1dbd f953 083e
000000f0: 2c3b 123d 230d 053e cae6 29be bfe1 38be
00000100: 5c3a a1bd e48d 18be 0ede 233e 18e5 2dbd
00000110: c374 bbbb 6f71 be3d 32b9 293e c5c4 843d
00000120: b3f2 d6bc bd44 243e 467a c33d cb95 3bbe
00000130: ba61 4a3e 44fc e73d 88f6 2cbe c8aa 17be
00000140: 65b6 fabd f2c4 a13d 7303 d43d af86 46be
00000150: 6120 34bd 7e96 21be 03b9 c13d b387 863d
00000160: 0999 4e3d 10b5 22be 7216 873d dac6 c33d
00000170: 0f88 07be 1be4 80be e5c2 f2bd e4ef f63c
00000180: bdbb fabd cfba a1bc ec17 aabd cd80 8c3d
00000190: d99d f13d 8353 d93b 4fb2 06b9 cce5 debc
000001a0: 6a31 0b3e 844c 553d 103c 853c ab77 54be
000001b0: 29b1 5bbe c4fd 203d b10a 4dbe d04e e8bd
000001c0: 9818 b23c dadd da3d 6cd9 1ebe a445 3a3d
000001d0: 8093 61bd f41c 093d df79 2e3e b87d 40bd
000001e0: 0fd6 00be 2865 24bd 492e 5c3e e0cf 30bc
000001f0: b0f2 99bd 7807 8cbd cc96 c5bd 23ff 1ebe
00000200: 0a56 e53b 1648 4cbe 3278 cc3d 7005 ac3c
00000210: 40d7 2d3e 792e 533e 9741 3c3e f573 babd
00000220: 46f7 df3c e5f7 cdbd a488 a0bd 007c 0b3d
00000230: b003 32be 39bb 143e b943 11be 13e2 513d
00000240: 10cb cbbc a75d dd3d 893f 283e cf65 cb3d
00000250: 2e77 12bd 8b5c adbc bea3 553d 6909 073d
00000260: 55ff c93c 184e c8bc 72ed 4e3d 750a 33be
00000270: 27e1 6e3e 8e96 ba3d 0e72 d6bd 519b 4abe
00000280: 6307 8bbd e7da a1bd 2aa6 ca3d 9459 64bc
00000290: 8f26 5a3e 90ba 5dbd 9a0c babd 9da7 2c3d
000002a0: 8eec c13c f2a8 bdb9 110f 113e 0a00 463e
000002b0: 1d51 7b3e 3397 2fbd 53c0 d0bd bc12 c9bd
000002c0: 7f64 a8bd 4a74 e33c 6553 073c 6468 b53d
000002d0: 072e 353e fe7e 0e3e 92f5 c4bc 4a5b 0b3e
000002e0: 981a aabd b192 cbbd 2b37 d8bd 3b46 fd3b
000002f0: e537 9ebd 1dbb 113e 491b 15be 3da8 fc3d
00000300: 1d92 2bbb 20ab 79be 2d94 e13d d4cf 4f3e
00000310: 2944 fc3d 3124 0b3e aabc cbbd 6d6b fc3d
00000320: 4ec0 15be 62aa d0bd 09c8 933d e479 28be
00000330: 7335 d7bd 3119 4d3e c6a6 96bd fcfe d33d
00000340: f3d8 35be 0e37 f4bc 0a6c 29bd 941e 06bd
00000350: f9b5 3e3e 241d b0bd 0a5f 75be ceee de3c
00000360: f0a3 623e cf7b 073e afec 1cbb dd28 e8bd
00000370: 5079 f93d cfca 4bbd 4fef f4bd 99d4 943b
00000380: c32c 4fbe f245 2fbd 460c 15be f494 183d
00000390: df2d 8ebd 4791 e7bd 6e43 fc3d ea71 6abe
000003a0: 3ee7 63bd 16e4 813a b5ae 5cbe a4d2 eebd
000003b0: f713 11bd 8f48 9ebc ee96 293e 0244 0fbe
000003c0: c251 29be 7c48 65be e2e5 113e 9139 2e3e
000003d0: 3760 26be f827 0dbd 355a 86bc 9fbe fa3d
000003e0: 4e82 51be e583 fa3d 2f0f e33d 8798 32bd
000003f0: 5c5d 283e a426 783e 22db 37be b46a 6fbe

critic.0.bias f4 [256]
0.13292105 0.062389713 -0.17485031 -0.1628696 -0.21922132 0.118363634 -0.22919093 -0.18019551
0.1277384 0.11030879 0.11814544 -0.12504445 -0.08061266 -0.13316871 0.15075429 0.07135313
0.056403145 0.049140353 -0.10452196 -0.08015334 -0.040461153 0.018678613 0.08571798 -0.19211689
-0.028367598 -0.21711676 0.19261295 -0.1576338 -0.16291088 0.21728049 0.0769256 -0.08035125
0.059967533 -0.055246104 -0.21325521 0.00796395 0.10062934 -0.07587188 -0.20192951 -0.11407033
0.1602293 0.118482724 -0.0602014 0.001306873 0.010551661 0.03647075 -0.08904763 -0.21820697
-0.18335527 -0.11886106 0.08001344 -0.047187954 -0.05707108 0.09300854 -0.10380177 -0.1685568
0.016685233 -0.17932831 0.14890152 -0.012553492 0.04287659 0.11278586 -0.06843978 0.08762122
0.21667568 0.016750574 -0.15071222 -0.2749583 0.0066528553 0.06955116 0.14606886 -0.15331724
-0.20909946 -0.06812253 -0.20252243 -0.16669016 -0.09724622 -0.010902582 0.097067334 -0.02074539
0.07220797 0.0048019784 -0.14939107 -0.21569166 -0.19561507 -0.14534345 0.18167536 -0.046189465
-0.243921 -0.059896193 0.11303583 -0.11304008 0.018355466 0.15739717 -0.18338096 0.077758335
0.10108788 -0.1465376 -0.04933887 0.019733729 0.05848394 0.12002711 -0.19779927 0.01103674
-0.24127978 0.05862624 0.0650939 0.20612866 -0.041129276 0.17049527 0.14205597 0.081970565
-0.18846935 -0.19264255 0.07812531 0.025364274 -0.11087557 0.14728378 0.057846382 -0.06470722
-0.16624226 -0.26447552 0.20058279 -0.03522963 -0.032979965 -0.18184975 0.12677653 -0.15287268
-0.13831587 -0.10783594 -0.13810764 -0.08891723 -0.2115426 0.008690859 -0.080520935 -0.084841356
-0.22318783 0.013718104 -0.067702934 0.12257193 -0.2070197 -0.052562773 0.011860773 -0.11374535
0.103576176 -0.016787957 -0.038659465 0.13053337 -0.18478449 0.040179446 -0.27576563 0.08382535
-0.0007237223 0.12707739 0.1317028 -0.20983507 -0.09563052 -0.0746229 -0.14188094 -0.10452045
-0.09469985 0.046696182 -0.008945467 -0.046328705 0.10078186 0.14778076 -0.1696433 -0.25027275
0.12900878 0.29827335 0.018255481 -0.093895026 0.035780612 -0.08486976 0.15997419 -0.062387567
0.024226934 -0.076949835 0.11653749 -0.0040921913 -0.058866203 -0.042971827 0.086405344 -0.01582725
0.20460944 -0.00306204 0.035535574 0.052643366 0.17069772 0.077852406 0.1415144 -0.14785445
0.12895258 -0.23357047 0.06285079 -0.21253425 -0.15555598 -0.08673519 0.015475462 0.13587883
0.10729021 0.10977484 0.09992702 -0.007481198 0.06182707 0.06891953 -0.15205894 0.17679961
-0.21826553 0.17208673 -0.096505694 -0.11226906 0.078853875 -0.12548983 -0.116361976 -0.21009944
-0.09437484 -0.2500957 -0.14050196 0.06375487 -0.043208294 -0.17780733 0.20026228 0.075540066
-0.12376102 -0.02415042 -0.05075513 -0.1483293 -0.29256964 -0.09567573 -0.18006976 0.17464413
-0.026368571 0.03040129 0.043225113 -0.033885885 0.094037354 -0.07831399 -0.0610483 0.0997872
-0.20550981 0.061145246 0.14193231 0.12946522 -0.100237176 -0.09768498 -0.0061975867 -0.065342024
-0.23127824 0.10102381 -0.13763507 -0.10373792 0.08239836 -0.10295564 -0.13470095 -0.109733745
00000000: 751c 083e 5b8c 7f3d f60b 33be 4ac7 26be
00000010: 8e7b 60be a268 f23d 07b1 6abe 2c85 38be
00000020: dbcd 023e 93e9 e13d 3df6 f13d a70b 00be
00000030: 4018 a5bd 615d 08be 555f 1a3e 9721 923d
00000040: fc06 673d 6547 493d 9c0f d6bd 6f27 a4bd
00000050: 98ba 25bd e403 993c e98c af3d 4aba 44be
00000060: 2a63 e8bc db53 5ebe 543c 453e c16a 21be
00000070: 1cd2 26be c77e 5e3e 2b8b 9d3d 328f a4bd
00000080: 84a0 753d bd49 62bd 935f 5abe 3a7b 023c
00000090: c116 ce3d b762 9bbd 9cc6 4ebe b59d e9bd
000000a0: 2613 243e 12a7 f23d be95 76bd 624b ab3a
000000b0: e0e0 2c3c 5a62 153d 9b5e b6bd a671 5fbe
000000c0: 7cc1 3bbe 6d6d f3bd 16de a33d 2848 41bd
000000d0: 5dc3 69bd 437b be3d 0696 d4bd 279a 2cbe
000000e0: 78af 883c d7a1 37be a479 183e 29ad 4dbc
000000f0: 5d9f 2f3d 46fc e63d 282a 8cbd c172 b33d
00000100: 3be0 5d3e 8038 893c 4e54 1abe 56c7 8cbe
00000110: 3200 da3b d770 8e3d 1393 153e 32ff 1cbe
00000120: 2b1e 56be d383 8bbd 0a62 4fbe d3b0 2abe
00000130: 0729 c7bd bea0 32bc 3dcb c63d 3cf2 a9bc
00000140: c6e1 933d ea59 9d3b f9f9 18be 46de 5cbe
00000150: 514f 48be ead4 14be 1b09 3a3e 2a31 3dbd
00000160: 6dc6 79be b655 75bd 547f e73d 8f81 e7bd
00000170: 345e 963c b92c 213e 38c8 3bbe c33f 9f3d
00000180: 2a07 cf3d f40d 16be 8e17 4abd a1a8 a13c
00000190: db8c 6f3d c6d0 f53d e48b 4abe 71d3 343c
000001a0: 0c12 77be 1122 703d f34f 853d 6413 533e
000001b0: 2c77 28bd 5096 2e3e 1f77 113e 2fe0 a73d
000001c0: 1cfe 40be 1744 45be 2a00 a03d bdc8 cf3c
000001d0: bb12 e3bd 8fd1 163e 54f0 6c3d 3885 84bd
000001e0: 693b 2abe 5669 87be 9365 4d3e f24c 10bd
000001f0: 0016 07bd d236 3abe b5d1 013e a88a 1cbe
00000200: ada2 0dbe 17d9 dcbd 176c 0dbe 3d1a b6bd
00000210: a09e 58be 1b64 0e3c 29e8 a4bd 4ec1 adbd
00000220: 5a8b 64be e6c1 603c d6a7 8abd fe06 fb3d
00000230: f9fc 53be 104c 57bd b053 423c 52f3 e8bd
00000240: bf1f d43d e686 89bc 6359 1ebd 8aaa 053e
00000250: 2538 3dbe 3493 243d 2731 8dbe a0ac ab3d
00000260: 2eb8 3dba 9320 023e 19dd 063e 01df 56be
00000270: efd9 c3bd e4d3 98bd 3d49 11be d10e d6bd
00000280: fff1 c1bd 7f44 3f3d 0290 12bc 2bc3 3dbd
00000290: b866 ce3d d753 173e f9b6 2dbe c023 80be
000002a0: e11a 043e 49b7 983e 858c 953c 094c c0bd
000002b0: b18e 123d 32d0 adbd 46d0 233e 1b8a 7fbd
000002c0: 9077 c63c e097 9dbd 35ab ee3d ca17 86bb
000002d0: b01d 71bd 3a03 30bd 49f5 b03d 26a8 81bc
000002e0: 2385 513e 82ac 48bb c08d 113d 92a0 573d
000002f0: 62cb 2e3e 1571 9f3d 27e9 103e 2867 17be
00000300: 250c 043e 192d 6fbe eab7 803d 94a2 59be
00000310: 114a 1fbe 38a2 b1bd cb8c 7d3c d223 0b3e
00000320: f8ba db3d a2d1 e03d 8aa6 cc3d d624 f5bb
00000330: 623e 7d3d af25 8d3d 57b5 1bbe f50a 353e
00000340: 0081 5fbe 8137 303e c7a4 c5bd 52ed e5bd
00000350: 247e a13d 6880 00be 304f eebd 4f24 57be
00000360: 9947 c1bd 8b0c 80be bfdf 0fbe ea91 823d
00000370: 2efb 30bd 2013 36be 8e11 4d3e c0b4 9a3d
00000380: 6b76 fdbd 1ad7 c5bc 9ce4 4fbd a3e3 17be
00000390: b0cb 95be a3f1 c3bd 3564 38be e9d5 323e
000003a0: e702 d8bc 200c f93c d10c 313d edcb 0abd
000003b0: a896 c03d 1663 a0bd c80d 7abd 3b5d cc3d
000003c0: 2a71 52be 7073 7a3d b456 113e 8892 043e
000003d0: 2649 cdbd 100f c8bd 2015 cbbb 0ad2 85bd
000003e0: 34d4 6cbe 92e5 ce3d 35f0 0cbe 8c74 d4bd
000003f0: 79c0 a83d 68da d2bd 0cef 09be 16bc e0bd

critic.2.weight f4 [256, 256]
-0.052258603 0.028439846 -0.031805374 -0.045046277 0.049738374 0.021152616 -0.05051311 -0.010255183
0.0572975 0.016041847 -0.035834555 0.046297386 0.013179756 0.027077876 -0.061074212 -0.042255383
0.0055834875 0.05331091 0.04763707 0.023310563 0.026279375 -0.062733024 0.044548113 0.01068253
-0.020453565 -0.03417841 -0.04021234 -0.03108294 0.050329097 0.05654557 0.0015117574 -0.06351192
-0.030547945 -0.040469185 -0.03142509 -0.06054545 -0.010054525 -0.009570619 0.0010875437 -0.016555686
-0.014163725 0.039824776 0.013767555 -0.028910853 -0.027742436 -0.018408397 0.022809112 0.009099568
0.02173885 -0.04544471 0.050245255 0.044795115 0.051829334 -0.05613736 -0.0072827134 0.024142897
0.060331613 -0.02725374 0.036745068 0.021993509 0.046777636 -0.026086371 -0.012709796 -0.02534905
-0.01624208 0.067431755 0.020126129 0.04015851 -0.026951142 -0.023517767 -0.025410555 -0.009193832
-0.03609942 -0.05252906 -0.037651397 -0.044400044 0.061783224 -0.010372456 0.0045881416 0.014238644
-0.041089192 -0.0067378697 0.04647693 -0.028545415 0.049386185 -0.03147821 -0.02018286 0.0121712955
0.0056112655 -0.0304477 0.044646878 0.032249123 0.037710298 0.017457955 -0.045750298 -0.005235433
0.048185654 -0.04403214 0.05610067 -0.007940817 0.04950965 0.057874463 -0.0017477944 0.023585238
-0.027127506 -0.038747977 -0.062078 0.041615278 -0.029361598 -0.044149358 0.007494211 -0.051720526
-0.033432573 0.018669501 0.023960741 0.02218909 0.04892586 0.017461114 0.009571925 0.06008167
-0.032344252 -0.03804594 0.0426732 -0.002210985 0.004882842 0.006766028 0.052152947 0.046905804
0.054457553 0.04256596 -0.050494827 0.047290456 0.053059123 0.059457686 -0.04655549 -0.0104450565
-0.025834605 0.019039718 -0.014438994 0.023175076 -0.0020843372 -0.061378386 0.011486821 -0.01945272
0.023168545 -0.0078685125 -0.009781251 0.036460765 -0.016597401 0.035090692 -0.03257595 -0.037763566
0.005184592 -0.013675705 -0.057324488 -0.017789517 0.040207654 -0.015787028 0.04801318 -0.025250537
0.012975838 -0.05867477 0.04297568 -0.03619758 -0.021346316 -0.0004977017 -0.0422581 -0.038267445
0.033911638 -0.047986925 -0.054170016 -0.0110101625 0.026248738 0.015593144 -0.053215295 0.013930097
-0.033513837 0.0603393 0.014995729 -0.041104212 0.0089641735 0.021410828 0.03701314 -0.011269731
0.050486386 0.026185773 -0.019367266 -0.032265775 -0.0045355 0.042376474 -0.024712674 -0.044405323
0.043387294 -0.01142095 -0.020903993 0.03064221 0.020608963 0.049427617 0.028398952 -0.0047690324
0.030990018 0.06249526 0.043759286 -0.061115205 -0.035730977 -0.042642638 -0.05232653 -0.054156523
-0.037548356 -0.050526895 -0.051224403 0.010039739 -0.023856308 0.034808252 0.0072030765 0.051004447
-0.06005045 0.0422775 0.051847458 -0.059225783 0.036201347 -0.02961761 0.0013271943 -0.008890713
0.025453225 -0.0035177697 0.029184774 0.057827573 0.055279016 -0.041202422 -0.0022283688 -0.051092252
0.05841364 -0.023474164 -0.044259116 0.016906954 -0.04574392 0.030430838 0.05066261 0.014024891
0.053406075 0.034041993 0.045616888 0.051462136 0.021254107 0.06102889 -0.059548616 -0.04683895
0.03471106 0.057288498 0.03155915 -0.01249285 0.01575495 0.020735893 -0.047690906 -0.01765348
00000000: 1e0d 56bd aefa e83c 5a46 02bd 7282 38bd
00000010: 77ba 4b3d 4048 ad3c d6e6 4ebd 5b05 28bc
00000020: c9b0 6a3d 316a 833c 41c7 12bd 54a2 3d3d
00000030: e7ef 573c 6cd2 dd3c f428 7abd fb13 2dbd
00000040: b0f5 b63b 8a5c 5a3d 171f 433d cbf5 be3c
00000050: d847 d73c 2c7a 80bd 1578 363d c705 2f3c
00000060: 3c8e a7bc a9fe 0bbd b2b5 24bd a6a1 febc
00000070: e225 4e3d 549c 673d 2926 c63a 8a12 82bd
00000080: af3f fabc 04c3 25bd 98b7 00bd 81fe 77bd
00000090: bcbb 24bc 16ce 1cbc e98b 8e3a ca9f 87bc
000000a0: f80e 68bc 4e1f 233d 5091 613c 74d6 ecbc
000000b0: 1b44 e3bc 35cd 96bc 2dda ba3c 5b16 153c
000000c0: ac15 b23c 3b24 3abd f8cd 4d3d 157b 373d
000000d0: ff4a 543d 4af0 65bd d4a3 eebb 53c7 c53c
000000e0: 481e 773d 3c43 dfbc ff81 163d bb2b b43c
000000f0: e899 3f3d 16b3 d5bc c03c 50bc d0a8 cfbc
00000100: 1c0e 85bc a919 8a3d 8ddf a43c 407d 243d
00000110: a4c8 dcbc 55a8 c0bc cc29 d0bc baa1 16bc
00000120: fcdc 13bd b628 57bd 5a38 1abd d2dc 35bd
00000130: 6810 7d3d 3cf1 29bc 1f58 963b 3449 693c
00000140: 244d 28bd 59c9 dcbb 985e 3e3d 13d8 e9bc
00000150: 2b49 4a3d 4cef 00bd 8656 a5bc 1d6a 473c
00000160: b5de b73b 746d f9bc a5df 363d a817 043d
00000170: 1d76 1a3d fc03 8f3c aa64 3bbd ff8d abbb
00000180: 525e 453d 0c5b 34bd d1c9 653d 331a 02bc
00000190: a1ca 4a3d c60d 6d3d 4016 e5ba d435 c13c
000001a0: 813a debc 33b6 1ebd 8045 7ebd c874 2a3d
000001b0: bc87 f0bc f5d5 34bd 0092 f53b e7d8 53bd
000001c0: 98f0 08bd c8f0 983c 5149 c43c e5c5 b53c
000001d0: 7c66 483d 9c0a 8f3c 90d3 1c3c 3218 763d
000001e0: 687b 04bd 0fd6 1bbd 18ca 2e3d 2ce6 10bb
000001f0: 3f00 a03b 8eb5 dd3b 549e 553d 4d20 403d
00000200: e20e 5f3d a559 2e3d aad3 4ebd a3b3 413d
00000210: 8654 593d e789 733d f8b0 3ebd be21 2bbc
00000220: 18a3 d3bc 2ff9 9b3c 8891 6cbc a8d9 bd3c
00000230: 6099 08bb e767 7bbd 3833 3c3c 505b 9fbc
00000240: f6cb bd3c efea 00bc 8a41 20bc e257 153d
00000250: 46f7 87bc 42bb 0f3d 5c6e 05bd f8ad 1abd
00000260: 83e3 a93b 1010 60bc 15cd 6abd 52bb 91bc
00000270: c8b0 243d cc53 81bc 78a9 443d 37da cebc
00000280: 9c98 543c f554 70bd 4407 303d ea43 14bd
00000290: 78de aebc 3278 02ba d416 2dbd 53be 1cbd
000002a0: eee6 0a3d f08d 44bd 61e1 5dbd f863 34bc
000002b0: 9807 d73c 637a 7f3c 48f8 59bd 103b 643c
000002c0: ce45 09bd 5826 773d a5b0 753c e45c 28bd
000002d0: 78de 123c c365 af3c 179b 173d aea4 38bc
000002e0: d0ca 4e3d 8c83 d63c 1aa8 9ebc 1e29 04bd
000002f0: 889e 94bb f492 2d3d 3c72 cabc 5be2 35bd
00000300: e0b6 313d f01e 3bbc da3e abbc 5f05 fb3c
00000310: 21d4 a83c 9d74 4a3d eba4 e83c 8b45 9cbb
00000320: c7de fd3c 08fb 7f3d f03c 333d f053 7abd
00000330: a55a 12bd 0caa 2ebd 5854 56bd 3bd3 5dbd
00000340: 4ecc 19bd 4af5 4ebd aed0 51bd b87d 243c
00000350: 4e6e c3bc 1993 0e3d c907 ec3b 0aea 503d
00000360: 76f7 75bd 2c2b 2d3d 005e 543d bc96 72bd
00000370: dd47 143d a1a0 f2bc 40f5 ad3a 5aaa 11bc
00000380: 4883 d03c 628a 66bb e814 ef3c 9bdc 6c3d
00000390: 406c 623d dfc3 28bd d309 12bb 1c46 51bd
000003a0: 2443 6f3d e44c c0bc 0c49 35bd 7480 8a3c
000003b0: fa5d 3bbd 184a f93c 9983 4f3d a8c8 653c
000003c0: 54c0 5a3d 9e6f 0b3d c6d8 3a3d f6c9 523d
000003d0: 181d ae3c 6ef9 793d 40e9 73bd 33da 3fbd
000003e0: 2f2d 0e3d 58a7 6a3d 2b44 013d d0ae 4cbc
000003f0: 8610 813c 52de a93c 8a57 43bd 089e 90bc

critic.2.bias f4 [256]
0.036438867 -0.007531475 -0.030399261 -0.032202207 0.018592056 -0.013087427 -0.027935168 0.025723368
-0.0016210005 0.0412544 -0.05674294 0.17712204 -0.015610487 0.000489501 -0.009942987 -0.055518065
-0.032810148 0.007040543 -0.035584453 -0.08937626 0.03063111 -0.05489447 -0.06301145 -0.04797255
0.2826697 -0.062760025 -0.002645804 -0.054728743 0.04032143 -0.034596346 -0.073596075 0.0038602236
-0.003221672 -0.018375143 -0.030131169 -0.007557963 0.036219463 0.021815468 0.0007483031 0.043127656
0.045177795 -0.018859075 0.034715567 0.0030001544 0.010188066 -0.021537215 -0.016367786 -0.042209376
-0.04186905 0.14625615 -0.0004033457 -0.05065218 0.1375358 0.0465419 0.098874666 0.042835057
0.1507013 0.15386693 0.0035010278 -0.015745088 0.337278 0.020745361 0.28996566 -0.023982786
0.055972982 0.0024039398 0.023037657 0.053232137 -0.049060035 -0.06634132 0.008401718 0.006622769
0.10417314 0.007088737 0.028410628 0.33473668 0.22367382 0.22690605 -0.0576604 0.019222897
-0.008536696 -0.0005583792 -0.06421346 -0.020470321 0.047304872 0.38851503 -0.05252577 0.034924682
-0.04178855 0.009602719 0.035465598 -0.041099582 -0.04629808 0.05648317 0.22817738 0.04593243
-0.045357373 -0.11806663 0.02918153 -0.044413686 -0.03327411 -0.04450632 0.19594994 -0.059648786
-0.027269661 -0.02807556 -0.03498979 0.027162768 -0.021560831 0.07892938 -0.034979947 -0.025152523
0.1426664 -0.0354328 0.05361345 -0.08457161 -0.0048628016 -0.02156903 -0.0038603488 0.014759608
0.014945634 0.043132264 0.050656 0.03206252 -0.02101994 -0.06501546 0.023761973 0.036640063
0.16074273 -0.070947185 0.026980959 -0.055392765 -0.0409699 0.21352448 0.104878694 0.05091187
0.123496905 -0.034475774 0.052590553 0.024121618 -0.0045412406 -0.022492431 0.26009664 -0.047863957
-0.06996958 -0.053356506 -0.010089066 -0.06405133 -0.0027464095 0.010090514 0.023974733 0.17894718
0.044471186 -0.037406422 -0.035589583 0.00043984235 -0.024336968 0.031005993 0.13942374 -0.06996554
-0.03939263 -0.040028013 0.10571089 0.0005172773 0.03060008 0.046029095 -0.030421369 0.034175552
-0.06147608 0.25776994 -0.0050175115 -0.028957892 -0.035986897 -0.0016310186 -0.064442426 0.20227554
0.19440164 -0.0018737804 -0.005432609 0.21365204 -0.06031184 0.051498037 0.03692687 0.03159547
0.055843327 -0.0027086686 0.012679041 0.3020316 0.034677442 0.18470365 0.022528885 -0.01672894
0.22729586 -0.02538509 0.21946213 -0.021526773 0.016719671 -0.03962192 -0.0574485 0.01795309
-0.031357437 -0.05958513 -0.05820678 0.18562888 -0.003801533 -0.048235446 0.0071101636 -0.064931266
0.36705774 0.0032873536 0.03785033 0.043053243 0.042890213 0.19652103 0.027667835 0.01576925
0.13120566 0.0024771271 0.1803913 0.16086397 -0.021630444 0.2961945 -0.032725424 -0.020240957
0.05180323 0.03229572 0.27698833 0.22682425 -0.0665341 -0.025775017 0.27281925 0.014258724
0.023957606 -0.028351257 0.010982131 0.0034121748 0.0039279084 0.0072514946 -0.0646868 0.037499517
-0.01207006 -0.017993035 0.21158454 0.019798346 -0.019257693 0.0353419 0.28195775 -0.026327632
-0.002151187 -0.017792193 -0.012771564 0.05157758 -0.02705586 -3.9924522e-05 -0.06550262 -0.04886712
00000000: ec40 153d 97ca f6bb df07 f9bc 76e6 03bd
00000010: 5e4e 983c a66c 56bc 4bd8 e4bc d0b9 d23c
00000020: c077 d4ba 60fa 283d 496b 68bd 7b5f 353e
00000030: 21c3 7fbc db51 003a e9e7 22bc e966 63bd
00000040: ef63 06bd 5bb4 e63b 01c1 11bd e70a b7bd
00000050: 18ee fa3c 06d9 60bd 260c 81bd dd7e 44bd
00000060: 15ba 903e 5488 80bd 3a65 2dbb 3f2b 60bd
00000070: 1528 253d e6b4 0dbd 8ab9 96bd cefb 7c3b
00000080: b022 53bb 7887 96bc a4d5 f6bc caa8 f7bb
00000090: dc5a 143d 5ab6 b23c c529 443a a0a6 303d
000000a0: 5a0c 393d 597e 9abc e931 0e3d 3d9e 443b
000000b0: d9eb 263c d06e b0bc bc15 86bc bde3 2cbd
000000c0: e27e 2bbd 2cc4 153e 2578 d3b9 a978 4fbd
000000d0: 2fd6 0c3e b8a2 3e3d cd7e ca3d d073 2f3d
000000e0: 7151 1a3e 4b8f 1d3e 8071 653b d8fb 80bc
000000f0: b4af ac3e 2df2 a93c 6176 943e 8c77 c4bc
00000100: ed43 653d 6b8b 1d3b 78b9 bc3c f109 5a3d
00000110: 2df3 48bd f5dd 87bd 5ca7 093c d003 d93b
00000120: ba58 d53d a348 e83b 68bd e83c 9b62 ab3e
00000130: c00a 653e 0f5a 683e 502d 6cbd 5679 9d3c
00000140: 80dd 0bbc 3260 12ba 5982 83bd 60b1 a7bc
00000150: c1c2 413d 71eb c63e 4325 57bd 2f0d 0f3d
00000160: 782a 2bbd b954 1d3c 6044 113d 0958 28bd
00000170: 0ea3 3dbd e55a 673d 55a7 693e a523 3c3d
00000180: a7c8 39bd ebcc f1bd 1b0e ef3c 20eb 35bd
00000190: 6f4a 08bd 424c 36bd 1aa7 483e 4952 74bd
000001a0: a064 dfbc b8fe e5bc 7451 0fbd 7484 de3c
000001b0: 57a0 b0bc baa5 a13d 2247 0fbd aa0c cebc
000001c0: 2417 123e fc21 11bd c799 5b3d e133 adbd
000001d0: 2358 9fbb 89b1 b0bc e8fd 7cbb 48d2 713c
000001e0: 88de 743c 75ab 303d aa7c 4f3d fd53 033d
000001f0: 0232 acbc d326 85bd 78a8 c23c e413 163d
00000200: be99 243e c24c 91bd 2c07 dd3c 86e3 62bd
00000210: 0ed0 27bd 29a6 5a3e a4ca d63d f788 503d
00000220: f2eb fc3d 7836 0dbd 3169 573d b39a c53c
00000230: b0ce 94bb 0c42 b8bc 632b 853e ff0c 44bd
00000240: 364c 8fbd 5a8c 5abd 9c4c 25bc 582d 83bd
00000250: 1bfd 33bb af52 253c a966 c43c ee3d 373e
00000260: 6b27 363d 7a37 19bd 62c6 11bd a49a e639
00000270: 525e c7bc 4800 fe3c 19c5 0e3e 184a 8fbd
00000280: 2b5a 21bd 6af4 23bd f37e d83d e499 073a
00000290: 05ad fa3c 0189 3c3d 3c36 f9bc aafb 0b3d
000002a0: 58ce 7bbd 6cfa 833e f069 a4bb 1a39 edbc
000002b0: ff66 13bd e7c7 d5ba 64fa 83bd 5221 4f3e
000002c0: 3911 473e a399 f5ba 0704 b2bb 9ac7 5a3e
000002d0: 8c09 77bd 9bef 523d a140 173d 406a 013d
000002e0: f9bb 643d eb83 31bb c1bb 4f3c e3a3 9a3e
000002f0: ef09 0e3d f422 3d3e 7f8e b83c 210b 89bc
00000300: 3fc0 683e 64f4 cfbc aeba 603e ea58 b0bc
00000310: b1f7 883c 984a 22bd 1e4f 6bbd 5c12 933c
00000320: a870 00bd 8a0f 74bd 3c6a 6ebd 7f15 3e3e
00000330: 2423 79bb 8892 45bd 60fc e83b affa 84bd
00000340: feee bb3e a470 573b f308 1b3d 9958 303d
00000350: a6ad 2f3d cf3c 493e a8a7 e23c 842e 813c
00000360: c75a 063e 4c57 223b 7fb8 383e 86b9 243e
00000370: 5432 b1bc cea6 973e 180b 06bd 5dd0 a5bc
00000380: a02f 543d 8448 043d 6ad1 8d3e 9e44 683e
00000390: 0843 88bd 2126 d3bc f7ae 8b3e 6c9d 693c
000003a0: be42 c43c e540 e8bc 65ee 333c cb9e 5f3b
000003b0: afb5 803b f29d ed3b 837a 84bd 1899 193d
000003c0: 80c1 45bc 2166 93bc 9ea9 583e 2430 a23c
000003d0: 4fc2 9dbc abc2 103d c45c 903e 0cad d7bc
000003e0: eefa 0cbb efc0 91bc d23f 51bc 0343 533d
000003f0: 40a4 ddbc a174 27b8 3d26 86bd e428 48bd

critic.4.weight f4 [1, 256]
-0.0075506563 -0.004519503 0.013189274 -0.0047273175 -0.03671053 -0.01859462 -0.06586478 -0.012923279
-0.0031266299 0.0007233269 -0.002220474 0.13716269 -0.03364182 0.016347839 -0.0010061854 -0.00991554
-0.00050566165 -0.02053536 0.006434661 -0.0051015588 -0.05014338 -0.036190126 -0.027950568 -0.052459933
0.148609 -8.084921e-05 -0.021392182 -0.010415225 -0.024165208 0.012263259 -0.014016375 0.029963171
-0.047382735 -0.006909877 0.0019519012 0.007994055 0.005838323 -0.043548092 -0.0008492805 0.0058652908
-0.0010573743 0.017886152 -0.04542332 -0.031835664 0.0032002428 0.012659981 -0.01097057 -0.017807813
-0.006078236 0.14441042 -0.03452064 -0.013933672 0.21836926 0.03668537 0.17392942 0.12552774
0.07950971 0.12360529 0.057789117 -0.050614502 0.35201728 -0.024761718 0.31144652 0.0018770746
0.0023333165 -0.05247934 -0.014775501 -0.00035368497 0.036722433 -0.048364867 0.007887526 -0.021498725
0.16593061 -0.040502597 -0.0120019475 0.3144717 0.27225426 0.24335723 0.028500907 -0.03359506
-0.019902442 -0.0029264172 -0.009279094 -0.0069198785 -0.07017897 0.35686657 -0.035005722 -0.0136923315
0.03351719 -0.053916946 0.040199064 0.018367639 -0.015458782 -0.00085034524 0.30226716 -0.027670218
0.04387832 0.0072794105 0.10288345 -0.049802992 0.0055027446 -0.031374425 0.17994511 0.006040136
-0.030196844 -0.047113508 0.010468795 0.0050314493 0.003381393 0.0752141 -0.00061655586 -0.0022531808
0.20569694 -0.0315104 -0.07551502 0.0025191873 -0.008397967 -0.021229295 -0.016215064 -0.047907267
-0.018902706 0.048331037 0.00681261 -0.027799407 -0.05100981 -0.03867819 0.0071904287 -0.009086814
0.11243394 -0.037803475 0.002635864 -0.039555974 0.001895262 0.23512179 0.10315529 -0.039637692
0.13240375 -0.02822885 -0.034686096 -0.018073948 0.00031156093 -0.050791364 0.29639754 -0.0043014754
-0.019289536 0.030591547 0.036476567 -0.020433577 -0.0466163 -0.01526396 -0.012481725 0.18794256
0.13328941 -0.02589688 -0.050444137 0.0034944767 -0.0043966584 0.023059722 0.13830674 0.0042808964
0.0056708283 -0.027086271 0.057772104 -0.025834804 0.002108338 -0.014021912 0.0054266597 -0.042447492
0.017909989 0.18162222 0.025246173 0.0015123733 -0.045675483 -0.037839692 -0.021801997 0.123068854
0.21699984 -0.023869108 -0.028226227 0.10440758 -0.00011679428 -0.04957174 -0.009847501 -0.031540502
0.03604783 0.0074321516 0.00404732 0.19845426 -0.005330299 0.14042106 -0.028230242 0.0072351936
0.24927807 -0.0212537 -0.26536882 -0.05029743 0.023783643 0.05794192 0.027498215 0.00585749
0.042590596 -0.025636647 0.033915114 0.20460261 -0.027179798 0.004558365 -0.06142523 -0.0066335346
0.3800947 -0.0040402347 -0.0064027067 0.03495425 -0.0009594038 0.3036684 -0.0014232112 0.010933116
0.10793593 -0.0039892257 0.1989808 0.14505889 -0.033196904 0.29170385 0.0067764134 -0.0053705494
0.0017281026 0.005601132 0.288734 0.24593858 -0.046584163 -0.0039102887 0.18030164 -0.0034862335
-0.00994468 -0.019287925 0.011214534 0.04123357 -0.0014671002 -0.010098129 0.05522823 0.005704644
-0.023741374 0.032140817 0.20964603 -0.0035689557 -0.0011058686 -0.026714686 0.29950383 -0.022432104
-0.014021919 -0.018359842 0.008386819 -0.013488239 -0.00744151 -0.07812893 0.0023273854 -0.018714327
00000000: 7f6b f7bb 5718 94bb d317 583c 9de7 9abb
00000010: c85d 16bd bf53 98bc 1de4 86bd 29bc 53bc
00000020: 25e8 4cbb a69d 3d3a 5f85 11bb 6074 0c3e
00000030: 01cc 09bd e7eb 853c fbe1 83ba ca74 22bc
00000040: 618e 04ba c539 a8bc d9d9 d23b fa2a a7bb
00000050: 2563 4dbd 193c 14bd 97f8 e4bc 3ae0 56bd
00000060: f52c 183e 978d a9b8 a83e afbc 9fa4 2abc
00000070: 1df6 c5bc d6eb 483c f0a4 65bc 5375 f53c
00000080: 6614 42bd 406c e2bb f0d6 ff3a 7ff9 023c
00000090: 674f bf3b 7c5f 32bd 40a2 5eba a031 c03b
000000a0: 9897 8aba fb85 923c ce0d 3abd 1d66 02bd
000000b0: 2abb 513b cf6b 4f3c e8bd 33bc b1e1 91bc
000000c0: f02b c7bb 53e0 133e 8465 0dbd 0e4a 64bc
000000d0: 319c 5f3e 6643 163d 8e1a 323e 588a 003e
000000e0: fdd5 a23d c524 fd3d 48b4 6c3d 2751 4fbd
000000f0: 9c3b b43e 16d9 cabc eb75 9f3e 2c08 f63a
00000100: 8eea 183b 94f4 56bd f114 72bc cb6e b9b9
00000110: 436a 163d 3d1a 46bd af3a 013c 181e b0bc
00000120: b7e9 293e 0de6 25bd d1a3 44bc 6f02 a13e
00000130: e964 8b3e a332 793e bc7a e93c f99a 09bd
00000140: 720a a3bc 22c9 3fbb 5707 18bc 26c0 e2bb
00000150: feb9 8fbd 37b7 b63e 2962 0fbd cd55 60bc
00000160: 5249 093d 04d8 5cbd c6a7 243d bb77 963c
00000170: d546 7dbc b4e9 5eba c3c2 9a3e a7ac e2bc
00000180: c1b9 333d 1f88 ee3b 8fb4 d23d 39fe 4bbd
00000190: 5e50 b43b 7882 00bd 8843 383e 55ec c53b
000001a0: 5f5f f7bc 18fa 40bd 4f85 2b3c dbde a43b
000001b0: 5c9a 5d3b da09 9a3d 5da0 21ba 1aaa 13bb
000001c0: 38a2 523e 0d11 01bd 9ea7 9abd f318 253b
000001d0: a097 09bc 0fe9 adbc 74d5 84bc 693a 44bd
000001e0: d9d9 9abc c4f6 453d 513c df3b 95bb e3bc
000001f0: aaef 50bd 066d 1ebd b09d eb3b dce0 14bc
00000200: c443 e63d d1d7 1abd 76be 2c3b 7205 22bd
00000210: 716a f83a c4c3 703e 1543 d33d 225b 22bd
00000220: d994 073e 3040 e7bc 0213 0ebd d10f 94bc
00000230: 0059 a339 9b0a 50bd 6bc1 973e 64f3 8cbb
00000240: 1705 9ebc 209b fa3c 7468 153d 5164 a7bc
00000250: bcf0 3ebd b015 7abc 2680 4cbc 0474 403e
00000260: 057d 083e b225 d4bc 839e 4ebd 9703 653b
00000270: d811 90bb bee7 bc3c 48a0 0d3e c346 8c3b
00000280: 5bd2 b93b 07e4 ddbc 71a2 6c3d 83a3 d3bc
00000290: 0b2c 0a3b 29bc 65bc 1fd2 b13b 6cdd 2dbd
000002a0: f8b7 923c 2dfb 393e 10d1 ce3c d43a c63a
000002b0: 3716 3bbd cbfd 1abd 1a9a b2bc 860b fc3d
000002c0: 3535 5e3e 2689 c3bc b03a e7bc a4d3 d53d
000002d0: 74ef f4b8 bd0b 4bbd 6a57 21bc 9d30 01bd
000002e0: e4a6 133d 6889 f33b 629f 843b 9837 4b3e
000002f0: caa9 aebb 8aca 0f3e 1c43 e7bc 3415 ed3b
00000300: c042 7f3e 3d1c aebc 6cde 87be ae04 4ebd
00000310: ead5 c23c 8254 6d3d f043 e13c 30f0 bf3b
00000320: 7a73 2e3d f203 d2bc 93ea 0a3d 5983 513e
00000330: 2ba8 debc 565e 953b 0699 7bbd 1f5e d9bb
00000340: c69b c23e f263 84bb cccd d1bb 302c 0f3d
00000350: 8080 7bba 6d7a 9b3e 0b8b baba d020 333c
00000360: 830d dd3d 0db8 82bb 9fc1 4b3e 518a 143e
00000370: 7af9 07bd 355a 953e ad0c de3b 6ffb afbb
00000380: 8081 e23a b389 b73b f1d4 933e 53d7 7b3e
00000390: 09cf 3ebd e121 80bb fea0 383e 4b79 64bb
000003a0: 03ef 22bc b601 9ebc 2abd 373c 88e4 283d
000003b0: b74b c0ba 9f72 25bc ff36 623d 06ee ba3b
000003c0: 457d c2bc 17a6 033d 73ad 563e 24e5 69bb
000003d0: cbf2 90ba c2d8 dabc 9158 993e 88c3 b7bc
000003e0: 31bc 65bc 6167 96bc de68 093c c6fd 5cbc
000003f0: e9d7 f3bb 0f02 a0bd 0c87 183b ca4e 99bc
