RL_algorithms/Torch/PPO/models/space_robot_actor.pt (torch, 293783 bytes, 6 tensors)

actor.0.weight f4 [256, 21]
00000000: 3577 24be cfc1 15be 154a 8b3d 86a8 503e
00000010: c04c a73d cab0 5bbd fbbd 62bd 6410 a93d
00000020: 4cd2 dabd 8f7c 08be 33c1 373e dfdb 0ebe
00000030: abce 1abe b39e e7bb 9b36 4e3e fc81 bdbd
00000040: d485 353e d1eb 003e 54fe 9bbc 933f 7f3d
00000050: 7b21 493e 4aa9 e8bc 1154 1c3e 9b20 ca3d
00000060: 0bc5 663d 6c2d 07be e3eb 393e e4c7 01be
00000070: e1ac 2c3e 0aa9 3bbd 9f22 3a3e 53c9 833c
00000080: 35e9 71bc b939 133e 1c66 25be eea6 123d
00000090: 1086 7cbd c813 d3bd f449 2bbe 53d6 0a3e
000000a0: d0fa 523e 2ace 623e e295 f7bd d35c 4cbd
000000b0: a2e6 673d 6d26 193e bc6e 8e3d eaf8 c5bc
000000c0: 9e8f 8bbd 23b8 263c d658 1a3e efe8 51bc
000000d0: b8e1 223e 0dfe fa3a 71f1 253d 2662 3f3d
000000e0: 7cd7 123e dc52 eabd 02f9 563e 0433 5dbe
000000f0: 8dd8 41be ad18 81bd f0e7 21be 4b6e 1a3d
00000100: 2b6b 6abe 5063 c1bc 6101 543d 03ff a63d
00000110: a0bd 083e a3d9 2a3e b165 48be 20c0 893e
00000120: 108a 5ebe 4221 16be aad6 41bd 2046 a93e
00000130: c045 2c3e 264c 903d 0a68 1cbe e86d 26be
00000140: f3d3 cebc 14dc 9b3d 24cb 463e 0548 a4bd
00000150: 82f9 6f3d 3436 d1bd 76cf 6fbd 98fa a2bd
00000160: fcd7 8b3d 3943 093d 6eb9 64bd 9e8b 25be
00000170: 58f7 ee3a 61b1 d53d 3454 123d 5cd4 09be
00000180: e0b8 0a3b addd e13d 88e9 33bd 6dd2 6bbd
00000190: 17e1 b43d 6c98 6cbe bc9b a2bd 2fae ff3c
000001a0: d1e5 383e 4648 2fbe 80b0 e83b f9db 173e
000001b0: 6633 55be f128 343e 4244 22be 8ac6 d53d
000001c0: 7c5e 50be c8a7 31be e804 52be 2e71 f63d
000001d0: 8c33 2d3d d0c2 56bc 6226 f63d 6f16 3cbe
000001e0: c1d2 4ebe 8e68 36be 0870 3dbd ded4 a3bd
000001f0: ae9a 8d3d 27e3 c3bd ba84 45bd 340d 19be
00000200: 1792 893c 77ad 28be 5b44 02bd af31 7dbe
00000210: 62d5 643e c526 a73d bff3 3bbe 2456 10be
00000220: c201 39be 982b cebd 5e84 b03d bd47 173e
00000230: ca1d e83d 973f 07bc 2397 20be 5efe 23be
00000240: 2205 1e3e ad15 ae3d 2284 373e b2c6 d8bd
00000250: 50cb f33c b22a 6c3d 1ff8 0dbe de31 27be
00000260: 3154 fd3d 2e9a 8cbd b2aa 093e 1c19 853c
00000270: 1bef 4dbe 93fb 373e c6f3 1b3e 8e40 05be
00000280: b840 9f3d bbb6 643e bc41 5dbe cc6f ae3d
00000290: ae6e 5fbe d92d 2dbe 98dc 153e 2203 9d3d
000002a0: 70be 9e3c 5c6e 3a3d c8d4 f53c 80f8 fd3b
000002b0: f258 28be 2d38 f9bd 5546 4d3e c449 46bd
000002c0: 351a 543e 1a6d b0bd b743 4b3e 3ee3 933d
000002d0: 48df ccbd 3d0a 36be 5e35 d63d 41da 453e
000002e0: 002f 5cbb 7a97 2abe ac97 06be e48e 233d
000002f0: f1ad 3dbe 2e1e 773b acb4 6fbe 7795 d4bd
00000300: 54f4 af3d 76c5 623d bedf debc daa7 693c
00000310: cdde 9ebd f75e 2bbe 3ac4 a9bd 45e9 15be
00000320: b64e 8abd 92df 033d 6fc5 31be 5c3f 5ebe
00000330: 4c75 24bd 545d 8dbd a269 05bd 6d2b 24bd
00000340: 0737 343e 16db 1b3e 27d2 28be b6e7 50be
00000350: 660b 27be 3399 28bd d731 503c 2fbb 52be
00000360: 59ff 9bbd 36f7 ea3d 2373 2e3e 4bbb cabc
00000370: 2c4f b3bd fbf8 92bd b9ff 20bc dd9e 3dbe
00000380: 625e 113d 6c28 32bc 311d c53b 0847 3fbe
00000390: c701 41be ad0a 7abe 7622 9f3d bb78 44bc
000003a0: 8e59 4e3e 2e1a 523e 840f 683e 81dc 0f3c
000003b0: 5f20 88bd f2c0 8e3d 4560 14bd 5f4c fabc
000003c0: 0d03 e1bd 9800 293e 735d adbc fc00 0fbe
000003d0: ec92 473e ee21 963d 7e40 0a3e 7a10 8a3e
000003e0: 0c9d 86bd f036 ed3d 35b9 43bb 9655 023d
000003f0: da9b 7fbe 0d44 2dbb de88 a9bd 19dc 5bbe
-0.16061099 -0.14624713 0.068012394 0.20376787 0.08168936 -0.053635396 -0.05535696 0.082550794
-0.10684642 -0.13328765 0.17944793 -0.13951062 -0.151179 -0.007068479 0.20138018 -0.09253308
0.17726833 0.12589957 -0.019042172 0.06231649 0.19641678 -0.028401036 0.15266444 0.098695
0.05634026 -0.13200921 0.1815639 -0.12673908 0.16862823 -0.045815505 0.1817727 0.01608721
-0.014765074 0.14377488 -0.16152233 0.035803728 -0.06165129 -0.10306507 -0.1672743 0.1355832
0.2060349 0.22148958 -0.12089135 -0.04989321 0.056616433 0.14956065 0.06954715 -0.024166543
-0.06814502 0.010175738 0.1507295 -0.012811883 0.15906417 0.0019149199 0.04051346 0.04672446
0.14340013 -0.114415854 0.20993426 -0.21601492 -0.18930264 -0.06303535 -0.15811133 0.03770284
-0.22892444 -0.023606926 0.051759128 0.081541084 0.13353586 0.16684584 -0.19570042 0.26904392
-0.21732354 -0.14661124 -0.04732386 0.33061314 0.16823483 0.07045774 -0.15274063 -0.16252863
-0.02524755 0.07610336 0.1941343 -0.08021549 0.05858756 -0.102154166 -0.05854746 -0.07957953
0.06828305 0.033511374 -0.055840902 -0.16166541 0.0018231673 0.10434223 0.035724834 -0.13459915
0.0021167323 0.110286094 -0.043923885 -0.057573725 0.08831995 -0.2310502 -0.0793986 0.031210987
0.18056418 -0.17117414 0.0071011186 0.14830007 -0.20820388 0.17593743 -0.15846351 0.10438259
-0.20348543 -0.1734916 -0.20509684 0.12033306 0.042285487 -0.01310797 0.1201904 -0.18367933
-0.20197584 -0.17813322 -0.04624942 -0.079995856 0.069142684 -0.0956481 -0.04822228 -0.14946443
0.016793294 -0.16472422 -0.03180347 -0.24725984 0.22347024 0.081616916 -0.183547 -0.1409536
-0.18067077 -0.100669086 0.08618997 0.1477346 0.11333807 -0.008254907 -0.15682654 -0.16015002
0.15431646 0.08500228 0.17921498 -0.10584773 0.029760033 0.057657905 -0.13864182 -0.16327617
0.12369574 -0.06865345 0.13444021 0.016247325 -0.20110743 0.17967062 0.15229711 -0.13012907
0.07776016 0.22335331 -0.21607107 0.08517417 -0.21819565 -0.1691202 0.14634931 0.07666613
0.019377917 0.045515403 0.030008689 0.007750571 -0.1644018 -0.12168918 0.20046361 -0.048410192
0.20713122 -0.086145595 0.1985005 0.072210774 -0.10003525 -0.17777343 0.10459398 0.19321539
-0.003359735 -0.16659346 -0.13143796 0.039931193 -0.18523385 0.0037707197 -0.23408765 -0.10380071
0.08591524 0.055364095 -0.027206298 0.01426121 -0.077573396 -0.16735445 -0.0828938 -0.14639767
-0.06753294 0.032195635 -0.17360471 -0.21703857 -0.040150926 -0.069025666 -0.032571442 -0.040080477
0.17599116 0.15220293 -0.16486417 -0.2040089 -0.16312942 -0.041161727 0.012707195 -0.20579217
-0.07617063 0.11472933 0.17036109 -0.024747511 -0.08755335 -0.071763955 -0.009826594 -0.18517633
0.0354904 -0.010873895 0.006015443 -0.1867944 -0.18848334 -0.24418135 0.07770245 -0.011991675
0.2015135 0.205178 0.22662169 0.0087806 -0.06646799 0.06970395 -0.036224622 -0.030553995
-0.1098691 0.16504133 -0.021162724 -0.1396522 0.1948964 0.0733069 0.13501164 0.26965696
-0.06572923 0.11582744 -0.002986503 0.031819902 -0.24961796 -0.0026438267 -0.082780585 -0.2147068

actor.0.bias f4 [256]
00000000: 53bb c73d ddd7 9dbd 42be bfbd 3893 2abd
00000010: 4741 5dbe 5008 98bc 7eed f8bd 8be3 06be
00000020: 1c42 52bd 34da 223e fc54 c83d 61c0 673e
00000030: f5fc 57be 64bc 05be be7a a8bd c5b1 bf3d
00000040: 2259 ad3d c6c9 d0bd 5c90 d8bd c4ff d83d
00000050: 4939 60bd c6e8 153e 9108 16be 965f e43d
00000060: 18b4 2e3c 2b29 e1bd 3617 8f3d 05b1 b5bb
00000070: 3dfe 16be b304 41be 4046 c8bb 4059 97bc
00000080: 11e6 a13d 008e 24be 5e0f 2d3e 3b6c b8bd
00000090: 28b7 233d 4ab3 88bd 6d52 383e e09c 98bd
000000a0: 2a2e 903d f331 1f3e 33df 1bbc 845e 353d
000000b0: 6673 41bd 5bf3 693c 3f3b 5d3d f539 28bd
000000c0: 20a1 52bd 8f1d 143d 0c39 e3bd dd6e a83c
000000d0: a509 8f3c 3589 0dbe edd4 c33c 73b1 e6bd
000000e0: e056 11be 607f ea3d 663a 083d a8c9 18be
000000f0: 483b 3d3e ec88 2a3e e5c4 2abe c1fc 97bd
00000100: 3111 d7bd 44ca 3a3e c7aa 463d f956 85bd
00000110: 489f c43c 28da dcbd ff39 793d e10d 263e
00000120: f9ee 9cbd 5685 f7bd c5e6 79bc e23f 3c3e
00000130: 9de8 2d3e 659b 61be fa2a d93d e1c3 f8bd
00000140: 9609 8cbd 8d48 2dbe 9255 143e cef6 8abd
00000150: d4fe 113e 906b 32be 3dee 073e 83ec c43d
00000160: 3c16 08be 85be 4ebe 075d c03d 525e 253e
00000170: 08a2 ef3d 5688 023d fb62 d7bc f317 363d
00000180: 4d2d 563d 0b2d 153e 684e e73c 3e07 4a3d
00000190: f809 88bd 23a7 1ebd 949b 1cbe 9a97 883d
000001a0: ca44 183e 6598 363e b041 3dbe ce0d bcbd
000001b0: 5835 0ebd c95f 1fbd 129d 52bd f89f b7bd
000001c0: 52f0 cabd 385c f3bc 8bf1 52be d075 47be
000001d0: 7fcf 4c3e 98a9 e93d 111b f7bd fec4 e63d
000001e0: 9ace 87bd ca7c 613e d039 26bc 5c04 80bd
000001f0: ecee 513d 8052 0ebe b7d3 88bd 5cf1 573e
00000200: 09ed a8bc 3311 273e c536 e0bd 7ff3 1e3e
00000210: 4c29 103e a76e 253d fadd ef3d b841 56be
00000220: 4110 44be 59af 183e 36c2 70be 5dfe fb3d
00000230: 8460 3e3d 1455 1e3e 1ac4 273e 76ab 84bd
00000240: 719e 56bc 0038 e83c fc1b 36bd 26bc 1d3e
00000250: ca71 fcbd 20c5 55bc 1b1d 24bd c365 0d3e
00000260: 3832 8b3d 40ae e3bb 45c7 d5bd dc72 26bd
00000270: a6eb 3c3d ccf2 693d cf04 453e 32aa e43d
00000280: af41 99bc ae2b 193e 0cc5 673e b50c 5ebe
00000290: 7101 073d bccb 213d a9b5 433e 8af8 82bc
000002a0: 9908 6b3e ea32 9f3d e988 203d 5a52 973d
000002b0: 1a29 2dbe a867 a33c f5e3 3a3e 9b17 3dbe
000002c0: 424a 253d d486 a53d 2f82 353e 5b0c 87bc
000002d0: b305 50bd 928e c33d 9b48 58bd 19de 5ebe
000002e0: b11b 0cbe 2ee8 8c3d eedd b1bc 60eb 393c
000002f0: 5bac b8bd d3dc 3a3d 7f25 1d3e a361 ee3d
00000300: c308 1c3e 6c10 7f3d c5d0 0e3e 321f 993d
00000310: 6aca 8abd 7c31 32bc 01b0 2b3e f456 673d
00000320: eb3e d8bd 2860 4d3e 04b7 f0bd b1f0 41be
00000330: 83c1 d3bd 44b9 60be 9bfb 00be 60b0 5fbc
00000340: 673f 153e e8c8 fb3d eb82 003e 44ef 253d
00000350: 8e3b 58be 86ab e03d 60d7 8f3d c097 5b3e
00000360: 3777 783d 66b2 ce3d cf38 e1bd 6a9f c73d
00000370: 7b6c 203e de7e 2a3e d6b0 9e3d c7b2 73bd
00000380: e018 babd 2914 5b3e f5c9 e23d 9950 153e
00000390: 9938 b0bd a6f7 49bb 0503 443e 7288 c7bd
000003a0: 7dcd 513e 843d 5b3d 846e 003e 5dac 933d
000003b0: 1cff c43d 08e5 aabd 6437 363b a98d 1dbe
000003c0: 2dac 583e 4ed9 bbbd 9195 bb3d c8d0 6c3e
000003d0: 8aa5 fe3d 04f1 603c d887 e0bc 3699 f6bc
000003e0: 600f d6b9 c120 ac3c 886e 61bd db12 cabd
000003f0: e819 d4bc c605 a9bd 93c3 a23d 7055 3cbe
0.09752526 -0.07707188 -0.09362461 -0.041644305 -0.21606933 -0.018558651 -0.12154673 -0.13172738
-0.051332578 0.1590355 0.097818345 0.2263198 -0.21092589 -0.13060147 -0.08226536 0.09360079
0.08464266 -0.10194735 -0.10574409 0.105956584 -0.05474213 0.14639577 -0.14651705 0.11151044
0.010663055 -0.1099418 0.06986849 -0.005544784 -0.14745422 -0.18849449 -0.00611189 -0.018475175
0.0790521 -0.16069794 0.16900393 -0.09005018 0.039969593 -0.06674822 0.18000193 -0.074517965
0.07040055 0.15546398 -0.009513664 0.04427959 -0.047229193 0.014279212 0.05401158 -0.041070897
-0.051423192 0.036161 -0.11094865 0.020560676 0.017460654 -0.13821872 0.023905242 -0.112643145
-0.14193296 0.11450076 0.033258818 -0.14920676 0.18479645 0.16653794 -0.16676672 -0.07421256
-0.10501326 0.1824122 0.04850271 -0.06510729 0.024001732 -0.107837975 0.060846325 0.16216232
-0.07662768 -0.12085979 -0.015252774 0.18383744 0.16983266 -0.22031935 0.106039 -0.12146736
-0.06837766 -0.16922207 0.14485767 -0.067853555 0.14257365 -0.17423844 0.13274474 0.096154235
-0.13289732 -0.20189865 0.093927436 0.16149262 0.11700827 0.0318683 -0.026292315 0.044456434
0.052289296 0.14567964 0.02823563 0.049323313 -0.066425264 -0.038733613 -0.15293723 0.06669541
0.14869991 0.17831571 -0.18482089 -0.091823205 -0.03471884 -0.038909707 -0.051419325 -0.089660585
-0.09909119 -0.02970706 -0.20599954 -0.19478536 0.20001028 0.114093006 -0.120657094 0.11268042
-0.06631203 0.2202026 -0.0101456195 -0.062508315 0.051253244 -0.13898659 -0.066810064 0.21088165
-0.02062084 0.16315155 -0.109479465 0.15522574 0.14078254 0.04038873 0.117122605 -0.20923507
-0.19146825 0.1491064 -0.23511586 0.12304375 0.046478763 0.15462142 0.163834 -0.06478016
-0.013099299 0.028347015 -0.04446028 0.15403804 -0.12326391 -0.013047487 -0.04006682 0.1380835
0.06796688 -0.0069482625 -0.10438398 -0.040636882 0.04612317 0.057116315 0.19240116 0.11165275
-0.018708078 0.14958069 0.22633761 -0.21684535 0.03296036 0.039500937 0.19112267 -0.015987653
0.22952498 0.07773383 0.039193068 0.07388754 -0.1691021 0.019946888 0.18251021 -0.18466036
0.04035402 0.08082357 0.17725442 -0.016485384 -0.050786685 0.095486775 -0.052803617 -0.21764411
-0.13682438 0.06880222 -0.02171227 0.011347622 -0.09017249 0.04562075 0.15346335 0.116397165
0.15237717 0.06227152 0.13946827 0.07476653 -0.06776889 -0.010876056 0.16766359 0.05647941
-0.10558876 0.20056212 -0.117536575 -0.18939473 -0.10339644 -0.21945673 -0.1259598 -0.013652891
0.14574967 0.12294179 0.12549941 0.040511385 -0.21116468 0.109702155 0.070235014 0.21444607
0.060660567 0.100926206 -0.109971635 0.09747203 0.15666382 0.16649958 0.077485725 -0.059496667
-0.09086776 0.21394409 0.110736765 0.14581527 -0.08604545 -0.0030817776 0.19141777 -0.09742822
0.20488544 0.053525463 0.12542158 0.0721061 0.09618971 -0.083444655 0.0027804011 -0.1538607
0.2115943 -0.09172307 0.09159387 0.23126519 0.12433918 0.013729338 -0.027408525 -0.030102354
-0.00040828716 0.021011712 -0.05503705 -0.09866878 -0.02589126 -0.08253054 0.07947459 -0.18391967

actor.2.weight f4 [256, 256]
00000000: 167b a3bc 905d 81bd 89be 3e3c ec30 81bd
00000010: 4fae 51bc 80f4 48ba 1ddc 6fbd 6e7e c13c
00000020: 587f 4ebd 14fd b6bc 073f 16bd d0fc 2d3d
00000030: b44c 413c f9f9 a1bc 4571 893c 01a6 623d
00000040: 9ebc 0a3d 49ad 7539 6b82 023c e021 433b
00000050: 66e4 4bbd 81ab 2c3d d2bf 4e3d bc0e adbc
00000060: 4794 05bc 913c 843c c897 943c 89f5 8fbc
00000070: 3158 8bbd 9a99 1abd 0677 3fbd 8649 3a3d
00000080: 49db 693d 868d 2b3d 3b93 2fbd 8368 fdbc
00000090: 8245 50bd f07e e33c 63a2 f2bd 34c9 8bb9
000000a0: 8096 a93a 5108 f63c a64c 15bc 446a a4bc
000000b0: 0b10 5cbd 12cb 39bd 6958 88bd 039f 86bd
000000c0: 20c4 283b 6140 80bb 16db 3b3d bf88 3abd
000000d0: 1b25 393d a4b6 74ba 91f4 9f3c 7b90 5bbd
000000e0: b0ae 983c b187 353d b7d3 0b3b 00b8 8d38
000000f0: 635e 4d3d 0aa7 66bd fa13 2bbd a5f6 da3c
00000100: e568 af3c f125 413d 77b7 d6bc 51f6 633d
00000110: c04d a93c aa91 23bd 7c84 21bd c643 16bd
00000120: b08e 34bd 8052 293a dcda 4cbd beba 88bd
00000130: 2d4b be3c 0a3b 8cbd 63bd 9dbc 2a99 44bd
00000140: f765 29ba a79b afbc d443 2a3c 1d20 153d
00000150: a5d1 06ba ee74 c73c 6fb0 0e3d 800e 093d
00000160: 5567 bd3c bfae a6bd 34cf 40bb e56f 0b3d
00000170: ad96 be3c 1ff4 b4bc 36de 0c3d 9241 4dbd
00000180: af9a 6bbc ef9c 75bd a68f 60bd a298 9e3c
00000190: 8f0c e3bc c6cc 8bbb 0454 2b3d 7c81 e83c
000001a0: 5b77 2a3d dc2f 06bc 2f2f 7ebd 4fac c93c
000001b0: 5cea bf3a addd 07bd 6e3d fabc 8298 2dbd
000001c0: 88fc d4bc b06c 4bbc a6af eabb 2c73 70bd
000001d0: c207 58bd e03a 033d 47e5 323c d06c 58bc
000001e0: d8f0 083d 26c7 143d 08ad fc3c 909d e43c
000001f0: 12f2 443d 4bb9 cabc 44be 13bd 110d c7ba
00000200: ccee fcbc 98ac 0e3c 2e5a 4cbd c36c 4dbd
00000210: 0539 053d f4a7 18bd 60ff 8a3b 49a0 50bc
00000220: f7d1 5d3d 5212 80bd 56c3 133d 2764 06bd
00000230: 8c7e 1c3d 4d25 99bc cdb5 bb3c 9010 86bc
00000240: 8a88 aebc 58e9 fc3c 2dd0 40bc 85d2 1b3d
00000250: 7c7a 183d 52e7 3bbd 1969 443d 7328 e53c
00000260: 80ea 94bd b458 7c3d 2080 1fbd 905c dfbb
00000270: b29e 81bd 8c17 e83c 1e66 53bd 409f f8bc
00000280: 4de6 6b3d 9bdd c93a f5d9 bcbc 723b 4c3d
00000290: 15df 98bd e700 fd3c 6ee1 2c3d 7c68 a53c
000002a0: d6e7 6b3c a8b1 2ebc 3816 eebc 9d3e 943c
000002b0: a87c f93b 8fac ef3c 4607 64b9 4f5f 303d
000002c0: ad8d 8a3c f15b 82bd b217 32bd d03c 123d
000002d0: 2a7b 5abc de3e 6b3d 1f66 d53c c009 873c
000002e0: 6218 133c e587 4b3d 00b7 843c 2444 5ebd
000002f0: 24f3 29bd 6438 883c a1fd 49bd a366 273c
00000300: f436 f0bc 2466 8ebc 6d71 bebb 9630 343c
00000310: 60d4 2e3d 4e37 843c b6a8 163d 2a9a 4fbd
00000320: 1c0e 0abc 2c26 123d 9852 0bbd 8b48 483c
00000330: 2395 71bd 0b7d f43c b5e4 e43b 67bf 95bd
00000340: 295a 55bd dc45 a2bd c092 fb3c 5a26 633d
00000350: 99f9 0c3c 2811 5a3c 1149 bf3c d13d 9d3c
00000360: 215e 52bd 9808 5a3d 5d4c debc fa4b 7b3d
00000370: b3fa 23bd 725a 37bc 7b46 7cbc 692b d6bc
00000380: 62fd 673d f29c 293d ab1a d1bc 90d7 263d
00000390: cf43 5abd bd56 333d fac7 38bd 8867 03bc
000003a0: 9e1f 14bc 352b 83bc 8eda 103b 90bf 043d
000003b0: 56d6 12bd e6c0 6cbd 1306 0e3d 6949 e13b
000003c0: c068 39bc a0f6 fbbb 8d0e 5bbc cc4f 0dbd
000003d0: 610e 2f3d 8d69 313d d2f9 47bd 3ec5 a1bb
000003e0: e766 db3c 280e 47bc 2098 a23b f6cd 143d
000003f0: be14 12bd 3411 3bbd 417a 2f3d 476c 87bc
-0.019956153 -0.06316674 0.011642107 -0.06308159 -0.012797906 -0.0007665828 -0.058559526 0.023619857
-0.050414413 -0.022337474 -0.0366812 0.04247743 0.011798073 -0.019772517 0.016777644 0.055334095
0.033871286 0.00023429575 0.007965664 0.002977483 -0.049778365 0.042155746 0.050475903 -0.02112519
-0.008153028 0.016142162 0.018138781 -0.017573135 -0.068039306 -0.037744142 -0.04674437 0.045480274
0.057093892 0.041883014 -0.04286502 -0.030933624 -0.050847538 0.02777049 -0.11847379 -0.00026662054
0.0012938529 0.030033262 -0.009112513 -0.020070203 -0.053726237 -0.04535968 -0.06657488 -0.06573298
0.0025751665 -0.0039139246 0.045863234 -0.045540567 0.045201402 -0.0009335077 0.019525798 -0.053604584
0.018637985 0.04431886 0.0021335909 6.7576766e-05 0.050138842 -0.056311645 -0.041767098 0.026728937
0.021412322 0.047155324 -0.02621053 0.055654828 0.020666957 -0.039933838 -0.039432988 -0.036685728
-0.04408139 0.0006459132 -0.050013408 -0.06676243 0.023229206 -0.06847198 -0.019255346 -0.04799763
-0.00064620323 -0.021436526 0.010392148 0.03640758 -0.0005142934 0.024347749 0.03483623 0.033461094
0.023120562 -0.08138799 -0.0029420378 0.034042258 0.023265207 -0.022089062 0.034391604 -0.05011136
-0.014380141 -0.059964117 -0.054824494 0.01935989 -0.02771595 -0.0042663543 0.04182817 0.028382055
0.041617732 -0.0081901215 -0.062056717 0.024618296 0.0014641988 -0.03317039 -0.03054687 -0.04238177
-0.025999323 -0.01241605 -0.007162052 -0.058703586 -0.052741773 0.03203857 0.010918922 -0.013209537
0.03343281 0.036322735 0.030844226 0.027907163 0.04808242 -0.024746558 -0.036070123 -0.0015186389
-0.030875586 0.008708142 -0.04989069 -0.05015255 0.03252508 -0.037269548 0.004241869 -0.012733527
0.054155316 -0.06253494 0.03607496 -0.032810356 0.038206622 -0.018694544 0.022913838 -0.01636532
-0.021305341 0.030872986 -0.011768383 0.038042564 0.037226185 -0.0458749 0.04795179 0.02797339
-0.0727129 0.06160803 -0.03894055 -0.006816454 -0.06329097 0.02833154 -0.05161106 -0.030349374
0.05759268 0.0015401127 -0.023053149 0.04986138 -0.074644245 0.03088422 0.042207174 0.020191424
0.014398536 -0.010662474 -0.02906333 0.018096263 0.007613737 0.029257087 -0.00021746484 0.043059643
0.01691326 -0.06365193 -0.04347963 0.035702527 -0.013335029 0.057433 0.026049672 0.016484141
0.008977981 0.049690146 0.016200542 -0.054264203 -0.041491643 0.016628452 -0.049314145 0.010217342
-0.029323079 -0.017382689 -0.0058118613 0.010997912 0.042683005 0.016139653 0.03678199 -0.05068413
-0.0084262155 0.035680935 -0.034014314 0.012224327 -0.05898012 0.029844781 0.006985272 -0.07311898
-0.052087937 -0.07923481 0.030709624 0.055456497 0.008604431 0.013309754 0.02335027 0.019194515
-0.0513593 0.053230852 -0.027136022 0.061351754 -0.040034007 -0.011190997 -0.015397663 -0.026143746
0.05663813 0.04140944 -0.025525412 0.04073292 -0.053287324 0.043783892 -0.045112588 -0.008020289
-0.009040741 -0.016011814 0.0022102925 0.03240925 -0.035848938 -0.05780115 0.03467376 0.0068752063
-0.011316478 -0.007689312 -0.013370168 -0.03449993 0.042738322 0.04331355 -0.04882223 -0.004936843
0.026782466 -0.012149371 0.0049619824 0.036329232 -0.035664313 -0.045670703 0.0428412 -0.016531123

actor.2.bias f4 [256]
00000000: e8e8 85bd af16 7cbc f256 87bd 2c22 1a3d
00000010: 9ec2 7a3d 40ce cf3c bf84 b13c 9379 6b3d
00000020: 0c9e bbbb b06b 2e3d 59fb 32bd 80e7 31bd
00000030: 1624 623d 5d10 6a3d aeac 90bb aa34 953c
00000040: d601 82bd b51e 79ba b4a5 513c 30c5 5abc
00000050: 33a0 1dbc 79be c53c 8765 d23c 0013 873c
00000060: 7377 2b3d 4b6d 5cbd fa8f 233c 2908 24bd
00000070: 8777 fe3b 397f 513c 5886 f63c 942c 45bd
00000080: d88c 403d 10f9 3abd 40d1 5fbd 2a21 493c
00000090: da57 5fbd 48bb 3ebd c45c 01bd 6cbf 8bbd
000000a0: 922e 91bd 1e77 50bd 990e 7d3d b147 823d
000000b0: d424 54bd a5dd c63b 085e 32bd 4400 3e3d
000000c0: 18c8 5abc c007 2d3c 61cf b63c 9b62 b0bb
000000d0: 1000 303d 4793 1dbd 2959 47bd f1b8 043c
000000e0: 3292 ffbb 95d1 79bd 167b 6fbd eee5 aebc
000000f0: c8b1 193d deb1 fc3c 4d69 1ebd d21a 6ebd
00000100: c0bf 18bb 9886 dbbc 8af6 5a3d 20ed 92bd
00000110: 65ee 533c c715 743d 1a96 243d 1e0c a03c
00000120: a4d4 b53a f6a8 b7bc 9026 56bd 6261 32bd
00000130: edf5 913d acc7 b2bc ed49 2d3d f022 383d
00000140: e804 40bc de92 35bd 6cf8 873d 121c 42bd
00000150: 0d01 733c 0828 26bb e611 e33c 5e5b 82bd
00000160: 48d6 43bc 7454 fc3c ec27 2f3d 0a7f 26bd
00000170: b4ba 2e3d 67fb b13b 6b20 45bd 4a25 25bd
00000180: fb40 523c 2471 52bd 8980 853a 1096 45bc
00000190: 0d86 d93c 242e bc3c 0c92 1cbd 297f adbc
000001a0: 939e e13c a5fa bbbc b81d 07bc e47c 7c3d
000001b0: 3558 8d3c 98ce 7abd e5d5 563d 3881 56bc
000001c0: da77 3a3b 367d 87bc b36e b93b 8667 e4bc
000001d0: a0f7 7fbc 2591 99bd 2cb9 14bd b294 95bd
000001e0: 5f74 27bd e445 76bc a4d3 433d ddb7 79bc
000001f0: ab6c ccbc b10a dabc cce3 983c 7c42 c63c
00000200: 84fb 403d d33e 57bc 6b51 8bbc 902a 02bc
00000210: 1671 df3c 3ba5 e5bc 4344 313d e0b6 55bb
00000220: dd26 4e3d e4eb d13c 9407 9cbc 0238 09bc
00000230: d20b 173d b30c 87bc 7f07 5ebd 5370 153c
00000240: c9c2 47ba aa4f 92bd 68e6 44bd 42d5 7dbd
00000250: f6c3 54bb ad24 bc3c 3f8b 083d ca2b 6a3d
00000260: d6c0 0d3d 05a8 1c3d ca13 c83c 5974 03bd
00000270: 74b6 1a3d a10d 3f3d 3df9 b33d d0ee 7a3c
00000280: ed87 263d b592 a73c b5b0 8d3b aa6c 33bd
00000290: c0c2 5f3d 3ab4 753c e5c3 4abc 40cb babc
000002a0: ea5d 86bd 0aac 743d 36d8 9abc 2293 573d
000002b0: 21db 9d3d 611b 523d 1d26 9abd 3c73 943c
000002c0: 0a10 103c 43f3 28bd de4c 39bb 77e3 64bd
000002d0: 3d34 263c 225f 37bd 8792 433d e66d a03c
000002e0: 2628 b63d 2cd4 9bbc 4048 e83a df41 0e3d
000002f0: e5e0 f8bc e091 223d 4aca 633d 5bf6 9abc
00000300: 5253 42bc 7710 12bd f1ac 823c 0271 36bd
00000310: 538c 54bd b5af 48bd 5129 05bd 6984 1b3d
00000320: b66c 063d d76a 1fbd 31f5 36ba 001f 0f3d
00000330: 4e6d 3bba c913 1fbd 4eab 43bb 4b53 f33c
00000340: 4d58 a13d a92b 2a3d 5ae1 263c 543b 6bbc
00000350: 50ab 1bbd f89f 8abc 1e65 153d 4398 c03d
00000360: d6c3 e43a a09d a23d 1338 bcbb 554a 1f3d
00000370: 96dd 073d 2719 983c 2568 3d3b b9bb 38ba
00000380: 086b d83c a154 69bd ce60 793d ee70 963c
00000390: d70f 0e3d 425a 2f3d a6bf 0ebd 5aa9 9c3d
000003a0: 48a1 b9bc 98db 333d b32f 363c b962 bcbc
000003b0: 7f95 f73c f3bc a3bc c6e5 943c b508 22bd
000003c0: df91 ba3b a8ea a13c b0d5 c3bc 80f4 903c
000003d0: c26d 083d c689 23bd ca8d 8b3c 8cb5 b23c
000003e0: a45e 07bd 4631 2bbb caf8 e83c 615a fe3c
000003f0: 3ce4 e8bc 5d1f 3f3d 8539 78bd b3fa 93bb
-0.06538564 -0.015386268 -0.066083804 0.037630245 0.061220758 0.025366902 0.021669744 0.05748899
-0.0057256278 0.042583168 -0.043696735 -0.043433666 0.055210195 0.05714451 -0.0044151163 0.018213589
-0.063480064 -0.0009503172 0.012795854 -0.013352677 -0.009620714 0.024138676 0.025683178 0.016488552
0.041861963 -0.053815167 0.009983057 -0.040046845 0.0077657136 0.01278668 0.030093357 -0.048138216
0.04700932 -0.04564768 -0.054642916 0.012275973 -0.05452714 -0.046565324 -0.03158261 -0.0682362
-0.07088961 -0.05089485 0.0617815 0.0636133 -0.051792935 0.0060689026 -0.043546706 0.046386972
-0.01335337 0.01056093 0.022315683 -0.0053828484 0.04296881 -0.038470533 -0.048669014 0.008100734
-0.0077994103 -0.06099089 -0.058466993 -0.021349873 0.03752306 0.030846532 -0.03867464 -0.058131047
-0.0023307651 -0.026797578 0.053457774 -0.07174134 0.012935256 0.05959108 0.04018221 0.019537028
0.0013872576 -0.022419434 -0.05228287 -0.043549903 0.07126985 -0.021823727 0.04230683 0.044955194
-0.01171992 -0.044329517 0.066391796 -0.04739005 0.0148317935 -0.002535345 0.027718496 -0.06365083
-0.011952944 0.03080199 0.04276268 -0.040648498 0.042658523 0.005431581 -0.04812662 -0.040318765
0.012832875 -0.05137743 0.0010185401 -0.0120597035 0.026553178 0.02297122 -0.03822522 -0.021178799
0.027541434 -0.022946665 -0.008246832 0.061642542 0.017253974 -0.06123218 0.05245008 -0.013092332
0.0028452785 -0.016539197 0.0056589483 -0.027881395 -0.015623003 -0.07498387 -0.036309406 -0.07303752
-0.040882464 -0.015031312 0.047809258 -0.01524159 -0.02495416 -0.026616426 0.01866331 0.024201624
0.047114864 -0.013137537 -0.017006597 -0.007944718 0.027275603 -0.02803289 0.04327799 -0.0032610223
0.05033003 0.025625177 -0.019046582 -0.00837517 0.036876507 -0.016485548 -0.054206368 0.009121018
-0.0007620273 -0.07144101 -0.048071295 -0.061970957 -0.0032465435 0.022966707 0.03333592 0.057170667
0.03460773 0.038246173 0.024423499 -0.03209338 0.037771657 0.046643857 0.08787773 0.015315726
0.040656973 0.020455698 0.0043240436 -0.043804802 0.054629087 0.014996583 -0.012375806 -0.022801995
-0.065608814 0.05973438 -0.018901926 0.05263055 0.07707811 0.05129564 -0.07526801 0.018121354
0.0087928865 -0.041247617 -0.0028274576 -0.05588099 0.0101442905 -0.04476846 0.04774716 0.019583654
0.088943765 -0.01902207 0.0017721727 0.03473079 -0.030380676 0.0396899 0.05561284 -0.0189163
-0.011860685 -0.035660233 0.015951606 -0.044541366 -0.051891636 -0.048995692 -0.032510106 0.037968073
0.03281852 -0.03892025 -0.00069792854 0.034941673 -0.00071497716 -0.038837228 -0.0029856744 0.029702803
0.0787817 0.041545544 0.010185564 -0.014357407 -0.038005173 -0.016921982 0.036473386 0.094040416
0.0017453383 0.07940221 -0.0057439893 0.038889248 0.033170305 0.018566681 0.0028901186 -0.0007047016
0.026418224 -0.056965474 0.060883336 0.018364396 0.034683075 0.042810686 -0.03485074 0.07649489
-0.022659913 0.043910593 0.011119771 -0.022996293 0.030222652 -0.019987559 0.01817597 -0.039559085
0.0056936587 0.019765213 -0.023905605 0.017694712 0.0333078 -0.039926313 0.017035384 0.021815084
-0.03304924 -0.0026121899 0.028438944 0.031048955 -0.028429143 0.04666077 -0.06060173 -0.0045159697

actor.4.weight f4 [6, 256]
00000000: 5892 8cbc 7f0b 5cba 6af6 d6bc 27ac fe3d
00000010: d47a e43c 22b9 14bd adff 0b3e b411 bc3c
00000020: 863e 17bd 2d7b d8bb 2c73 57bd 0db7 f93c
00000030: 19eb 0b3d dc9a 55bd b032 d23c 0b68 4038
00000040: a860 81bc 8ef0 2d3d 034a 3f3d fe41 943c
00000050: 8120 1b3d aca9 84bc d10a 373d 2921 8dba
00000060: a119 3cbd aed2 2b3d 0b6a 42bd 2551 193d
00000070: dca6 99bc 5d5a 233d 159f f8bb fc3c 0bbd
00000080: 3b8d bdbc aa0a 7d3d 7026 c3bb 6786 efbc
00000090: 90ff 573d 4be1 f83d d28c 5bbd 4e46 013d
000000a0: a9f2 263c 5047 d53b c2de 9b3c 0159 f9bb
000000b0: 2533 1539 c414 a83b 2a3c 363d 18a1 963c
000000c0: b055 e2bc 44eb c83c 46ca c7bb dd0c 063e
000000d0: d861 c2bc e968 773b b8d3 6abc be6d ccbc
000000e0: 17e3 123e d9dc 31bc 50c2 a1bc 4034 983c
000000f0: adc1 133d 7949 3cbd b7a9 4c3d 8478 883c
00000100: 5402 693d 95d1 6a3d 84e3 753d 54e9 76bd
00000110: b667 bbbc caf2 6ebc 6df0 9bba 8e30 bdbc
00000120: 28a2 ba3d ae19 30bd a81f c6bc 9893 4a3d
00000130: 06da 513e 9e7f 16bd 816b bfbc 8b54 5abd
00000140: d77f 46bc 8064 9abc 3002 033e f007 053d
00000150: 0b9a 5d3c b7a9 5f3c 5920 61bd ba61 54bd
00000160: a461 bc3c 5c74 b1bc ec85 f53c 0cd6 79bd
00000170: 776b 363e a904 773d 17d9 2abc 3c32 1c3d
00000180: da4f 7dbc 4ca2 7a3c 60b4 ef3d 3713 2ebd
00000190: 6420 beba 9c45 0abd aadb 133d d33b 433d
000001a0: e0aa 45bd e0eb 333d d841 74bc c07f cfbb
000001b0: f89d c13d ae19 3b3d 51e6 94bd 8656 723d
000001c0: 2946 a6bc 6c61 28bd 32cd 06bd 5b2b 463d
000001d0: 8914 143d 562b f2bc 6823 07bc 3393 15bc
000001e0: 5e1b 673c 0475 0d3d f21b 3abd 3d9f 753b
000001f0: 09e0 df3c e58d 2b3c 9fe6 d8bc 442e 2b3d
00000200: f2a5 c73c 73e1 b3bc 73d6 e3bc 6038 633b
00000210: 6399 2cbd ca58 fdbc ae85 cb3c b4b8 a0bc
00000220: cc39 82bd 95f2 6c3d 68e0 f3bc d04b 7fbd
00000230: 55a0 7dbd cc58 c439 3f6b ccbc 4408 0b3d
00000240: d293 f9bc 1fd3 4fbd 839e edbc beae 0d3d
00000250: 586d 0bbd f4f4 143e 95da b63d 8ecf 9c3a
00000260: 608c bcbc 8824 66bd 6966 08bd 0f2d 34bd
00000270: 214f 513d d355 4a3d a9d5 893d 0007 8839
00000280: 0443 053c de25 233d bd50 9c3d 60bc 863c
00000290: 12ae 5abd a16f 223d 6714 fcbb d0cd 22bd
000002a0: 29c9 1a3c 102c f43d 7163 35bc 0c2d 8d3c
000002b0: 8238 c83d ebec 6cbc 4b5f 2b3d 5048 96bb
000002c0: e0b9 62bd 6fd0 d53c c590 bb3b 573d 9e3d
000002d0: bc5f 08bd a0d1 113c c82a 4a3d a665 ddbc
000002e0: 9cb3 f53c 9c51 de3c 12d1 5b3d 9855 02bb
000002f0: fb73 bfbc 2ffb 6bbd 2ee1 703d cd66 383d
00000300: ba98 313d a1da 69bd b3dd 5c3d 2117 1ebd
00000310: 7ad7 073d d3c6 5f3c 7e42 17bd 43d2 bd3c
00000320: af96 b03c 6dbf 9a3c 7346 293d be77 053c
00000330: 5de0 8dbc 6927 13bd d574 8abc d3ea 1cbc
00000340: f7a0 953d 051c e63c dbc6 b03d 45cd aa3d
00000350: 4757 093d aea1 c03c cdef 973d d129 b33c
00000360: 8de2 8c3d de04 e53d 5b12 3b3d f083 c53d
00000370: b432 51bb 4cbf a03d 56e0 84bd 3d7f ef3d
00000380: 48bb 89bd b64c 92bc 1c77 da3c a88d ce3c
00000390: fc67 d5bc b2ac 49bb fc15 80bc 1929 4e3e
000003a0: ee5e d738 fab7 233d 3823 263b 75bd 793c
000003b0: 6fb3 07ba 5762 2bbd 6b40 fdba ea25 e53c
000003c0: 540c 86bd be26 1abd ba32 5e3d cd46 dcbc
000003d0: 6ead 113d e0eb 023c 9e7c 403c 23fc e93c
000003e0: 40fa f2bc b5c3 05bd 2ba3 2d3b 4476 f3bb
000003f0: 7e93 773d 7a6b 9cbc 2dfe 23bd 11ef 77b9
-0.017159626 -0.0008394047 -0.026240546 0.12435179 0.0278906 -0.03630937 0.13671751 0.02295766
-0.03692486 -0.0066064806 -0.05260007 0.030482793 0.034159753 -0.05214964 0.025658935 4.5873265e-05
-0.01579316 0.04246574 0.046701442 0.018097874 0.037872795 -0.016194187 0.04468805 -0.0010767329
-0.04592288 0.041948967 -0.04746441 0.0374309 -0.018756323 0.0398811 -0.0075873234 -0.033993706
-0.023138633 0.06177775 -0.00595551 -0.029238893 0.052733958 0.12152346 -0.053601094 0.03156119
0.010189691 0.0065087453 0.019027118 -0.007609487 0.000142288 0.0051294286 0.04449097 0.018387362
-0.02762875 0.024526246 -0.006097111 0.13090844 -0.023728296 0.003775174 -0.014332704 -0.024954673
0.1434444 -0.010855877 -0.019745976 0.018579602 0.036073375 -0.045968506 0.04996654 0.016659029
0.056886986 0.05732878 0.06003143 -0.060281113 -0.022876602 -0.014584253 -0.0011897214 -0.023094442
0.0911296 -0.04299324 -0.024185017 0.049457163 0.20493326 -0.0367428 -0.023366692 -0.053303283
-0.01211544 -0.01884675 0.12793803 0.032478273 0.013525496 0.013651303 -0.05496249 -0.05185101
0.022995777 -0.02166193 0.029971085 -0.060995147 0.17814432 0.06030718 -0.010427735 0.038133845
-0.015460933 0.015297484 0.11704326 -0.042498793 -0.0014505503 -0.03375779 0.03609816 0.047664475
-0.048258662 0.04392612 -0.0149082765 -0.0063323677 0.09453958 0.045678787 -0.07270492 0.059164546
-0.020297127 -0.041108534 -0.032910533 0.04838119 0.036152396 -0.02956168 -0.008248188 -0.009129333
0.014105646 0.034535423 -0.045436807 0.0037478947 0.027328508 0.010470842 -0.026477156 0.04179217
0.024371121 -0.021958089 -0.027812218 0.0034671053 -0.04213847 -0.030926127 0.024844017 -0.019619323
-0.0635868 0.05784853 -0.029770091 -0.06232816 -0.061920483 0.00037450192 -0.024953483 0.03394343
-0.030465994 -0.05073845 -0.029006248 0.034590475 -0.034039825 0.14546567 0.0892841 0.0011963712
-0.023016155 -0.056187183 -0.03330079 -0.043988284 0.051100854 0.049398255 0.067302056 0.00025945157
0.008133654 0.039831035 0.07632587 0.016447246 -0.053388663 0.03965724 -0.007692862 -0.03974706
0.009447374 0.11922467 -0.011071072 0.017233394 0.09776403 -0.0144607825 0.041838925 -0.004586257
-0.055353045 0.026100365 0.005724045 0.077265434 -0.033294424 0.008900076 0.049357206 -0.027026009
0.029992871 0.027138524 0.05366618 -0.0019887444 -0.023370733 -0.057612594 0.058808498 0.045019913
0.043358542 -0.057093266 0.053922366 -0.038596276 0.03316448 0.013658243 -0.036928646 0.02317155
0.021556227 0.018890107 0.04132695 0.008146225 -0.017318899 -0.035926256 -0.016901413 -0.009577471
0.07306092 0.028089533 0.08631679 0.08339933 0.0335305 0.023514595 0.07418785 0.021870526
0.06879149 0.11182569 0.045671802 0.09644306 -0.003192109 0.07848987 -0.06488101 0.11694191
-0.06725174 -0.017858844 0.026668124 0.025214031 -0.02605056 -0.00307731 -0.015635483 0.20132865
0.00010269681 0.039970376 0.0025350582 0.015242924 -0.0005176579 -0.04184183 -0.0019321566 0.02797218
-0.0654532 -0.037634604 0.054247595 -0.02688923 0.035565786 0.007990807 0.011748461 0.028562611
-0.029660344 -0.032657344 0.002649496 -0.00742987 0.060443394 -0.019094218 -0.040037323 -0.00023644815

actor.4.bias f4 [6]
00000000: 5ffd 833d 3368 7e3d 7667 3cbd 0f5f 963d
00000010: 0531 89bc 88fa 703d
0.06444811 0.06211109 -0.045997106 0.0734235 -0.016747007 0.058832675
